program(1.0)
[buildInfo = dict<tensor<string, []>, tensor<string, []>>({{"coremlc-component-MIL", "3520.4.1"}, {"coremlc-version", "3520.5.1"}, {"coremltools-component-torch", "2.4.1"}, {"coremltools-source-dialect", "TorchScript"}, {"coremltools-version", "8.0b2"}})]
{
    func main<ios17>(tensor<fp16, [1, 256, 64, 64]> dense_embedding, tensor<fp16, [1, 32, 256, 256]> feats_s0, tensor<fp16, [1, 64, 128, 128]> feats_s1, tensor<fp16, [1, 256, 64, 64]> image_embedding, tensor<fp16, [1, ?, 256]> sparse_embedding) [FlexibleShapeInformation = tuple<tuple<tensor<string, []>, dict<tensor<string, []>, tensor<int32, [?]>>>, tuple<tensor<string, []>, dict<tensor<string, []>, dict<tensor<string, []>, tensor<int32, [?]>>>>>((("DefaultShapes", {{"sparse_embedding", [1, 2, 256]}}), ("EnumeratedShapes", {{"dense_embedding_1_1_256_64_64_feats_s0_1_1_32_256_256_feats_s1_1_1_64_128_128_image_embedding_1_1_256_64_64_sparse_embedding_1_1_1_10_256_", {{"dense_embedding", [1, 256, 64, 64]}, {"feats_s0", [1, 32, 256, 256]}, {"feats_s1", [1, 64, 128, 128]}, {"image_embedding", [1, 256, 64, 64]}, {"sparse_embedding", [1, 10, 256]}}}, {"dense_embedding_1_1_256_64_64_feats_s0_1_1_32_256_256_feats_s1_1_1_64_128_128_image_embedding_1_1_256_64_64_sparse_embedding_1_1_1_11_256_", {{"dense_embedding", [1, 256, 64, 64]}, {"feats_s0", [1, 32, 256, 256]}, {"feats_s1", [1, 64, 128, 128]}, {"image_embedding", [1, 256, 64, 64]}, {"sparse_embedding", [1, 11, 256]}}}, {"dense_embedding_1_1_256_64_64_feats_s0_1_1_32_256_256_feats_s1_1_1_64_128_128_image_embedding_1_1_256_64_64_sparse_embedding_1_1_1_12_256_", {{"dense_embedding", [1, 256, 64, 64]}, {"feats_s0", [1, 32, 256, 256]}, {"feats_s1", [1, 64, 128, 128]}, {"image_embedding", [1, 256, 64, 64]}, {"sparse_embedding", [1, 12, 256]}}}, {"dense_embedding_1_1_256_64_64_feats_s0_1_1_32_256_256_feats_s1_1_1_64_128_128_image_embedding_1_1_256_64_64_sparse_embedding_1_1_1_13_256_", {{"dense_embedding", [1, 256, 64, 64]}, {"feats_s0", [1, 32, 256, 256]}, {"feats_s1", [1, 64, 128, 128]}, {"image_embedding", [1, 256, 64, 64]}, {"sparse_embedding", [1, 13, 256]}}}, {"dense_embedding_1_1_256_64_64_feats_s0_1_1_32_256_256_feats_s1_1_1_64_128_128_image_embedding_1_1_256_64_64_sparse_embedding_1_1_1_14_256_", {{"dense_embedding", [1, 256, 64, 64]}, {"feats_s0", [1, 32, 256, 256]}, {"feats_s1", [1, 64, 128, 128]}, {"image_embedding", [1, 256, 64, 64]}, {"sparse_embedding", [1, 14, 256]}}}, {"dense_embedding_1_1_256_64_64_feats_s0_1_1_32_256_256_feats_s1_1_1_64_128_128_image_embedding_1_1_256_64_64_sparse_embedding_1_1_1_15_256_", {{"dense_embedding", [1, 256, 64, 64]}, {"feats_s0", [1, 32, 256, 256]}, {"feats_s1", [1, 64, 128, 128]}, {"image_embedding", [1, 256, 64, 64]}, {"sparse_embedding", [1, 15, 256]}}}, {"dense_embedding_1_1_256_64_64_feats_s0_1_1_32_256_256_feats_s1_1_1_64_128_128_image_embedding_1_1_256_64_64_sparse_embedding_1_1_1_2_256_", {{"dense_embedding", [1, 256, 64, 64]}, {"feats_s0", [1, 32, 256, 256]}, {"feats_s1", [1, 64, 128, 128]}, {"image_embedding", [1, 256, 64, 64]}, {"sparse_embedding", [1, 2, 256]}}}, {"dense_embedding_1_1_256_64_64_feats_s0_1_1_32_256_256_feats_s1_1_1_64_128_128_image_embedding_1_1_256_64_64_sparse_embedding_1_1_1_3_256_", {{"dense_embedding", [1, 256, 64, 64]}, {"feats_s0", [1, 32, 256, 256]}, {"feats_s1", [1, 64, 128, 128]}, {"image_embedding", [1, 256, 64, 64]}, {"sparse_embedding", [1, 3, 256]}}}, {"dense_embedding_1_1_256_64_64_feats_s0_1_1_32_256_256_feats_s1_1_1_64_128_128_image_embedding_1_1_256_64_64_sparse_embedding_1_1_1_4_256_", {{"dense_embedding", [1, 256, 64, 64]}, {"feats_s0", [1, 32, 256, 256]}, {"feats_s1", [1, 64, 128, 128]}, {"image_embedding", [1, 256, 64, 64]}, {"sparse_embedding", [1, 4, 256]}}}, {"dense_embedding_1_1_256_64_64_feats_s0_1_1_32_256_256_feats_s1_1_1_64_128_128_image_embedding_1_1_256_64_64_sparse_embedding_1_1_1_5_256_", {{"dense_embedding", [1, 256, 64, 64]}, {"feats_s0", [1, 32, 256, 256]}, {"feats_s1", [1, 64, 128, 128]}, {"image_embedding", [1, 256, 64, 64]}, {"sparse_embedding", [1, 5, 256]}}}, {"dense_embedding_1_1_256_64_64_feats_s0_1_1_32_256_256_feats_s1_1_1_64_128_128_image_embedding_1_1_256_64_64_sparse_embedding_1_1_1_6_256_", {{"dense_embedding", [1, 256, 64, 64]}, {"feats_s0", [1, 32, 256, 256]}, {"feats_s1", [1, 64, 128, 128]}, {"image_embedding", [1, 256, 64, 64]}, {"sparse_embedding", [1, 6, 256]}}}, {"dense_embedding_1_1_256_64_64_feats_s0_1_1_32_256_256_feats_s1_1_1_64_128_128_image_embedding_1_1_256_64_64_sparse_embedding_1_1_1_7_256_", {{"dense_embedding", [1, 256, 64, 64]}, {"feats_s0", [1, 32, 256, 256]}, {"feats_s1", [1, 64, 128, 128]}, {"image_embedding", [1, 256, 64, 64]}, {"sparse_embedding", [1, 7, 256]}}}, {"dense_embedding_1_1_256_64_64_feats_s0_1_1_32_256_256_feats_s1_1_1_64_128_128_image_embedding_1_1_256_64_64_sparse_embedding_1_1_1_8_256_", {{"dense_embedding", [1, 256, 64, 64]}, {"feats_s0", [1, 32, 256, 256]}, {"feats_s1", [1, 64, 128, 128]}, {"image_embedding", [1, 256, 64, 64]}, {"sparse_embedding", [1, 8, 256]}}}, {"dense_embedding_1_1_256_64_64_feats_s0_1_1_32_256_256_feats_s1_1_1_64_128_128_image_embedding_1_1_256_64_64_sparse_embedding_1_1_1_9_256_", {{"dense_embedding", [1, 256, 64, 64]}, {"feats_s0", [1, 32, 256, 256]}, {"feats_s1", [1, 64, 128, 128]}, {"image_embedding", [1, 256, 64, 64]}, {"sparse_embedding", [1, 9, 256]}}}})))] {
            tensor<int32, []> var_72 = const()[name = tensor<string, []>("op_72"), val = tensor<int32, []>(1)];
            tensor<bool, []> tokens_interleave_0 = const()[name = tensor<string, []>("tokens_interleave_0"), val = tensor<bool, []>(false)];
            tensor<fp16, [1, 6, 256]> var_61_to_fp16 = const()[name = tensor<string, []>("op_61_to_fp16"), val = tensor<fp16, [1, 6, 256]>(BLOBFILE(path = tensor<string, []>("@model_path/weights/weight.bin"), offset = tensor<uint64, []>(64)))];
            tensor<fp16, [1, ?, 256]> tokens_cast_fp16 = concat(axis = var_72, interleave = tokens_interleave_0, values = (var_61_to_fp16, sparse_embedding))[name = tensor<string, []>("tokens_cast_fp16")];
            tensor<fp16, [1, 256, 64, 64]> src_cast_fp16 = add(x = image_embedding, y = dense_embedding)[name = tensor<string, []>("src_cast_fp16")];
            tensor<int32, [3]> concat_0 = const()[name = tensor<string, []>("concat_0"), val = tensor<int32, [3]>([1, 256, 4096])];
            tensor<fp16, [1, 256, 4096]> var_100_cast_fp16 = reshape(shape = concat_0, x = src_cast_fp16)[name = tensor<string, []>("op_100_cast_fp16")];
            tensor<int32, [3]> var_104 = const()[name = tensor<string, []>("op_104"), val = tensor<int32, [3]>([0, 2, 1])];
            tensor<fp16, [256, 256]> var_114_to_fp16 = const()[name = tensor<string, []>("op_114_to_fp16"), val = tensor<fp16, [256, 256]>(BLOBFILE(path = tensor<string, []>("@model_path/weights/weight.bin"), offset = tensor<uint64, []>(3200)))];
            tensor<fp16, [256]> var_115_to_fp16 = const()[name = tensor<string, []>("op_115_to_fp16"), val = tensor<fp16, [256]>(BLOBFILE(path = tensor<string, []>("@model_path/weights/weight.bin"), offset = tensor<uint64, []>(134336)))];
            tensor<fp16, [1, ?, 256]> linear_0_cast_fp16 = linear(bias = var_115_to_fp16, weight = var_114_to_fp16, x = tokens_cast_fp16)[name = tensor<string, []>("linear_0_cast_fp16")];
            tensor<fp16, [256, 256]> var_117_to_fp16 = const()[name = tensor<string, []>("op_117_to_fp16"), val = tensor<fp16, [256, 256]>(BLOBFILE(path = tensor<string, []>("@model_path/weights/weight.bin"), offset = tensor<uint64, []>(134912)))];
            tensor<fp16, [256]> var_118_to_fp16 = const()[name = tensor<string, []>("op_118_to_fp16"), val = tensor<fp16, [256]>(BLOBFILE(path = tensor<string, []>("@model_path/weights/weight.bin"), offset = tensor<uint64, []>(266048)))];
            tensor<fp16, [1, ?, 256]> linear_1_cast_fp16 = linear(bias = var_118_to_fp16, weight = var_117_to_fp16, x = tokens_cast_fp16)[name = tensor<string, []>("linear_1_cast_fp16")];
            tensor<fp16, [256, 256]> var_120_to_fp16 = const()[name = tensor<string, []>("op_120_to_fp16"), val = tensor<fp16, [256, 256]>(BLOBFILE(path = tensor<string, []>("@model_path/weights/weight.bin"), offset = tensor<uint64, []>(266624)))];
            tensor<fp16, [256]> var_121_to_fp16 = const()[name = tensor<string, []>("op_121_to_fp16"), val = tensor<fp16, [256]>(BLOBFILE(path = tensor<string, []>("@model_path/weights/weight.bin"), offset = tensor<uint64, []>(397760)))];
            tensor<fp16, [1, ?, 256]> linear_2_cast_fp16 = linear(bias = var_121_to_fp16, weight = var_120_to_fp16, x = tokens_cast_fp16)[name = tensor<string, []>("linear_2_cast_fp16")];
            tensor<int32, [4]> concat_2x = const()[name = tensor<string, []>("concat_2x"), val = tensor<int32, [4]>([1, -1, 8, 32])];
            tensor<fp16, [1, ?, 8, 32]> x_3_cast_fp16 = reshape(shape = concat_2x, x = linear_0_cast_fp16)[name = tensor<string, []>("x_3_cast_fp16")];
            tensor<int32, [4]> concat_3x = const()[name = tensor<string, []>("concat_3x"), val = tensor<int32, [4]>([1, -1, 8, 32])];
            tensor<fp16, [1, ?, 8, 32]> x_7_cast_fp16 = reshape(shape = concat_3x, x = linear_1_cast_fp16)[name = tensor<string, []>("x_7_cast_fp16")];
            tensor<int32, [4]> concat_4x = const()[name = tensor<string, []>("concat_4x"), val = tensor<int32, [4]>([1, -1, 8, 32])];
            tensor<fp16, [1, ?, 8, 32]> x_11_cast_fp16 = reshape(shape = concat_4x, x = linear_2_cast_fp16)[name = tensor<string, []>("x_11_cast_fp16")];
            tensor<int32, [4]> v_1_perm_0 = const()[name = tensor<string, []>("v_1_perm_0"), val = tensor<int32, [4]>([0, 2, 1, 3])];
            tensor<fp16, []> mul_0_y_0_to_fp16 = const()[name = tensor<string, []>("mul_0_y_0_to_fp16"), val = tensor<fp16, []>(0x1.6ap-3)];
            tensor<fp16, [1, ?, 8, 32]> mul_0_cast_fp16 = mul(x = x_3_cast_fp16, y = mul_0_y_0_to_fp16)[name = tensor<string, []>("mul_0_cast_fp16")];
            tensor<bool, []> matmul_0_transpose_y_0 = const()[name = tensor<string, []>("matmul_0_transpose_y_0"), val = tensor<bool, []>(true)];
            tensor<bool, []> matmul_0_transpose_x_0 = const()[name = tensor<string, []>("matmul_0_transpose_x_0"), val = tensor<bool, []>(false)];
            tensor<int32, [4]> transpose_30_perm_0 = const()[name = tensor<string, []>("transpose_30_perm_0"), val = tensor<int32, [4]>([0, 2, -3, -1])];
            tensor<int32, [4]> transpose_31_perm_0 = const()[name = tensor<string, []>("transpose_31_perm_0"), val = tensor<int32, [4]>([0, 2, -3, -1])];
            tensor<fp16, [1, 8, ?, 32]> transpose_31 = transpose(perm = transpose_31_perm_0, x = x_7_cast_fp16)[name = tensor<string, []>("transpose_70")];
            tensor<fp16, [1, 8, ?, 32]> transpose_30 = transpose(perm = transpose_30_perm_0, x = mul_0_cast_fp16)[name = tensor<string, []>("transpose_71")];
            tensor<fp16, [1, 8, ?, ?]> matmul_0_cast_fp16 = matmul(transpose_x = matmul_0_transpose_x_0, transpose_y = matmul_0_transpose_y_0, x = transpose_30, y = transpose_31)[name = tensor<string, []>("matmul_0_cast_fp16")];
            tensor<int32, []> softmax_0_axis_0 = const()[name = tensor<string, []>("softmax_0_axis_0"), val = tensor<int32, []>(-1)];
            tensor<fp16, [1, 8, ?, ?]> softmax_0_cast_fp16 = softmax(axis = softmax_0_axis_0, x = matmul_0_cast_fp16)[name = tensor<string, []>("softmax_0_cast_fp16")];
            tensor<bool, []> x_13_transpose_x_0 = const()[name = tensor<string, []>("x_13_transpose_x_0"), val = tensor<bool, []>(false)];
            tensor<bool, []> x_13_transpose_y_0 = const()[name = tensor<string, []>("x_13_transpose_y_0"), val = tensor<bool, []>(false)];
            tensor<fp16, [1, 8, ?, 32]> v_1_cast_fp16 = transpose(perm = v_1_perm_0, x = x_11_cast_fp16)[name = tensor<string, []>("transpose_72")];
            tensor<fp16, [1, 8, ?, 32]> x_13_cast_fp16 = matmul(transpose_x = x_13_transpose_x_0, transpose_y = x_13_transpose_y_0, x = softmax_0_cast_fp16, y = v_1_cast_fp16)[name = tensor<string, []>("x_13_cast_fp16")];
            tensor<int32, [4]> x_15_perm_0 = const()[name = tensor<string, []>("x_15_perm_0"), val = tensor<int32, [4]>([0, 2, 1, 3])];
            tensor<int32, [3]> concat_5x = const()[name = tensor<string, []>("concat_5x"), val = tensor<int32, [3]>([1, -1, 256])];
            tensor<fp16, [1, ?, 8, 32]> x_15_cast_fp16 = transpose(perm = x_15_perm_0, x = x_13_cast_fp16)[name = tensor<string, []>("transpose_69")];
            tensor<fp16, [1, ?, 256]> input_1_cast_fp16 = reshape(shape = concat_5x, x = x_15_cast_fp16)[name = tensor<string, []>("input_1_cast_fp16")];
            tensor<fp16, [256, 256]> var_209_to_fp16 = const()[name = tensor<string, []>("op_209_to_fp16"), val = tensor<fp16, [256, 256]>(BLOBFILE(path = tensor<string, []>("@model_path/weights/weight.bin"), offset = tensor<uint64, []>(398336)))];
            tensor<fp16, [256]> var_210_to_fp16 = const()[name = tensor<string, []>("op_210_to_fp16"), val = tensor<fp16, [256]>(BLOBFILE(path = tensor<string, []>("@model_path/weights/weight.bin"), offset = tensor<uint64, []>(529472)))];
            tensor<fp16, [1, ?, 256]> linear_3_cast_fp16 = linear(bias = var_210_to_fp16, weight = var_209_to_fp16, x = input_1_cast_fp16)[name = tensor<string, []>("linear_3_cast_fp16")];
            tensor<int32, [1]> queries_1_axes_0 = const()[name = tensor<string, []>("queries_1_axes_0"), val = tensor<int32, [1]>([-1])];
            tensor<fp16, [256]> var_214_to_fp16 = const()[name = tensor<string, []>("op_214_to_fp16"), val = tensor<fp16, [256]>(BLOBFILE(path = tensor<string, []>("@model_path/weights/weight.bin"), offset = tensor<uint64, []>(530048)))];
            tensor<fp16, [256]> var_215_to_fp16 = const()[name = tensor<string, []>("op_215_to_fp16"), val = tensor<fp16, [256]>(BLOBFILE(path = tensor<string, []>("@model_path/weights/weight.bin"), offset = tensor<uint64, []>(530624)))];
            tensor<fp16, []> var_216_to_fp16 = const()[name = tensor<string, []>("op_216_to_fp16"), val = tensor<fp16, []>(0x1.5p-17)];
            tensor<fp16, [1, ?, 256]> queries_1_cast_fp16 = layer_norm(axes = queries_1_axes_0, beta = var_215_to_fp16, epsilon = var_216_to_fp16, gamma = var_214_to_fp16, x = linear_3_cast_fp16)[name = tensor<string, []>("queries_1_cast_fp16")];
            tensor<fp16, [1, ?, 256]> input_5_cast_fp16 = add(x = queries_1_cast_fp16, y = tokens_cast_fp16)[name = tensor<string, []>("input_5_cast_fp16")];
            tensor<fp16, [1, 4096, 256]> key_pe_to_fp16 = const()[name = tensor<string, []>("key_pe_to_fp16"), val = tensor<fp16, [1, 4096, 256]>(BLOBFILE(path = tensor<string, []>("@model_path/weights/weight.bin"), offset = tensor<uint64, []>(531200)))];
            tensor<fp16, [1, 4096, 256]> keys_1_cast_fp16 = transpose(perm = var_104, x = var_100_cast_fp16)[name = tensor<string, []>("transpose_73")];
            tensor<fp16, [1, 4096, 256]> input_7_cast_fp16 = add(x = keys_1_cast_fp16, y = key_pe_to_fp16)[name = tensor<string, []>("input_7_cast_fp16")];
            tensor<fp16, [128, 256]> var_223_to_fp16 = const()[name = tensor<string, []>("op_223_to_fp16"), val = tensor<fp16, [128, 256]>(BLOBFILE(path = tensor<string, []>("@model_path/weights/weight.bin"), offset = tensor<uint64, []>(2628416)))];
            tensor<fp16, [128]> var_224_to_fp16 = const()[name = tensor<string, []>("op_224_to_fp16"), val = tensor<fp16, [128]>(BLOBFILE(path = tensor<string, []>("@model_path/weights/weight.bin"), offset = tensor<uint64, []>(2694016)))];
            tensor<fp16, [1, ?, 128]> linear_4_cast_fp16 = linear(bias = var_224_to_fp16, weight = var_223_to_fp16, x = input_5_cast_fp16)[name = tensor<string, []>("linear_4_cast_fp16")];
            tensor<fp16, [128, 256]> var_226_to_fp16 = const()[name = tensor<string, []>("op_226_to_fp16"), val = tensor<fp16, [128, 256]>(BLOBFILE(path = tensor<string, []>("@model_path/weights/weight.bin"), offset = tensor<uint64, []>(2694336)))];
            tensor<fp16, [128]> var_227_to_fp16 = const()[name = tensor<string, []>("op_227_to_fp16"), val = tensor<fp16, [128]>(BLOBFILE(path = tensor<string, []>("@model_path/weights/weight.bin"), offset = tensor<uint64, []>(2759936)))];
            tensor<fp16, [1, 4096, 128]> linear_5_cast_fp16 = linear(bias = var_227_to_fp16, weight = var_226_to_fp16, x = input_7_cast_fp16)[name = tensor<string, []>("linear_5_cast_fp16")];
            tensor<fp16, [128, 256]> var_229_to_fp16 = const()[name = tensor<string, []>("op_229_to_fp16"), val = tensor<fp16, [128, 256]>(BLOBFILE(path = tensor<string, []>("@model_path/weights/weight.bin"), offset = tensor<uint64, []>(2760256)))];
            tensor<fp16, [128]> var_230_to_fp16 = const()[name = tensor<string, []>("op_230_to_fp16"), val = tensor<fp16, [128]>(BLOBFILE(path = tensor<string, []>("@model_path/weights/weight.bin"), offset = tensor<uint64, []>(2825856)))];
            tensor<fp16, [1, 4096, 128]> linear_6_cast_fp16 = linear(bias = var_230_to_fp16, weight = var_229_to_fp16, x = keys_1_cast_fp16)[name = tensor<string, []>("linear_6_cast_fp16")];
            tensor<int32, [4]> concat_6x = const()[name = tensor<string, []>("concat_6x"), val = tensor<int32, [4]>([1, -1, 8, 16])];
            tensor<fp16, [1, ?, 8, 16]> x_19_cast_fp16 = reshape(shape = concat_6x, x = linear_4_cast_fp16)[name = tensor<string, []>("x_19_cast_fp16")];
            tensor<int32, [4]> var_267 = const()[name = tensor<string, []>("op_267"), val = tensor<int32, [4]>([1, 4096, 8, 16])];
            tensor<fp16, [1, 4096, 8, 16]> x_23_cast_fp16 = reshape(shape = var_267, x = linear_5_cast_fp16)[name = tensor<string, []>("x_23_cast_fp16")];
            tensor<int32, [4]> var_287 = const()[name = tensor<string, []>("op_287"), val = tensor<int32, [4]>([1, 4096, 8, 16])];
            tensor<fp16, [1, 4096, 8, 16]> x_27_cast_fp16 = reshape(shape = var_287, x = linear_6_cast_fp16)[name = tensor<string, []>("x_27_cast_fp16")];
            tensor<int32, [4]> v_3_perm_0 = const()[name = tensor<string, []>("v_3_perm_0"), val = tensor<int32, [4]>([0, 2, 1, 3])];
            tensor<fp16, []> mul_1_y_0_to_fp16 = const()[name = tensor<string, []>("mul_1_y_0_to_fp16"), val = tensor<fp16, []>(0x1p-2)];
            tensor<fp16, [1, ?, 8, 16]> mul_1_cast_fp16 = mul(x = x_19_cast_fp16, y = mul_1_y_0_to_fp16)[name = tensor<string, []>("mul_1_cast_fp16")];
            tensor<bool, []> matmul_1_transpose_y_0 = const()[name = tensor<string, []>("matmul_1_transpose_y_0"), val = tensor<bool, []>(true)];
            tensor<bool, []> matmul_1_transpose_x_0 = const()[name = tensor<string, []>("matmul_1_transpose_x_0"), val = tensor<bool, []>(false)];
            tensor<int32, [4]> transpose_32_perm_0 = const()[name = tensor<string, []>("transpose_32_perm_0"), val = tensor<int32, [4]>([0, 2, -3, -1])];
            tensor<int32, [4]> transpose_33_perm_0 = const()[name = tensor<string, []>("transpose_33_perm_0"), val = tensor<int32, [4]>([0, 2, -3, -1])];
            tensor<fp16, [1, 8, 4096, 16]> transpose_33 = transpose(perm = transpose_33_perm_0, x = x_23_cast_fp16)[name = tensor<string, []>("transpose_66")];
            tensor<fp16, [1, 8, ?, 16]> transpose_32 = transpose(perm = transpose_32_perm_0, x = mul_1_cast_fp16)[name = tensor<string, []>("transpose_67")];
            tensor<fp16, [1, 8, ?, 4096]> matmul_1_cast_fp16 = matmul(transpose_x = matmul_1_transpose_x_0, transpose_y = matmul_1_transpose_y_0, x = transpose_32, y = transpose_33)[name = tensor<string, []>("matmul_1_cast_fp16")];
            tensor<int32, []> softmax_1_axis_0 = const()[name = tensor<string, []>("softmax_1_axis_0"), val = tensor<int32, []>(-1)];
            tensor<fp16, [1, 8, ?, 4096]> softmax_1_cast_fp16 = softmax(axis = softmax_1_axis_0, x = matmul_1_cast_fp16)[name = tensor<string, []>("softmax_1_cast_fp16")];
            tensor<bool, []> x_29_transpose_x_0 = const()[name = tensor<string, []>("x_29_transpose_x_0"), val = tensor<bool, []>(false)];
            tensor<bool, []> x_29_transpose_y_0 = const()[name = tensor<string, []>("x_29_transpose_y_0"), val = tensor<bool, []>(false)];
            tensor<fp16, [1, 8, 4096, 16]> v_3_cast_fp16 = transpose(perm = v_3_perm_0, x = x_27_cast_fp16)[name = tensor<string, []>("transpose_68")];
            tensor<fp16, [1, 8, ?, 16]> x_29_cast_fp16 = matmul(transpose_x = x_29_transpose_x_0, transpose_y = x_29_transpose_y_0, x = softmax_1_cast_fp16, y = v_3_cast_fp16)[name = tensor<string, []>("x_29_cast_fp16")];
            tensor<int32, [4]> x_31_perm_0 = const()[name = tensor<string, []>("x_31_perm_0"), val = tensor<int32, [4]>([0, 2, 1, 3])];
            tensor<int32, [3]> concat_7x = const()[name = tensor<string, []>("concat_7x"), val = tensor<int32, [3]>([1, -1, 128])];
            tensor<fp16, [1, ?, 8, 16]> x_31_cast_fp16 = transpose(perm = x_31_perm_0, x = x_29_cast_fp16)[name = tensor<string, []>("transpose_65")];
            tensor<fp16, [1, ?, 128]> input_9_cast_fp16 = reshape(shape = concat_7x, x = x_31_cast_fp16)[name = tensor<string, []>("input_9_cast_fp16")];
            tensor<fp16, [256, 128]> var_318_to_fp16 = const()[name = tensor<string, []>("op_318_to_fp16"), val = tensor<fp16, [256, 128]>(BLOBFILE(path = tensor<string, []>("@model_path/weights/weight.bin"), offset = tensor<uint64, []>(2826176)))];
            tensor<fp16, [256]> var_319_to_fp16 = const()[name = tensor<string, []>("op_319_to_fp16"), val = tensor<fp16, [256]>(BLOBFILE(path = tensor<string, []>("@model_path/weights/weight.bin"), offset = tensor<uint64, []>(2891776)))];
            tensor<fp16, [1, ?, 256]> linear_7_cast_fp16 = linear(bias = var_319_to_fp16, weight = var_318_to_fp16, x = input_9_cast_fp16)[name = tensor<string, []>("linear_7_cast_fp16")];
            tensor<fp16, [1, ?, 256]> input_11_cast_fp16 = add(x = queries_1_cast_fp16, y = linear_7_cast_fp16)[name = tensor<string, []>("input_11_cast_fp16")];
            tensor<int32, [1]> input_13_axes_0 = const()[name = tensor<string, []>("input_13_axes_0"), val = tensor<int32, [1]>([-1])];
            tensor<fp16, [256]> var_325_to_fp16 = const()[name = tensor<string, []>("op_325_to_fp16"), val = tensor<fp16, [256]>(BLOBFILE(path = tensor<string, []>("@model_path/weights/weight.bin"), offset = tensor<uint64, []>(2892352)))];
            tensor<fp16, [256]> var_326_to_fp16 = const()[name = tensor<string, []>("op_326_to_fp16"), val = tensor<fp16, [256]>(BLOBFILE(path = tensor<string, []>("@model_path/weights/weight.bin"), offset = tensor<uint64, []>(2892928)))];
            tensor<fp16, []> var_327_to_fp16 = const()[name = tensor<string, []>("op_327_to_fp16"), val = tensor<fp16, []>(0x1.5p-17)];
            tensor<fp16, [1, ?, 256]> input_13_cast_fp16 = layer_norm(axes = input_13_axes_0, beta = var_326_to_fp16, epsilon = var_327_to_fp16, gamma = var_325_to_fp16, x = input_11_cast_fp16)[name = tensor<string, []>("input_13_cast_fp16")];
            tensor<fp16, [2048, 256]> var_330_to_fp16 = const()[name = tensor<string, []>("op_330_to_fp16"), val = tensor<fp16, [2048, 256]>(BLOBFILE(path = tensor<string, []>("@model_path/weights/weight.bin"), offset = tensor<uint64, []>(2893504)))];
            tensor<fp16, [2048]> var_331_to_fp16 = const()[name = tensor<string, []>("op_331_to_fp16"), val = tensor<fp16, [2048]>(BLOBFILE(path = tensor<string, []>("@model_path/weights/weight.bin"), offset = tensor<uint64, []>(3942144)))];
            tensor<fp16, [1, ?, 2048]> linear_8_cast_fp16 = linear(bias = var_331_to_fp16, weight = var_330_to_fp16, x = input_13_cast_fp16)[name = tensor<string, []>("linear_8_cast_fp16")];
            tensor<fp16, [1, ?, 2048]> input_17_cast_fp16 = relu(x = linear_8_cast_fp16)[name = tensor<string, []>("input_17_cast_fp16")];
            tensor<fp16, [256, 2048]> var_334_to_fp16 = const()[name = tensor<string, []>("op_334_to_fp16"), val = tensor<fp16, [256, 2048]>(BLOBFILE(path = tensor<string, []>("@model_path/weights/weight.bin"), offset = tensor<uint64, []>(3946304)))];
            tensor<fp16, [256]> var_335_to_fp16 = const()[name = tensor<string, []>("op_335_to_fp16"), val = tensor<fp16, [256]>(BLOBFILE(path = tensor<string, []>("@model_path/weights/weight.bin"), offset = tensor<uint64, []>(4994944)))];
            tensor<fp16, [1, ?, 256]> linear_9_cast_fp16 = linear(bias = var_335_to_fp16, weight = var_334_to_fp16, x = input_17_cast_fp16)[name = tensor<string, []>("linear_9_cast_fp16")];
            tensor<fp16, [1, ?, 256]> input_19_cast_fp16 = add(x = input_13_cast_fp16, y = linear_9_cast_fp16)[name = tensor<string, []>("input_19_cast_fp16")];
            tensor<int32, [1]> queries_3_axes_0 = const()[name = tensor<string, []>("queries_3_axes_0"), val = tensor<int32, [1]>([-1])];
            tensor<fp16, [256]> var_341_to_fp16 = const()[name = tensor<string, []>("op_341_to_fp16"), val = tensor<fp16, [256]>(BLOBFILE(path = tensor<string, []>("@model_path/weights/weight.bin"), offset = tensor<uint64, []>(4995520)))];
            tensor<fp16, [256]> var_342_to_fp16 = const()[name = tensor<string, []>("op_342_to_fp16"), val = tensor<fp16, [256]>(BLOBFILE(path = tensor<string, []>("@model_path/weights/weight.bin"), offset = tensor<uint64, []>(4996096)))];
            tensor<fp16, []> var_343_to_fp16 = const()[name = tensor<string, []>("op_343_to_fp16"), val = tensor<fp16, []>(0x1.5p-17)];
            tensor<fp16, [1, ?, 256]> queries_3_cast_fp16 = layer_norm(axes = queries_3_axes_0, beta = var_342_to_fp16, epsilon = var_343_to_fp16, gamma = var_341_to_fp16, x = input_19_cast_fp16)[name = tensor<string, []>("queries_3_cast_fp16")];
            tensor<fp16, [1, ?, 256]> input_23_cast_fp16 = add(x = queries_3_cast_fp16, y = tokens_cast_fp16)[name = tensor<string, []>("input_23_cast_fp16")];
            tensor<fp16, [128, 256]> var_350_to_fp16 = const()[name = tensor<string, []>("op_350_to_fp16"), val = tensor<fp16, [128, 256]>(BLOBFILE(path = tensor<string, []>("@model_path/weights/weight.bin"), offset = tensor<uint64, []>(4996672)))];
            tensor<fp16, [128]> var_351_to_fp16 = const()[name = tensor<string, []>("op_351_to_fp16"), val = tensor<fp16, [128]>(BLOBFILE(path = tensor<string, []>("@model_path/weights/weight.bin"), offset = tensor<uint64, []>(5062272)))];
            tensor<fp16, [1, 4096, 128]> linear_10_cast_fp16 = linear(bias = var_351_to_fp16, weight = var_350_to_fp16, x = input_7_cast_fp16)[name = tensor<string, []>("linear_10_cast_fp16")];
            tensor<fp16, [128, 256]> var_353_to_fp16 = const()[name = tensor<string, []>("op_353_to_fp16"), val = tensor<fp16, [128, 256]>(BLOBFILE(path = tensor<string, []>("@model_path/weights/weight.bin"), offset = tensor<uint64, []>(5062592)))];
            tensor<fp16, [128]> var_354_to_fp16 = const()[name = tensor<string, []>("op_354_to_fp16"), val = tensor<fp16, [128]>(BLOBFILE(path = tensor<string, []>("@model_path/weights/weight.bin"), offset = tensor<uint64, []>(5128192)))];
            tensor<fp16, [1, ?, 128]> linear_11_cast_fp16 = linear(bias = var_354_to_fp16, weight = var_353_to_fp16, x = input_23_cast_fp16)[name = tensor<string, []>("linear_11_cast_fp16")];
            tensor<fp16, [128, 256]> var_356_to_fp16 = const()[name = tensor<string, []>("op_356_to_fp16"), val = tensor<fp16, [128, 256]>(BLOBFILE(path = tensor<string, []>("@model_path/weights/weight.bin"), offset = tensor<uint64, []>(5128512)))];
            tensor<fp16, [128]> var_357_to_fp16 = const()[name = tensor<string, []>("op_357_to_fp16"), val = tensor<fp16, [128]>(BLOBFILE(path = tensor<string, []>("@model_path/weights/weight.bin"), offset = tensor<uint64, []>(5194112)))];
            tensor<fp16, [1, ?, 128]> linear_12_cast_fp16 = linear(bias = var_357_to_fp16, weight = var_356_to_fp16, x = queries_3_cast_fp16)[name = tensor<string, []>("linear_12_cast_fp16")];
            tensor<int32, [4]> var_374 = const()[name = tensor<string, []>("op_374"), val = tensor<int32, [4]>([1, 4096, 8, 16])];
            tensor<fp16, [1, 4096, 8, 16]> x_35_cast_fp16 = reshape(shape = var_374, x = linear_10_cast_fp16)[name = tensor<string, []>("x_35_cast_fp16")];
            tensor<int32, [4]> concat_8x = const()[name = tensor<string, []>("concat_8x"), val = tensor<int32, [4]>([1, -1, 8, 16])];
            tensor<fp16, [1, ?, 8, 16]> x_39_cast_fp16 = reshape(shape = concat_8x, x = linear_11_cast_fp16)[name = tensor<string, []>("x_39_cast_fp16")];
            tensor<int32, [4]> concat_9x = const()[name = tensor<string, []>("concat_9x"), val = tensor<int32, [4]>([1, -1, 8, 16])];
            tensor<fp16, [1, ?, 8, 16]> x_43_cast_fp16 = reshape(shape = concat_9x, x = linear_12_cast_fp16)[name = tensor<string, []>("x_43_cast_fp16")];
            tensor<int32, [4]> v_5_perm_0 = const()[name = tensor<string, []>("v_5_perm_0"), val = tensor<int32, [4]>([0, 2, 1, 3])];
            tensor<fp16, []> mul_2_y_0_to_fp16 = const()[name = tensor<string, []>("mul_2_y_0_to_fp16"), val = tensor<fp16, []>(0x1p-2)];
            tensor<fp16, [1, 4096, 8, 16]> mul_2_cast_fp16 = mul(x = x_35_cast_fp16, y = mul_2_y_0_to_fp16)[name = tensor<string, []>("mul_2_cast_fp16")];
            tensor<bool, []> matmul_2_transpose_y_0 = const()[name = tensor<string, []>("matmul_2_transpose_y_0"), val = tensor<bool, []>(true)];
            tensor<bool, []> matmul_2_transpose_x_0 = const()[name = tensor<string, []>("matmul_2_transpose_x_0"), val = tensor<bool, []>(false)];
            tensor<int32, [4]> transpose_34_perm_0 = const()[name = tensor<string, []>("transpose_34_perm_0"), val = tensor<int32, [4]>([0, 2, -3, -1])];
            tensor<int32, [4]> transpose_35_perm_0 = const()[name = tensor<string, []>("transpose_35_perm_0"), val = tensor<int32, [4]>([0, 2, -3, -1])];
            tensor<fp16, [1, 8, ?, 16]> transpose_35 = transpose(perm = transpose_35_perm_0, x = x_39_cast_fp16)[name = tensor<string, []>("transpose_62")];
            tensor<fp16, [1, 8, 4096, 16]> transpose_34 = transpose(perm = transpose_34_perm_0, x = mul_2_cast_fp16)[name = tensor<string, []>("transpose_63")];
            tensor<fp16, [1, 8, 4096, ?]> matmul_2_cast_fp16 = matmul(transpose_x = matmul_2_transpose_x_0, transpose_y = matmul_2_transpose_y_0, x = transpose_34, y = transpose_35)[name = tensor<string, []>("matmul_2_cast_fp16")];
            tensor<int32, []> softmax_2_axis_0 = const()[name = tensor<string, []>("softmax_2_axis_0"), val = tensor<int32, []>(-1)];
            tensor<fp16, [1, 8, 4096, ?]> softmax_2_cast_fp16 = softmax(axis = softmax_2_axis_0, x = matmul_2_cast_fp16)[name = tensor<string, []>("softmax_2_cast_fp16")];
            tensor<bool, []> x_45_transpose_x_0 = const()[name = tensor<string, []>("x_45_transpose_x_0"), val = tensor<bool, []>(false)];
            tensor<bool, []> x_45_transpose_y_0 = const()[name = tensor<string, []>("x_45_transpose_y_0"), val = tensor<bool, []>(false)];
            tensor<fp16, [1, 8, ?, 16]> v_5_cast_fp16 = transpose(perm = v_5_perm_0, x = x_43_cast_fp16)[name = tensor<string, []>("transpose_64")];
            tensor<fp16, [1, 8, 4096, 16]> x_45_cast_fp16 = matmul(transpose_x = x_45_transpose_x_0, transpose_y = x_45_transpose_y_0, x = softmax_2_cast_fp16, y = v_5_cast_fp16)[name = tensor<string, []>("x_45_cast_fp16")];
            tensor<int32, [4]> x_47_perm_0 = const()[name = tensor<string, []>("x_47_perm_0"), val = tensor<int32, [4]>([0, 2, 1, 3])];
            tensor<int32, [3]> var_443 = const()[name = tensor<string, []>("op_443"), val = tensor<int32, [3]>([1, 4096, 128])];
            tensor<fp16, [1, 4096, 8, 16]> x_47_cast_fp16 = transpose(perm = x_47_perm_0, x = x_45_cast_fp16)[name = tensor<string, []>("transpose_61")];
            tensor<fp16, [1, 4096, 128]> input_25_cast_fp16 = reshape(shape = var_443, x = x_47_cast_fp16)[name = tensor<string, []>("input_25_cast_fp16")];
            tensor<fp16, [256, 128]> var_445_to_fp16 = const()[name = tensor<string, []>("op_445_to_fp16"), val = tensor<fp16, [256, 128]>(BLOBFILE(path = tensor<string, []>("@model_path/weights/weight.bin"), offset = tensor<uint64, []>(5194432)))];
            tensor<fp16, [256]> var_446_to_fp16 = const()[name = tensor<string, []>("op_446_to_fp16"), val = tensor<fp16, [256]>(BLOBFILE(path = tensor<string, []>("@model_path/weights/weight.bin"), offset = tensor<uint64, []>(5260032)))];
            tensor<fp16, [1, 4096, 256]> linear_13_cast_fp16 = linear(bias = var_446_to_fp16, weight = var_445_to_fp16, x = input_25_cast_fp16)[name = tensor<string, []>("linear_13_cast_fp16")];
            tensor<fp16, [1, 4096, 256]> input_27_cast_fp16 = add(x = keys_1_cast_fp16, y = linear_13_cast_fp16)[name = tensor<string, []>("input_27_cast_fp16")];
            tensor<int32, [1]> keys_3_axes_0 = const()[name = tensor<string, []>("keys_3_axes_0"), val = tensor<int32, [1]>([-1])];
            tensor<fp16, [256]> var_452_to_fp16 = const()[name = tensor<string, []>("op_452_to_fp16"), val = tensor<fp16, [256]>(BLOBFILE(path = tensor<string, []>("@model_path/weights/weight.bin"), offset = tensor<uint64, []>(5260608)))];
            tensor<fp16, [256]> var_453_to_fp16 = const()[name = tensor<string, []>("op_453_to_fp16"), val = tensor<fp16, [256]>(BLOBFILE(path = tensor<string, []>("@model_path/weights/weight.bin"), offset = tensor<uint64, []>(5261184)))];
            tensor<fp16, []> var_454_to_fp16 = const()[name = tensor<string, []>("op_454_to_fp16"), val = tensor<fp16, []>(0x1.5p-17)];
            tensor<fp16, [1, 4096, 256]> keys_3_cast_fp16 = layer_norm(axes = keys_3_axes_0, beta = var_453_to_fp16, epsilon = var_454_to_fp16, gamma = var_452_to_fp16, x = input_27_cast_fp16)[name = tensor<string, []>("keys_3_cast_fp16")];
            tensor<fp16, [256, 256]> var_459_to_fp16 = const()[name = tensor<string, []>("op_459_to_fp16"), val = tensor<fp16, [256, 256]>(BLOBFILE(path = tensor<string, []>("@model_path/weights/weight.bin"), offset = tensor<uint64, []>(5261760)))];
            tensor<fp16, [256]> var_460_to_fp16 = const()[name = tensor<string, []>("op_460_to_fp16"), val = tensor<fp16, [256]>(BLOBFILE(path = tensor<string, []>("@model_path/weights/weight.bin"), offset = tensor<uint64, []>(5392896)))];
            tensor<fp16, [1, ?, 256]> linear_14_cast_fp16 = linear(bias = var_460_to_fp16, weight = var_459_to_fp16, x = input_23_cast_fp16)[name = tensor<string, []>("linear_14_cast_fp16")];
            tensor<fp16, [256, 256]> var_462_to_fp16 = const()[name = tensor<string, []>("op_462_to_fp16"), val = tensor<fp16, [256, 256]>(BLOBFILE(path = tensor<string, []>("@model_path/weights/weight.bin"), offset = tensor<uint64, []>(5393472)))];
            tensor<fp16, [256]> var_463_to_fp16 = const()[name = tensor<string, []>("op_463_to_fp16"), val = tensor<fp16, [256]>(BLOBFILE(path = tensor<string, []>("@model_path/weights/weight.bin"), offset = tensor<uint64, []>(5524608)))];
            tensor<fp16, [1, ?, 256]> linear_15_cast_fp16 = linear(bias = var_463_to_fp16, weight = var_462_to_fp16, x = input_23_cast_fp16)[name = tensor<string, []>("linear_15_cast_fp16")];
            tensor<fp16, [256, 256]> var_465_to_fp16 = const()[name = tensor<string, []>("op_465_to_fp16"), val = tensor<fp16, [256, 256]>(BLOBFILE(path = tensor<string, []>("@model_path/weights/weight.bin"), offset = tensor<uint64, []>(5525184)))];
            tensor<fp16, [256]> var_466_to_fp16 = const()[name = tensor<string, []>("op_466_to_fp16"), val = tensor<fp16, [256]>(BLOBFILE(path = tensor<string, []>("@model_path/weights/weight.bin"), offset = tensor<uint64, []>(5656320)))];
            tensor<fp16, [1, ?, 256]> linear_16_cast_fp16 = linear(bias = var_466_to_fp16, weight = var_465_to_fp16, x = queries_3_cast_fp16)[name = tensor<string, []>("linear_16_cast_fp16")];
            tensor<int32, [4]> concat_10x = const()[name = tensor<string, []>("concat_10x"), val = tensor<int32, [4]>([1, -1, 8, 32])];
            tensor<fp16, [1, ?, 8, 32]> x_51_cast_fp16 = reshape(shape = concat_10x, x = linear_14_cast_fp16)[name = tensor<string, []>("x_51_cast_fp16")];
            tensor<int32, [4]> concat_11x = const()[name = tensor<string, []>("concat_11x"), val = tensor<int32, [4]>([1, -1, 8, 32])];
            tensor<fp16, [1, ?, 8, 32]> x_55_cast_fp16 = reshape(shape = concat_11x, x = linear_15_cast_fp16)[name = tensor<string, []>("x_55_cast_fp16")];
            tensor<int32, [4]> concat_12x = const()[name = tensor<string, []>("concat_12x"), val = tensor<int32, [4]>([1, -1, 8, 32])];
            tensor<fp16, [1, ?, 8, 32]> x_59_cast_fp16 = reshape(shape = concat_12x, x = linear_16_cast_fp16)[name = tensor<string, []>("x_59_cast_fp16")];
            tensor<int32, [4]> v_7_perm_0 = const()[name = tensor<string, []>("v_7_perm_0"), val = tensor<int32, [4]>([0, 2, 1, 3])];
            tensor<fp16, []> mul_3_y_0_to_fp16 = const()[name = tensor<string, []>("mul_3_y_0_to_fp16"), val = tensor<fp16, []>(0x1.6ap-3)];
            tensor<fp16, [1, ?, 8, 32]> mul_3_cast_fp16 = mul(x = x_51_cast_fp16, y = mul_3_y_0_to_fp16)[name = tensor<string, []>("mul_3_cast_fp16")];
            tensor<bool, []> matmul_3_transpose_y_0 = const()[name = tensor<string, []>("matmul_3_transpose_y_0"), val = tensor<bool, []>(true)];
            tensor<bool, []> matmul_3_transpose_x_0 = const()[name = tensor<string, []>("matmul_3_transpose_x_0"), val = tensor<bool, []>(false)];
            tensor<int32, [4]> transpose_36_perm_0 = const()[name = tensor<string, []>("transpose_36_perm_0"), val = tensor<int32, [4]>([0, 2, -3, -1])];
            tensor<int32, [4]> transpose_37_perm_0 = const()[name = tensor<string, []>("transpose_37_perm_0"), val = tensor<int32, [4]>([0, 2, -3, -1])];
            tensor<fp16, [1, 8, ?, 32]> transpose_37 = transpose(perm = transpose_37_perm_0, x = x_55_cast_fp16)[name = tensor<string, []>("transpose_58")];
            tensor<fp16, [1, 8, ?, 32]> transpose_36 = transpose(perm = transpose_36_perm_0, x = mul_3_cast_fp16)[name = tensor<string, []>("transpose_59")];
            tensor<fp16, [1, 8, ?, ?]> matmul_3_cast_fp16 = matmul(transpose_x = matmul_3_transpose_x_0, transpose_y = matmul_3_transpose_y_0, x = transpose_36, y = transpose_37)[name = tensor<string, []>("matmul_3_cast_fp16")];
            tensor<int32, []> softmax_3_axis_0 = const()[name = tensor<string, []>("softmax_3_axis_0"), val = tensor<int32, []>(-1)];
            tensor<fp16, [1, 8, ?, ?]> softmax_3_cast_fp16 = softmax(axis = softmax_3_axis_0, x = matmul_3_cast_fp16)[name = tensor<string, []>("softmax_3_cast_fp16")];
            tensor<bool, []> x_61_transpose_x_0 = const()[name = tensor<string, []>("x_61_transpose_x_0"), val = tensor<bool, []>(false)];
            tensor<bool, []> x_61_transpose_y_0 = const()[name = tensor<string, []>("x_61_transpose_y_0"), val = tensor<bool, []>(false)];
            tensor<fp16, [1, 8, ?, 32]> v_7_cast_fp16 = transpose(perm = v_7_perm_0, x = x_59_cast_fp16)[name = tensor<string, []>("transpose_60")];
            tensor<fp16, [1, 8, ?, 32]> x_61_cast_fp16 = matmul(transpose_x = x_61_transpose_x_0, transpose_y = x_61_transpose_y_0, x = softmax_3_cast_fp16, y = v_7_cast_fp16)[name = tensor<string, []>("x_61_cast_fp16")];
            tensor<int32, [4]> x_63_perm_0 = const()[name = tensor<string, []>("x_63_perm_0"), val = tensor<int32, [4]>([0, 2, 1, 3])];
            tensor<int32, [3]> concat_13x = const()[name = tensor<string, []>("concat_13x"), val = tensor<int32, [3]>([1, -1, 256])];
            tensor<fp16, [1, ?, 8, 32]> x_63_cast_fp16 = transpose(perm = x_63_perm_0, x = x_61_cast_fp16)[name = tensor<string, []>("transpose_57")];
            tensor<fp16, [1, ?, 256]> input_31_cast_fp16 = reshape(shape = concat_13x, x = x_63_cast_fp16)[name = tensor<string, []>("input_31_cast_fp16")];
            tensor<fp16, [256, 256]> var_554_to_fp16 = const()[name = tensor<string, []>("op_554_to_fp16"), val = tensor<fp16, [256, 256]>(BLOBFILE(path = tensor<string, []>("@model_path/weights/weight.bin"), offset = tensor<uint64, []>(5656896)))];
            tensor<fp16, [256]> var_555_to_fp16 = const()[name = tensor<string, []>("op_555_to_fp16"), val = tensor<fp16, [256]>(BLOBFILE(path = tensor<string, []>("@model_path/weights/weight.bin"), offset = tensor<uint64, []>(5788032)))];
            tensor<fp16, [1, ?, 256]> linear_17_cast_fp16 = linear(bias = var_555_to_fp16, weight = var_554_to_fp16, x = input_31_cast_fp16)[name = tensor<string, []>("linear_17_cast_fp16")];
            tensor<fp16, [1, ?, 256]> input_33_cast_fp16 = add(x = queries_3_cast_fp16, y = linear_17_cast_fp16)[name = tensor<string, []>("input_33_cast_fp16")];
            tensor<int32, [1]> queries_5_axes_0 = const()[name = tensor<string, []>("queries_5_axes_0"), val = tensor<int32, [1]>([-1])];
            tensor<fp16, [256]> var_561_to_fp16 = const()[name = tensor<string, []>("op_561_to_fp16"), val = tensor<fp16, [256]>(BLOBFILE(path = tensor<string, []>("@model_path/weights/weight.bin"), offset = tensor<uint64, []>(5788608)))];
            tensor<fp16, [256]> var_562_to_fp16 = const()[name = tensor<string, []>("op_562_to_fp16"), val = tensor<fp16, [256]>(BLOBFILE(path = tensor<string, []>("@model_path/weights/weight.bin"), offset = tensor<uint64, []>(5789184)))];
            tensor<fp16, []> var_563_to_fp16 = const()[name = tensor<string, []>("op_563_to_fp16"), val = tensor<fp16, []>(0x1.5p-17)];
            tensor<fp16, [1, ?, 256]> queries_5_cast_fp16 = layer_norm(axes = queries_5_axes_0, beta = var_562_to_fp16, epsilon = var_563_to_fp16, gamma = var_561_to_fp16, x = input_33_cast_fp16)[name = tensor<string, []>("queries_5_cast_fp16")];
            tensor<fp16, [1, ?, 256]> input_35_cast_fp16 = add(x = queries_5_cast_fp16, y = tokens_cast_fp16)[name = tensor<string, []>("input_35_cast_fp16")];
            tensor<fp16, [1, 4096, 256]> input_37_cast_fp16 = add(x = keys_3_cast_fp16, y = key_pe_to_fp16)[name = tensor<string, []>("input_37_cast_fp16")];
            tensor<fp16, [128, 256]> var_570_to_fp16 = const()[name = tensor<string, []>("op_570_to_fp16"), val = tensor<fp16, [128, 256]>(BLOBFILE(path = tensor<string, []>("@model_path/weights/weight.bin"), offset = tensor<uint64, []>(5789760)))];
            tensor<fp16, [128]> var_571_to_fp16 = const()[name = tensor<string, []>("op_571_to_fp16"), val = tensor<fp16, [128]>(BLOBFILE(path = tensor<string, []>("@model_path/weights/weight.bin"), offset = tensor<uint64, []>(5855360)))];
            tensor<fp16, [1, ?, 128]> linear_18_cast_fp16 = linear(bias = var_571_to_fp16, weight = var_570_to_fp16, x = input_35_cast_fp16)[name = tensor<string, []>("linear_18_cast_fp16")];
            tensor<fp16, [128, 256]> var_573_to_fp16 = const()[name = tensor<string, []>("op_573_to_fp16"), val = tensor<fp16, [128, 256]>(BLOBFILE(path = tensor<string, []>("@model_path/weights/weight.bin"), offset = tensor<uint64, []>(5855680)))];
            tensor<fp16, [128]> var_574_to_fp16 = const()[name = tensor<string, []>("op_574_to_fp16"), val = tensor<fp16, [128]>(BLOBFILE(path = tensor<string, []>("@model_path/weights/weight.bin"), offset = tensor<uint64, []>(5921280)))];
            tensor<fp16, [1, 4096, 128]> linear_19_cast_fp16 = linear(bias = var_574_to_fp16, weight = var_573_to_fp16, x = input_37_cast_fp16)[name = tensor<string, []>("linear_19_cast_fp16")];
            tensor<fp16, [128, 256]> var_576_to_fp16 = const()[name = tensor<string, []>("op_576_to_fp16"), val = tensor<fp16, [128, 256]>(BLOBFILE(path = tensor<string, []>("@model_path/weights/weight.bin"), offset = tensor<uint64, []>(5921600)))];
            tensor<fp16, [128]> var_577_to_fp16 = const()[name = tensor<string, []>("op_577_to_fp16"), val = tensor<fp16, [128]>(BLOBFILE(path = tensor<string, []>("@model_path/weights/weight.bin"), offset = tensor<uint64, []>(5987200)))];
            tensor<fp16, [1, 4096, 128]> linear_20_cast_fp16 = linear(bias = var_577_to_fp16, weight = var_576_to_fp16, x = keys_3_cast_fp16)[name = tensor<string, []>("linear_20_cast_fp16")];
            tensor<int32, [4]> concat_14x = const()[name = tensor<string, []>("concat_14x"), val = tensor<int32, [4]>([1, -1, 8, 16])];
            tensor<fp16, [1, ?, 8, 16]> x_67_cast_fp16 = reshape(shape = concat_14x, x = linear_18_cast_fp16)[name = tensor<string, []>("x_67_cast_fp16")];
            tensor<int32, [4]> var_614 = const()[name = tensor<string, []>("op_614"), val = tensor<int32, [4]>([1, 4096, 8, 16])];
            tensor<fp16, [1, 4096, 8, 16]> x_71_cast_fp16 = reshape(shape = var_614, x = linear_19_cast_fp16)[name = tensor<string, []>("x_71_cast_fp16")];
            tensor<int32, [4]> var_634 = const()[name = tensor<string, []>("op_634"), val = tensor<int32, [4]>([1, 4096, 8, 16])];
            tensor<fp16, [1, 4096, 8, 16]> x_75_cast_fp16 = reshape(shape = var_634, x = linear_20_cast_fp16)[name = tensor<string, []>("x_75_cast_fp16")];
            tensor<int32, [4]> v_9_perm_0 = const()[name = tensor<string, []>("v_9_perm_0"), val = tensor<int32, [4]>([0, 2, 1, 3])];
            tensor<fp16, []> mul_4_y_0_to_fp16 = const()[name = tensor<string, []>("mul_4_y_0_to_fp16"), val = tensor<fp16, []>(0x1p-2)];
            tensor<fp16, [1, ?, 8, 16]> mul_4_cast_fp16 = mul(x = x_67_cast_fp16, y = mul_4_y_0_to_fp16)[name = tensor<string, []>("mul_4_cast_fp16")];
            tensor<bool, []> matmul_4_transpose_y_0 = const()[name = tensor<string, []>("matmul_4_transpose_y_0"), val = tensor<bool, []>(true)];
            tensor<bool, []> matmul_4_transpose_x_0 = const()[name = tensor<string, []>("matmul_4_transpose_x_0"), val = tensor<bool, []>(false)];
            tensor<int32, [4]> transpose_38_perm_0 = const()[name = tensor<string, []>("transpose_38_perm_0"), val = tensor<int32, [4]>([0, 2, -3, -1])];
            tensor<int32, [4]> transpose_39_perm_0 = const()[name = tensor<string, []>("transpose_39_perm_0"), val = tensor<int32, [4]>([0, 2, -3, -1])];
            tensor<fp16, [1, 8, 4096, 16]> transpose_39 = transpose(perm = transpose_39_perm_0, x = x_71_cast_fp16)[name = tensor<string, []>("transpose_54")];
            tensor<fp16, [1, 8, ?, 16]> transpose_38 = transpose(perm = transpose_38_perm_0, x = mul_4_cast_fp16)[name = tensor<string, []>("transpose_55")];
            tensor<fp16, [1, 8, ?, 4096]> matmul_4_cast_fp16 = matmul(transpose_x = matmul_4_transpose_x_0, transpose_y = matmul_4_transpose_y_0, x = transpose_38, y = transpose_39)[name = tensor<string, []>("matmul_4_cast_fp16")];
            tensor<int32, []> softmax_4_axis_0 = const()[name = tensor<string, []>("softmax_4_axis_0"), val = tensor<int32, []>(-1)];
            tensor<fp16, [1, 8, ?, 4096]> softmax_4_cast_fp16 = softmax(axis = softmax_4_axis_0, x = matmul_4_cast_fp16)[name = tensor<string, []>("softmax_4_cast_fp16")];
            tensor<bool, []> x_77_transpose_x_0 = const()[name = tensor<string, []>("x_77_transpose_x_0"), val = tensor<bool, []>(false)];
            tensor<bool, []> x_77_transpose_y_0 = const()[name = tensor<string, []>("x_77_transpose_y_0"), val = tensor<bool, []>(false)];
            tensor<fp16, [1, 8, 4096, 16]> v_9_cast_fp16 = transpose(perm = v_9_perm_0, x = x_75_cast_fp16)[name = tensor<string, []>("transpose_56")];
            tensor<fp16, [1, 8, ?, 16]> x_77_cast_fp16 = matmul(transpose_x = x_77_transpose_x_0, transpose_y = x_77_transpose_y_0, x = softmax_4_cast_fp16, y = v_9_cast_fp16)[name = tensor<string, []>("x_77_cast_fp16")];
            tensor<int32, [4]> x_79_perm_0 = const()[name = tensor<string, []>("x_79_perm_0"), val = tensor<int32, [4]>([0, 2, 1, 3])];
            tensor<int32, [3]> concat_15x = const()[name = tensor<string, []>("concat_15x"), val = tensor<int32, [3]>([1, -1, 128])];
            tensor<fp16, [1, ?, 8, 16]> x_79_cast_fp16 = transpose(perm = x_79_perm_0, x = x_77_cast_fp16)[name = tensor<string, []>("transpose_53")];
            tensor<fp16, [1, ?, 128]> input_39_cast_fp16 = reshape(shape = concat_15x, x = x_79_cast_fp16)[name = tensor<string, []>("input_39_cast_fp16")];
            tensor<fp16, [256, 128]> var_665_to_fp16 = const()[name = tensor<string, []>("op_665_to_fp16"), val = tensor<fp16, [256, 128]>(BLOBFILE(path = tensor<string, []>("@model_path/weights/weight.bin"), offset = tensor<uint64, []>(5987520)))];
            tensor<fp16, [256]> var_666_to_fp16 = const()[name = tensor<string, []>("op_666_to_fp16"), val = tensor<fp16, [256]>(BLOBFILE(path = tensor<string, []>("@model_path/weights/weight.bin"), offset = tensor<uint64, []>(6053120)))];
            tensor<fp16, [1, ?, 256]> linear_21_cast_fp16 = linear(bias = var_666_to_fp16, weight = var_665_to_fp16, x = input_39_cast_fp16)[name = tensor<string, []>("linear_21_cast_fp16")];
            tensor<fp16, [1, ?, 256]> input_41_cast_fp16 = add(x = queries_5_cast_fp16, y = linear_21_cast_fp16)[name = tensor<string, []>("input_41_cast_fp16")];
            tensor<int32, [1]> input_43_axes_0 = const()[name = tensor<string, []>("input_43_axes_0"), val = tensor<int32, [1]>([-1])];
            tensor<fp16, [256]> var_672_to_fp16 = const()[name = tensor<string, []>("op_672_to_fp16"), val = tensor<fp16, [256]>(BLOBFILE(path = tensor<string, []>("@model_path/weights/weight.bin"), offset = tensor<uint64, []>(6053696)))];
            tensor<fp16, [256]> var_673_to_fp16 = const()[name = tensor<string, []>("op_673_to_fp16"), val = tensor<fp16, [256]>(BLOBFILE(path = tensor<string, []>("@model_path/weights/weight.bin"), offset = tensor<uint64, []>(6054272)))];
            tensor<fp16, []> var_674_to_fp16 = const()[name = tensor<string, []>("op_674_to_fp16"), val = tensor<fp16, []>(0x1.5p-17)];
            tensor<fp16, [1, ?, 256]> input_43_cast_fp16 = layer_norm(axes = input_43_axes_0, beta = var_673_to_fp16, epsilon = var_674_to_fp16, gamma = var_672_to_fp16, x = input_41_cast_fp16)[name = tensor<string, []>("input_43_cast_fp16")];
            tensor<fp16, [2048, 256]> var_677_to_fp16 = const()[name = tensor<string, []>("op_677_to_fp16"), val = tensor<fp16, [2048, 256]>(BLOBFILE(path = tensor<string, []>("@model_path/weights/weight.bin"), offset = tensor<uint64, []>(6054848)))];
            tensor<fp16, [2048]> var_678_to_fp16 = const()[name = tensor<string, []>("op_678_to_fp16"), val = tensor<fp16, [2048]>(BLOBFILE(path = tensor<string, []>("@model_path/weights/weight.bin"), offset = tensor<uint64, []>(7103488)))];
            tensor<fp16, [1, ?, 2048]> linear_22_cast_fp16 = linear(bias = var_678_to_fp16, weight = var_677_to_fp16, x = input_43_cast_fp16)[name = tensor<string, []>("linear_22_cast_fp16")];
            tensor<fp16, [1, ?, 2048]> input_47_cast_fp16 = relu(x = linear_22_cast_fp16)[name = tensor<string, []>("input_47_cast_fp16")];
            tensor<fp16, [256, 2048]> var_681_to_fp16 = const()[name = tensor<string, []>("op_681_to_fp16"), val = tensor<fp16, [256, 2048]>(BLOBFILE(path = tensor<string, []>("@model_path/weights/weight.bin"), offset = tensor<uint64, []>(7107648)))];
            tensor<fp16, [256]> var_682_to_fp16 = const()[name = tensor<string, []>("op_682_to_fp16"), val = tensor<fp16, [256]>(BLOBFILE(path = tensor<string, []>("@model_path/weights/weight.bin"), offset = tensor<uint64, []>(8156288)))];
            tensor<fp16, [1, ?, 256]> linear_23_cast_fp16 = linear(bias = var_682_to_fp16, weight = var_681_to_fp16, x = input_47_cast_fp16)[name = tensor<string, []>("linear_23_cast_fp16")];
            tensor<fp16, [1, ?, 256]> input_49_cast_fp16 = add(x = input_43_cast_fp16, y = linear_23_cast_fp16)[name = tensor<string, []>("input_49_cast_fp16")];
            tensor<int32, [1]> queries_axes_0 = const()[name = tensor<string, []>("queries_axes_0"), val = tensor<int32, [1]>([-1])];
            tensor<fp16, [256]> var_688_to_fp16 = const()[name = tensor<string, []>("op_688_to_fp16"), val = tensor<fp16, [256]>(BLOBFILE(path = tensor<string, []>("@model_path/weights/weight.bin"), offset = tensor<uint64, []>(8156864)))];
            tensor<fp16, [256]> var_689_to_fp16 = const()[name = tensor<string, []>("op_689_to_fp16"), val = tensor<fp16, [256]>(BLOBFILE(path = tensor<string, []>("@model_path/weights/weight.bin"), offset = tensor<uint64, []>(8157440)))];
            tensor<fp16, []> var_690_to_fp16 = const()[name = tensor<string, []>("op_690_to_fp16"), val = tensor<fp16, []>(0x1.5p-17)];
            tensor<fp16, [1, ?, 256]> queries_cast_fp16 = layer_norm(axes = queries_axes_0, beta = var_689_to_fp16, epsilon = var_690_to_fp16, gamma = var_688_to_fp16, x = input_49_cast_fp16)[name = tensor<string, []>("queries_cast_fp16")];
            tensor<fp16, [1, ?, 256]> input_53_cast_fp16 = add(x = queries_cast_fp16, y = tokens_cast_fp16)[name = tensor<string, []>("input_53_cast_fp16")];
            tensor<fp16, [128, 256]> var_697_to_fp16 = const()[name = tensor<string, []>("op_697_to_fp16"), val = tensor<fp16, [128, 256]>(BLOBFILE(path = tensor<string, []>("@model_path/weights/weight.bin"), offset = tensor<uint64, []>(8158016)))];
            tensor<fp16, [128]> var_698_to_fp16 = const()[name = tensor<string, []>("op_698_to_fp16"), val = tensor<fp16, [128]>(BLOBFILE(path = tensor<string, []>("@model_path/weights/weight.bin"), offset = tensor<uint64, []>(8223616)))];
            tensor<fp16, [1, 4096, 128]> linear_24_cast_fp16 = linear(bias = var_698_to_fp16, weight = var_697_to_fp16, x = input_37_cast_fp16)[name = tensor<string, []>("linear_24_cast_fp16")];
            tensor<fp16, [128, 256]> var_700_to_fp16 = const()[name = tensor<string, []>("op_700_to_fp16"), val = tensor<fp16, [128, 256]>(BLOBFILE(path = tensor<string, []>("@model_path/weights/weight.bin"), offset = tensor<uint64, []>(8223936)))];
            tensor<fp16, [128]> var_701_to_fp16 = const()[name = tensor<string, []>("op_701_to_fp16"), val = tensor<fp16, [128]>(BLOBFILE(path = tensor<string, []>("@model_path/weights/weight.bin"), offset = tensor<uint64, []>(8289536)))];
            tensor<fp16, [1, ?, 128]> linear_25_cast_fp16 = linear(bias = var_701_to_fp16, weight = var_700_to_fp16, x = input_53_cast_fp16)[name = tensor<string, []>("linear_25_cast_fp16")];
            tensor<fp16, [128, 256]> var_703_to_fp16 = const()[name = tensor<string, []>("op_703_to_fp16"), val = tensor<fp16, [128, 256]>(BLOBFILE(path = tensor<string, []>("@model_path/weights/weight.bin"), offset = tensor<uint64, []>(8289856)))];
            tensor<fp16, [128]> var_704_to_fp16 = const()[name = tensor<string, []>("op_704_to_fp16"), val = tensor<fp16, [128]>(BLOBFILE(path = tensor<string, []>("@model_path/weights/weight.bin"), offset = tensor<uint64, []>(8355456)))];
            tensor<fp16, [1, ?, 128]> linear_26_cast_fp16 = linear(bias = var_704_to_fp16, weight = var_703_to_fp16, x = queries_cast_fp16)[name = tensor<string, []>("linear_26_cast_fp16")];
            tensor<int32, [4]> var_721 = const()[name = tensor<string, []>("op_721"), val = tensor<int32, [4]>([1, 4096, 8, 16])];
            tensor<fp16, [1, 4096, 8, 16]> x_83_cast_fp16 = reshape(shape = var_721, x = linear_24_cast_fp16)[name = tensor<string, []>("x_83_cast_fp16")];
            tensor<int32, [4]> concat_16x = const()[name = tensor<string, []>("concat_16x"), val = tensor<int32, [4]>([1, -1, 8, 16])];
            tensor<fp16, [1, ?, 8, 16]> x_87_cast_fp16 = reshape(shape = concat_16x, x = linear_25_cast_fp16)[name = tensor<string, []>("x_87_cast_fp16")];
            tensor<int32, [4]> concat_17x = const()[name = tensor<string, []>("concat_17x"), val = tensor<int32, [4]>([1, -1, 8, 16])];
            tensor<fp16, [1, ?, 8, 16]> x_91_cast_fp16 = reshape(shape = concat_17x, x = linear_26_cast_fp16)[name = tensor<string, []>("x_91_cast_fp16")];
            tensor<int32, [4]> v_11_perm_0 = const()[name = tensor<string, []>("v_11_perm_0"), val = tensor<int32, [4]>([0, 2, 1, 3])];
            tensor<fp16, []> mul_5_y_0_to_fp16 = const()[name = tensor<string, []>("mul_5_y_0_to_fp16"), val = tensor<fp16, []>(0x1p-2)];
            tensor<fp16, [1, 4096, 8, 16]> mul_5_cast_fp16 = mul(x = x_83_cast_fp16, y = mul_5_y_0_to_fp16)[name = tensor<string, []>("mul_5_cast_fp16")];
            tensor<bool, []> matmul_5_transpose_y_0 = const()[name = tensor<string, []>("matmul_5_transpose_y_0"), val = tensor<bool, []>(true)];
            tensor<bool, []> matmul_5_transpose_x_0 = const()[name = tensor<string, []>("matmul_5_transpose_x_0"), val = tensor<bool, []>(false)];
            tensor<int32, [4]> transpose_40_perm_0 = const()[name = tensor<string, []>("transpose_40_perm_0"), val = tensor<int32, [4]>([0, 2, -3, -1])];
            tensor<int32, [4]> transpose_41_perm_0 = const()[name = tensor<string, []>("transpose_41_perm_0"), val = tensor<int32, [4]>([0, 2, -3, -1])];
            tensor<fp16, [1, 8, ?, 16]> transpose_41 = transpose(perm = transpose_41_perm_0, x = x_87_cast_fp16)[name = tensor<string, []>("transpose_50")];
            tensor<fp16, [1, 8, 4096, 16]> transpose_40 = transpose(perm = transpose_40_perm_0, x = mul_5_cast_fp16)[name = tensor<string, []>("transpose_51")];
            tensor<fp16, [1, 8, 4096, ?]> matmul_5_cast_fp16 = matmul(transpose_x = matmul_5_transpose_x_0, transpose_y = matmul_5_transpose_y_0, x = transpose_40, y = transpose_41)[name = tensor<string, []>("matmul_5_cast_fp16")];
            tensor<int32, []> softmax_5_axis_0 = const()[name = tensor<string, []>("softmax_5_axis_0"), val = tensor<int32, []>(-1)];
            tensor<fp16, [1, 8, 4096, ?]> softmax_5_cast_fp16 = softmax(axis = softmax_5_axis_0, x = matmul_5_cast_fp16)[name = tensor<string, []>("softmax_5_cast_fp16")];
            tensor<bool, []> x_93_transpose_x_0 = const()[name = tensor<string, []>("x_93_transpose_x_0"), val = tensor<bool, []>(false)];
            tensor<bool, []> x_93_transpose_y_0 = const()[name = tensor<string, []>("x_93_transpose_y_0"), val = tensor<bool, []>(false)];
            tensor<fp16, [1, 8, ?, 16]> v_11_cast_fp16 = transpose(perm = v_11_perm_0, x = x_91_cast_fp16)[name = tensor<string, []>("transpose_52")];
            tensor<fp16, [1, 8, 4096, 16]> x_93_cast_fp16 = matmul(transpose_x = x_93_transpose_x_0, transpose_y = x_93_transpose_y_0, x = softmax_5_cast_fp16, y = v_11_cast_fp16)[name = tensor<string, []>("x_93_cast_fp16")];
            tensor<int32, [4]> x_95_perm_0 = const()[name = tensor<string, []>("x_95_perm_0"), val = tensor<int32, [4]>([0, 2, 1, 3])];
            tensor<int32, [3]> var_790 = const()[name = tensor<string, []>("op_790"), val = tensor<int32, [3]>([1, 4096, 128])];
            tensor<fp16, [1, 4096, 8, 16]> x_95_cast_fp16 = transpose(perm = x_95_perm_0, x = x_93_cast_fp16)[name = tensor<string, []>("transpose_49")];
            tensor<fp16, [1, 4096, 128]> input_55_cast_fp16 = reshape(shape = var_790, x = x_95_cast_fp16)[name = tensor<string, []>("input_55_cast_fp16")];
            tensor<fp16, [256, 128]> var_792_to_fp16 = const()[name = tensor<string, []>("op_792_to_fp16"), val = tensor<fp16, [256, 128]>(BLOBFILE(path = tensor<string, []>("@model_path/weights/weight.bin"), offset = tensor<uint64, []>(8355776)))];
            tensor<fp16, [256]> var_793_to_fp16 = const()[name = tensor<string, []>("op_793_to_fp16"), val = tensor<fp16, [256]>(BLOBFILE(path = tensor<string, []>("@model_path/weights/weight.bin"), offset = tensor<uint64, []>(8421376)))];
            tensor<fp16, [1, 4096, 256]> linear_27_cast_fp16 = linear(bias = var_793_to_fp16, weight = var_792_to_fp16, x = input_55_cast_fp16)[name = tensor<string, []>("linear_27_cast_fp16")];
            tensor<fp16, [1, 4096, 256]> input_57_cast_fp16 = add(x = keys_3_cast_fp16, y = linear_27_cast_fp16)[name = tensor<string, []>("input_57_cast_fp16")];
            tensor<int32, [1]> keys_axes_0 = const()[name = tensor<string, []>("keys_axes_0"), val = tensor<int32, [1]>([-1])];
            tensor<fp16, [256]> var_799_to_fp16 = const()[name = tensor<string, []>("op_799_to_fp16"), val = tensor<fp16, [256]>(BLOBFILE(path = tensor<string, []>("@model_path/weights/weight.bin"), offset = tensor<uint64, []>(8421952)))];
            tensor<fp16, [256]> var_800_to_fp16 = const()[name = tensor<string, []>("op_800_to_fp16"), val = tensor<fp16, [256]>(BLOBFILE(path = tensor<string, []>("@model_path/weights/weight.bin"), offset = tensor<uint64, []>(8422528)))];
            tensor<fp16, []> var_801_to_fp16 = const()[name = tensor<string, []>("op_801_to_fp16"), val = tensor<fp16, []>(0x1.5p-17)];
            tensor<fp16, [1, 4096, 256]> keys_cast_fp16 = layer_norm(axes = keys_axes_0, beta = var_800_to_fp16, epsilon = var_801_to_fp16, gamma = var_799_to_fp16, x = input_57_cast_fp16)[name = tensor<string, []>("keys_cast_fp16")];
            tensor<fp16, [1, 4096, 256]> input_61_cast_fp16 = add(x = keys_cast_fp16, y = key_pe_to_fp16)[name = tensor<string, []>("input_61_cast_fp16")];
            tensor<fp16, [128, 256]> var_808_to_fp16 = const()[name = tensor<string, []>("op_808_to_fp16"), val = tensor<fp16, [128, 256]>(BLOBFILE(path = tensor<string, []>("@model_path/weights/weight.bin"), offset = tensor<uint64, []>(8423104)))];
            tensor<fp16, [128]> var_809_to_fp16 = const()[name = tensor<string, []>("op_809_to_fp16"), val = tensor<fp16, [128]>(BLOBFILE(path = tensor<string, []>("@model_path/weights/weight.bin"), offset = tensor<uint64, []>(8488704)))];
            tensor<fp16, [1, ?, 128]> linear_28_cast_fp16 = linear(bias = var_809_to_fp16, weight = var_808_to_fp16, x = input_53_cast_fp16)[name = tensor<string, []>("linear_28_cast_fp16")];
            tensor<fp16, [128, 256]> var_811_to_fp16 = const()[name = tensor<string, []>("op_811_to_fp16"), val = tensor<fp16, [128, 256]>(BLOBFILE(path = tensor<string, []>("@model_path/weights/weight.bin"), offset = tensor<uint64, []>(8489024)))];
            tensor<fp16, [128]> var_812_to_fp16 = const()[name = tensor<string, []>("op_812_to_fp16"), val = tensor<fp16, [128]>(BLOBFILE(path = tensor<string, []>("@model_path/weights/weight.bin"), offset = tensor<uint64, []>(8554624)))];
            tensor<fp16, [1, 4096, 128]> linear_29_cast_fp16 = linear(bias = var_812_to_fp16, weight = var_811_to_fp16, x = input_61_cast_fp16)[name = tensor<string, []>("linear_29_cast_fp16")];
            tensor<fp16, [128, 256]> var_814_to_fp16 = const()[name = tensor<string, []>("op_814_to_fp16"), val = tensor<fp16, [128, 256]>(BLOBFILE(path = tensor<string, []>("@model_path/weights/weight.bin"), offset = tensor<uint64, []>(8554944)))];
            tensor<fp16, [128]> var_815_to_fp16 = const()[name = tensor<string, []>("op_815_to_fp16"), val = tensor<fp16, [128]>(BLOBFILE(path = tensor<string, []>("@model_path/weights/weight.bin"), offset = tensor<uint64, []>(8620544)))];
            tensor<fp16, [1, 4096, 128]> linear_30_cast_fp16 = linear(bias = var_815_to_fp16, weight = var_814_to_fp16, x = keys_cast_fp16)[name = tensor<string, []>("linear_30_cast_fp16")];
            tensor<int32, [4]> concat_18x = const()[name = tensor<string, []>("concat_18x"), val = tensor<int32, [4]>([1, -1, 8, 16])];
            tensor<fp16, [1, ?, 8, 16]> x_99_cast_fp16 = reshape(shape = concat_18x, x = linear_28_cast_fp16)[name = tensor<string, []>("x_99_cast_fp16")];
            tensor<int32, [4]> var_852 = const()[name = tensor<string, []>("op_852"), val = tensor<int32, [4]>([1, 4096, 8, 16])];
            tensor<fp16, [1, 4096, 8, 16]> x_103_cast_fp16 = reshape(shape = var_852, x = linear_29_cast_fp16)[name = tensor<string, []>("x_103_cast_fp16")];
            tensor<int32, [4]> var_872 = const()[name = tensor<string, []>("op_872"), val = tensor<int32, [4]>([1, 4096, 8, 16])];
            tensor<fp16, [1, 4096, 8, 16]> x_107_cast_fp16 = reshape(shape = var_872, x = linear_30_cast_fp16)[name = tensor<string, []>("x_107_cast_fp16")];
            tensor<int32, [4]> v_perm_0 = const()[name = tensor<string, []>("v_perm_0"), val = tensor<int32, [4]>([0, 2, 1, 3])];
            tensor<fp16, []> mul_6_y_0_to_fp16 = const()[name = tensor<string, []>("mul_6_y_0_to_fp16"), val = tensor<fp16, []>(0x1p-2)];
            tensor<fp16, [1, ?, 8, 16]> mul_6_cast_fp16 = mul(x = x_99_cast_fp16, y = mul_6_y_0_to_fp16)[name = tensor<string, []>("mul_6_cast_fp16")];
            tensor<bool, []> matmul_6_transpose_y_0 = const()[name = tensor<string, []>("matmul_6_transpose_y_0"), val = tensor<bool, []>(true)];
            tensor<bool, []> matmul_6_transpose_x_0 = const()[name = tensor<string, []>("matmul_6_transpose_x_0"), val = tensor<bool, []>(false)];
            tensor<int32, [4]> transpose_42_perm_0 = const()[name = tensor<string, []>("transpose_42_perm_0"), val = tensor<int32, [4]>([0, 2, -3, -1])];
            tensor<int32, [4]> transpose_43_perm_0 = const()[name = tensor<string, []>("transpose_43_perm_0"), val = tensor<int32, [4]>([0, 2, -3, -1])];
            tensor<fp16, [1, 8, 4096, 16]> transpose_43 = transpose(perm = transpose_43_perm_0, x = x_103_cast_fp16)[name = tensor<string, []>("transpose_46")];
            tensor<fp16, [1, 8, ?, 16]> transpose_42 = transpose(perm = transpose_42_perm_0, x = mul_6_cast_fp16)[name = tensor<string, []>("transpose_47")];
            tensor<fp16, [1, 8, ?, 4096]> matmul_6_cast_fp16 = matmul(transpose_x = matmul_6_transpose_x_0, transpose_y = matmul_6_transpose_y_0, x = transpose_42, y = transpose_43)[name = tensor<string, []>("matmul_6_cast_fp16")];
            tensor<int32, []> softmax_6_axis_0 = const()[name = tensor<string, []>("softmax_6_axis_0"), val = tensor<int32, []>(-1)];
            tensor<fp16, [1, 8, ?, 4096]> softmax_6_cast_fp16 = softmax(axis = softmax_6_axis_0, x = matmul_6_cast_fp16)[name = tensor<string, []>("softmax_6_cast_fp16")];
            tensor<bool, []> x_109_transpose_x_0 = const()[name = tensor<string, []>("x_109_transpose_x_0"), val = tensor<bool, []>(false)];
            tensor<bool, []> x_109_transpose_y_0 = const()[name = tensor<string, []>("x_109_transpose_y_0"), val = tensor<bool, []>(false)];
            tensor<fp16, [1, 8, 4096, 16]> v_cast_fp16 = transpose(perm = v_perm_0, x = x_107_cast_fp16)[name = tensor<string, []>("transpose_48")];
            tensor<fp16, [1, 8, ?, 16]> x_109_cast_fp16 = matmul(transpose_x = x_109_transpose_x_0, transpose_y = x_109_transpose_y_0, x = softmax_6_cast_fp16, y = v_cast_fp16)[name = tensor<string, []>("x_109_cast_fp16")];
            tensor<int32, [4]> x_111_perm_0 = const()[name = tensor<string, []>("x_111_perm_0"), val = tensor<int32, [4]>([0, 2, 1, 3])];
            tensor<int32, [3]> concat_19x = const()[name = tensor<string, []>("concat_19x"), val = tensor<int32, [3]>([1, -1, 128])];
            tensor<fp16, [1, ?, 8, 16]> x_111_cast_fp16 = transpose(perm = x_111_perm_0, x = x_109_cast_fp16)[name = tensor<string, []>("transpose_45")];
            tensor<fp16, [1, ?, 128]> input_63_cast_fp16 = reshape(shape = concat_19x, x = x_111_cast_fp16)[name = tensor<string, []>("input_63_cast_fp16")];
            tensor<fp16, [256, 128]> var_903_to_fp16 = const()[name = tensor<string, []>("op_903_to_fp16"), val = tensor<fp16, [256, 128]>(BLOBFILE(path = tensor<string, []>("@model_path/weights/weight.bin"), offset = tensor<uint64, []>(8620864)))];
            tensor<fp16, [256]> var_904_to_fp16 = const()[name = tensor<string, []>("op_904_to_fp16"), val = tensor<fp16, [256]>(BLOBFILE(path = tensor<string, []>("@model_path/weights/weight.bin"), offset = tensor<uint64, []>(8686464)))];
            tensor<fp16, [1, ?, 256]> linear_31_cast_fp16 = linear(bias = var_904_to_fp16, weight = var_903_to_fp16, x = input_63_cast_fp16)[name = tensor<string, []>("linear_31_cast_fp16")];
            tensor<fp16, [1, ?, 256]> input_65_cast_fp16 = add(x = queries_cast_fp16, y = linear_31_cast_fp16)[name = tensor<string, []>("input_65_cast_fp16")];
            tensor<int32, [1]> hs_axes_0 = const()[name = tensor<string, []>("hs_axes_0"), val = tensor<int32, [1]>([-1])];
            tensor<fp16, [256]> var_910_to_fp16 = const()[name = tensor<string, []>("op_910_to_fp16"), val = tensor<fp16, [256]>(BLOBFILE(path = tensor<string, []>("@model_path/weights/weight.bin"), offset = tensor<uint64, []>(8687040)))];
            tensor<fp16, [256]> var_911_to_fp16 = const()[name = tensor<string, []>("op_911_to_fp16"), val = tensor<fp16, [256]>(BLOBFILE(path = tensor<string, []>("@model_path/weights/weight.bin"), offset = tensor<uint64, []>(8687616)))];
            tensor<fp16, []> var_912_to_fp16 = const()[name = tensor<string, []>("op_912_to_fp16"), val = tensor<fp16, []>(0x1.5p-17)];
            tensor<fp16, [1, ?, 256]> hs_cast_fp16 = layer_norm(axes = hs_axes_0, beta = var_911_to_fp16, epsilon = var_912_to_fp16, gamma = var_910_to_fp16, x = input_65_cast_fp16)[name = tensor<string, []>("hs_cast_fp16")];
            tensor<int32, [3]> var_922_begin_0 = const()[name = tensor<string, []>("op_922_begin_0"), val = tensor<int32, [3]>([0, 1, 0])];
            tensor<int32, [3]> var_922_end_0 = const()[name = tensor<string, []>("op_922_end_0"), val = tensor<int32, [3]>([1, 2, 256])];
            tensor<bool, [3]> var_922_end_mask_0 = const()[name = tensor<string, []>("op_922_end_mask_0"), val = tensor<bool, [3]>([true, false, true])];
            tensor<bool, [3]> var_922_squeeze_mask_0 = const()[name = tensor<string, []>("op_922_squeeze_mask_0"), val = tensor<bool, [3]>([false, true, false])];
            tensor<fp16, [1, 256]> var_922_cast_fp16 = slice_by_index(begin = var_922_begin_0, end = var_922_end_0, end_mask = var_922_end_mask_0, squeeze_mask = var_922_squeeze_mask_0, x = hs_cast_fp16)[name = tensor<string, []>("op_922_cast_fp16")];
            tensor<int32, [3]> var_937_begin_0 = const()[name = tensor<string, []>("op_937_begin_0"), val = tensor<int32, [3]>([0, 2, 0])];
            tensor<int32, [3]> var_937_end_0 = const()[name = tensor<string, []>("op_937_end_0"), val = tensor<int32, [3]>([1, 6, 256])];
            tensor<bool, [3]> var_937_end_mask_0 = const()[name = tensor<string, []>("op_937_end_mask_0"), val = tensor<bool, [3]>([true, false, true])];
            tensor<fp16, [1, ?, 256]> var_937_cast_fp16 = slice_by_index(begin = var_937_begin_0, end = var_937_end_0, end_mask = var_937_end_mask_0, x = hs_cast_fp16)[name = tensor<string, []>("op_937_cast_fp16")];
            tensor<int32, [3]> var_945_perm_0 = const()[name = tensor<string, []>("op_945_perm_0"), val = tensor<int32, [3]>([0, 2, 1])];
            tensor<int32, [4]> var_946 = const()[name = tensor<string, []>("op_946"), val = tensor<int32, [4]>([1, 256, 64, 64])];
            tensor<fp16, [1, 256, 4096]> var_945_cast_fp16 = transpose(perm = var_945_perm_0, x = keys_cast_fp16)[name = tensor<string, []>("transpose_44")];
            tensor<fp16, [1, 256, 64, 64]> input_67_cast_fp16 = reshape(shape = var_946, x = var_945_cast_fp16)[name = tensor<string, []>("input_67_cast_fp16")];
            tensor<int32, [2]> var_952 = const()[name = tensor<string, []>("op_952"), val = tensor<int32, [2]>([2, 2])];
            tensor<int32, [2]> var_958 = const()[name = tensor<string, []>("op_958"), val = tensor<int32, [2]>([1, 1])];
            tensor<int32, []> var_963 = const()[name = tensor<string, []>("op_963"), val = tensor<int32, []>(1)];
            tensor<string, []> var_968_pad_type_0 = const()[name = tensor<string, []>("op_968_pad_type_0"), val = tensor<string, []>("custom")];
            tensor<int32, [4]> var_968_pad_0 = const()[name = tensor<string, []>("op_968_pad_0"), val = tensor<int32, [4]>([0, 0, 0, 0])];
            tensor<int32, [4]> var_968_has_output_shape_output_shape_0 = const()[name = tensor<string, []>("op_968_has_output_shape_output_shape_0"), val = tensor<int32, [4]>([1, 64, 128, 128])];
            tensor<fp16, [256, 64, 2, 2]> var_948_to_fp16 = const()[name = tensor<string, []>("op_948_to_fp16"), val = tensor<fp16, [256, 64, 2, 2]>(BLOBFILE(path = tensor<string, []>("@model_path/weights/weight.bin"), offset = tensor<uint64, []>(8688192)))];
            tensor<fp16, [64]> var_949_to_fp16 = const()[name = tensor<string, []>("op_949_to_fp16"), val = tensor<fp16, [64]>(BLOBFILE(path = tensor<string, []>("@model_path/weights/weight.bin"), offset = tensor<uint64, []>(8819328)))];
            tensor<fp16, [1, 64, 128, 128]> var_968_has_output_shape_cast_fp16 = conv_transpose(bias = var_949_to_fp16, dilations = var_958, groups = var_963, output_shape = var_968_has_output_shape_output_shape_0, pad = var_968_pad_0, pad_type = var_968_pad_type_0, strides = var_952, weight = var_948_to_fp16, x = input_67_cast_fp16)[name = tensor<string, []>("op_968_has_output_shape_cast_fp16")];
            tensor<fp16, [1, 64, 128, 128]> x_113_cast_fp16 = add(x = var_968_has_output_shape_cast_fp16, y = feats_s1)[name = tensor<string, []>("x_113_cast_fp16")];
            tensor<int32, [1]> var_972 = const()[name = tensor<string, []>("op_972"), val = tensor<int32, [1]>([1])];
            tensor<bool, []> var_973 = const()[name = tensor<string, []>("op_973"), val = tensor<bool, []>(true)];
            tensor<fp16, [1, 1, 128, 128]> u_cast_fp16 = reduce_mean(axes = var_972, keep_dims = var_973, x = x_113_cast_fp16)[name = tensor<string, []>("u_cast_fp16")];
            tensor<fp16, [1, 64, 128, 128]> var_977_cast_fp16 = sub(x = x_113_cast_fp16, y = u_cast_fp16)[name = tensor<string, []>("op_977_cast_fp16")];
            tensor<fp16, []> var_978_promoted_to_fp16 = const()[name = tensor<string, []>("op_978_promoted_to_fp16"), val = tensor<fp16, []>(0x1p+1)];
            tensor<fp16, [1, 64, 128, 128]> var_979_cast_fp16 = pow(x = var_977_cast_fp16, y = var_978_promoted_to_fp16)[name = tensor<string, []>("op_979_cast_fp16")];
            tensor<int32, [1]> var_981 = const()[name = tensor<string, []>("op_981"), val = tensor<int32, [1]>([1])];
            tensor<bool, []> var_982 = const()[name = tensor<string, []>("op_982"), val = tensor<bool, []>(true)];
            tensor<fp16, [1, 1, 128, 128]> s_cast_fp16 = reduce_mean(axes = var_981, keep_dims = var_982, x = var_979_cast_fp16)[name = tensor<string, []>("s_cast_fp16")];
            tensor<fp16, []> var_988_to_fp16 = const()[name = tensor<string, []>("op_988_to_fp16"), val = tensor<fp16, []>(0x1.1p-20)];
            tensor<fp16, [1, 1, 128, 128]> var_989_cast_fp16 = add(x = s_cast_fp16, y = var_988_to_fp16)[name = tensor<string, []>("op_989_cast_fp16")];
            tensor<fp16, [1, 1, 128, 128]> var_990_cast_fp16 = sqrt(x = var_989_cast_fp16)[name = tensor<string, []>("op_990_cast_fp16")];
            tensor<fp16, [1, 64, 128, 128]> x_cast_fp16 = real_div(x = var_977_cast_fp16, y = var_990_cast_fp16)[name = tensor<string, []>("x_cast_fp16")];
            tensor<fp16, [64]> input_69_mean_0_to_fp16 = const()[name = tensor<string, []>("input_69_mean_0_to_fp16"), val = tensor<fp16, [64]>(BLOBFILE(path = tensor<string, []>("@model_path/weights/weight.bin"), offset = tensor<uint64, []>(8819520)))];
            tensor<fp16, [64]> input_69_variance_0_to_fp16 = const()[name = tensor<string, []>("input_69_variance_0_to_fp16"), val = tensor<fp16, [64]>(BLOBFILE(path = tensor<string, []>("@model_path/weights/weight.bin"), offset = tensor<uint64, []>(8819712)))];
            tensor<fp16, [64]> input_69_gamma_0_to_fp16 = const()[name = tensor<string, []>("input_69_gamma_0_to_fp16"), val = tensor<fp16, [64]>(BLOBFILE(path = tensor<string, []>("@model_path/weights/weight.bin"), offset = tensor<uint64, []>(8819904)))];
            tensor<fp16, [64]> input_69_beta_0_to_fp16 = const()[name = tensor<string, []>("input_69_beta_0_to_fp16"), val = tensor<fp16, [64]>(BLOBFILE(path = tensor<string, []>("@model_path/weights/weight.bin"), offset = tensor<uint64, []>(8820096)))];
            tensor<fp16, []> input_69_epsilon_0_to_fp16 = const()[name = tensor<string, []>("input_69_epsilon_0_to_fp16"), val = tensor<fp16, []>(0x1.5p-17)];
            tensor<fp16, [1, 64, 128, 128]> input_69_cast_fp16 = batch_norm(beta = input_69_beta_0_to_fp16, epsilon = input_69_epsilon_0_to_fp16, gamma = input_69_gamma_0_to_fp16, mean = input_69_mean_0_to_fp16, variance = input_69_variance_0_to_fp16, x = x_cast_fp16)[name = tensor<string, []>("input_69_cast_fp16")];
            tensor<string, []> input_71_mode_0 = const()[name = tensor<string, []>("input_71_mode_0"), val = tensor<string, []>("EXACT")];
            tensor<fp16, [1, 64, 128, 128]> input_71_cast_fp16 = gelu(mode = input_71_mode_0, x = input_69_cast_fp16)[name = tensor<string, []>("input_71_cast_fp16")];
            tensor<int32, [2]> var_1021 = const()[name = tensor<string, []>("op_1021"), val = tensor<int32, [2]>([2, 2])];
            tensor<int32, [2]> var_1027 = const()[name = tensor<string, []>("op_1027"), val = tensor<int32, [2]>([1, 1])];
            tensor<int32, []> var_1032 = const()[name = tensor<string, []>("op_1032"), val = tensor<int32, []>(1)];
            tensor<string, []> var_1037_pad_type_0 = const()[name = tensor<string, []>("op_1037_pad_type_0"), val = tensor<string, []>("custom")];
            tensor<int32, [4]> var_1037_pad_0 = const()[name = tensor<string, []>("op_1037_pad_0"), val = tensor<int32, [4]>([0, 0, 0, 0])];
            tensor<int32, [4]> var_1037_has_output_shape_output_shape_0 = const()[name = tensor<string, []>("op_1037_has_output_shape_output_shape_0"), val = tensor<int32, [4]>([1, 32, 256, 256])];
            tensor<fp16, [64, 32, 2, 2]> var_1017_to_fp16 = const()[name = tensor<string, []>("op_1017_to_fp16"), val = tensor<fp16, [64, 32, 2, 2]>(BLOBFILE(path = tensor<string, []>("@model_path/weights/weight.bin"), offset = tensor<uint64, []>(8820288)))];
            tensor<fp16, [32]> var_1018_to_fp16 = const()[name = tensor<string, []>("op_1018_to_fp16"), val = tensor<fp16, [32]>(BLOBFILE(path = tensor<string, []>("@model_path/weights/weight.bin"), offset = tensor<uint64, []>(8836736)))];
            tensor<fp16, [1, 32, 256, 256]> var_1037_has_output_shape_cast_fp16 = conv_transpose(bias = var_1018_to_fp16, dilations = var_1027, groups = var_1032, output_shape = var_1037_has_output_shape_output_shape_0, pad = var_1037_pad_0, pad_type = var_1037_pad_type_0, strides = var_1021, weight = var_1017_to_fp16, x = input_71_cast_fp16)[name = tensor<string, []>("op_1037_has_output_shape_cast_fp16")];
            tensor<fp16, [1, 32, 256, 256]> input_73_cast_fp16 = add(x = var_1037_has_output_shape_cast_fp16, y = feats_s0)[name = tensor<string, []>("input_73_cast_fp16")];
            tensor<string, []> upscaled_embedding_mode_0 = const()[name = tensor<string, []>("upscaled_embedding_mode_0"), val = tensor<string, []>("EXACT")];
            tensor<fp16, [1, 32, 256, 256]> upscaled_embedding_cast_fp16 = gelu(mode = upscaled_embedding_mode_0, x = input_73_cast_fp16)[name = tensor<string, []>("upscaled_embedding_cast_fp16")];
            tensor<int32, [3]> var_1049_begin_0 = const()[name = tensor<string, []>("op_1049_begin_0"), val = tensor<int32, [3]>([0, 0, 0])];
            tensor<int32, [3]> var_1049_end_0 = const()[name = tensor<string, []>("op_1049_end_0"), val = tensor<int32, [3]>([1, 1, 256])];
            tensor<bool, [3]> var_1049_end_mask_0 = const()[name = tensor<string, []>("op_1049_end_mask_0"), val = tensor<bool, [3]>([true, false, true])];
            tensor<bool, [3]> var_1049_squeeze_mask_0 = const()[name = tensor<string, []>("op_1049_squeeze_mask_0"), val = tensor<bool, [3]>([false, true, false])];
            tensor<fp16, [1, 256]> var_1049_cast_fp16 = slice_by_index(begin = var_1049_begin_0, end = var_1049_end_0, end_mask = var_1049_end_mask_0, squeeze_mask = var_1049_squeeze_mask_0, x = var_937_cast_fp16)[name = tensor<string, []>("op_1049_cast_fp16")];
            tensor<fp16, [256, 256]> var_1055_to_fp16 = const()[name = tensor<string, []>("op_1055_to_fp16"), val = tensor<fp16, [256, 256]>(BLOBFILE(path = tensor<string, []>("@model_path/weights/weight.bin"), offset = tensor<uint64, []>(8836864)))];
            tensor<fp16, [256]> var_1056_to_fp16 = const()[name = tensor<string, []>("op_1056_to_fp16"), val = tensor<fp16, [256]>(BLOBFILE(path = tensor<string, []>("@model_path/weights/weight.bin"), offset = tensor<uint64, []>(8968000)))];
            tensor<fp16, [1, 256]> linear_32_cast_fp16 = linear(bias = var_1056_to_fp16, weight = var_1055_to_fp16, x = var_1049_cast_fp16)[name = tensor<string, []>("linear_32_cast_fp16")];
            tensor<fp16, [1, 256]> input_79_cast_fp16 = relu(x = linear_32_cast_fp16)[name = tensor<string, []>("input_79_cast_fp16")];
            tensor<fp16, [256, 256]> var_1059_to_fp16 = const()[name = tensor<string, []>("op_1059_to_fp16"), val = tensor<fp16, [256, 256]>(BLOBFILE(path = tensor<string, []>("@model_path/weights/weight.bin"), offset = tensor<uint64, []>(8968576)))];
            tensor<fp16, [256]> var_1060_to_fp16 = const()[name = tensor<string, []>("op_1060_to_fp16"), val = tensor<fp16, [256]>(BLOBFILE(path = tensor<string, []>("@model_path/weights/weight.bin"), offset = tensor<uint64, []>(9099712)))];
            tensor<fp16, [1, 256]> linear_33_cast_fp16 = linear(bias = var_1060_to_fp16, weight = var_1059_to_fp16, x = input_79_cast_fp16)[name = tensor<string, []>("linear_33_cast_fp16")];
            tensor<fp16, [1, 256]> input_83_cast_fp16 = relu(x = linear_33_cast_fp16)[name = tensor<string, []>("input_83_cast_fp16")];
            tensor<fp16, [32, 256]> var_1063_to_fp16 = const()[name = tensor<string, []>("op_1063_to_fp16"), val = tensor<fp16, [32, 256]>(BLOBFILE(path = tensor<string, []>("@model_path/weights/weight.bin"), offset = tensor<uint64, []>(9100288)))];
            tensor<fp16, [32]> var_1064_to_fp16 = const()[name = tensor<string, []>("op_1064_to_fp16"), val = tensor<fp16, [32]>(BLOBFILE(path = tensor<string, []>("@model_path/weights/weight.bin"), offset = tensor<uint64, []>(9116736)))];
            tensor<fp16, [1, 32]> linear_34_cast_fp16 = linear(bias = var_1064_to_fp16, weight = var_1063_to_fp16, x = input_83_cast_fp16)[name = tensor<string, []>("linear_34_cast_fp16")];
            tensor<int32, [3]> var_1073_begin_0 = const()[name = tensor<string, []>("op_1073_begin_0"), val = tensor<int32, [3]>([0, 1, 0])];
            tensor<int32, [3]> var_1073_end_0 = const()[name = tensor<string, []>("op_1073_end_0"), val = tensor<int32, [3]>([1, 2, 256])];
            tensor<bool, [3]> var_1073_end_mask_0 = const()[name = tensor<string, []>("op_1073_end_mask_0"), val = tensor<bool, [3]>([true, false, true])];
            tensor<bool, [3]> var_1073_squeeze_mask_0 = const()[name = tensor<string, []>("op_1073_squeeze_mask_0"), val = tensor<bool, [3]>([false, true, false])];
            tensor<fp16, [1, 256]> var_1073_cast_fp16 = slice_by_index(begin = var_1073_begin_0, end = var_1073_end_0, end_mask = var_1073_end_mask_0, squeeze_mask = var_1073_squeeze_mask_0, x = var_937_cast_fp16)[name = tensor<string, []>("op_1073_cast_fp16")];
            tensor<fp16, [256, 256]> var_1079_to_fp16 = const()[name = tensor<string, []>("op_1079_to_fp16"), val = tensor<fp16, [256, 256]>(BLOBFILE(path = tensor<string, []>("@model_path/weights/weight.bin"), offset = tensor<uint64, []>(9116864)))];
            tensor<fp16, [256]> var_1080_to_fp16 = const()[name = tensor<string, []>("op_1080_to_fp16"), val = tensor<fp16, [256]>(BLOBFILE(path = tensor<string, []>("@model_path/weights/weight.bin"), offset = tensor<uint64, []>(9248000)))];
            tensor<fp16, [1, 256]> linear_35_cast_fp16 = linear(bias = var_1080_to_fp16, weight = var_1079_to_fp16, x = var_1073_cast_fp16)[name = tensor<string, []>("linear_35_cast_fp16")];
            tensor<fp16, [1, 256]> input_89_cast_fp16 = relu(x = linear_35_cast_fp16)[name = tensor<string, []>("input_89_cast_fp16")];
            tensor<fp16, [256, 256]> var_1083_to_fp16 = const()[name = tensor<string, []>("op_1083_to_fp16"), val = tensor<fp16, [256, 256]>(BLOBFILE(path = tensor<string, []>("@model_path/weights/weight.bin"), offset = tensor<uint64, []>(9248576)))];
            tensor<fp16, [256]> var_1084_to_fp16 = const()[name = tensor<string, []>("op_1084_to_fp16"), val = tensor<fp16, [256]>(BLOBFILE(path = tensor<string, []>("@model_path/weights/weight.bin"), offset = tensor<uint64, []>(9379712)))];
            tensor<fp16, [1, 256]> linear_36_cast_fp16 = linear(bias = var_1084_to_fp16, weight = var_1083_to_fp16, x = input_89_cast_fp16)[name = tensor<string, []>("linear_36_cast_fp16")];
            tensor<fp16, [1, 256]> input_93_cast_fp16 = relu(x = linear_36_cast_fp16)[name = tensor<string, []>("input_93_cast_fp16")];
            tensor<fp16, [32, 256]> var_1087_to_fp16 = const()[name = tensor<string, []>("op_1087_to_fp16"), val = tensor<fp16, [32, 256]>(BLOBFILE(path = tensor<string, []>("@model_path/weights/weight.bin"), offset = tensor<uint64, []>(9380288)))];
            tensor<fp16, [32]> var_1088_to_fp16 = const()[name = tensor<string, []>("op_1088_to_fp16"), val = tensor<fp16, [32]>(BLOBFILE(path = tensor<string, []>("@model_path/weights/weight.bin"), offset = tensor<uint64, []>(9396736)))];
            tensor<fp16, [1, 32]> linear_37_cast_fp16 = linear(bias = var_1088_to_fp16, weight = var_1087_to_fp16, x = input_93_cast_fp16)[name = tensor<string, []>("linear_37_cast_fp16")];
            tensor<int32, [3]> var_1097_begin_0 = const()[name = tensor<string, []>("op_1097_begin_0"), val = tensor<int32, [3]>([0, 2, 0])];
            tensor<int32, [3]> var_1097_end_0 = const()[name = tensor<string, []>("op_1097_end_0"), val = tensor<int32, [3]>([1, 3, 256])];
            tensor<bool, [3]> var_1097_end_mask_0 = const()[name = tensor<string, []>("op_1097_end_mask_0"), val = tensor<bool, [3]>([true, false, true])];
            tensor<bool, [3]> var_1097_squeeze_mask_0 = const()[name = tensor<string, []>("op_1097_squeeze_mask_0"), val = tensor<bool, [3]>([false, true, false])];
            tensor<fp16, [1, 256]> var_1097_cast_fp16 = slice_by_index(begin = var_1097_begin_0, end = var_1097_end_0, end_mask = var_1097_end_mask_0, squeeze_mask = var_1097_squeeze_mask_0, x = var_937_cast_fp16)[name = tensor<string, []>("op_1097_cast_fp16")];
            tensor<fp16, [256, 256]> var_1103_to_fp16 = const()[name = tensor<string, []>("op_1103_to_fp16"), val = tensor<fp16, [256, 256]>(BLOBFILE(path = tensor<string, []>("@model_path/weights/weight.bin"), offset = tensor<uint64, []>(9396864)))];
            tensor<fp16, [256]> var_1104_to_fp16 = const()[name = tensor<string, []>("op_1104_to_fp16"), val = tensor<fp16, [256]>(BLOBFILE(path = tensor<string, []>("@model_path/weights/weight.bin"), offset = tensor<uint64, []>(9528000)))];
            tensor<fp16, [1, 256]> linear_38_cast_fp16 = linear(bias = var_1104_to_fp16, weight = var_1103_to_fp16, x = var_1097_cast_fp16)[name = tensor<string, []>("linear_38_cast_fp16")];
            tensor<fp16, [1, 256]> input_99_cast_fp16 = relu(x = linear_38_cast_fp16)[name = tensor<string, []>("input_99_cast_fp16")];
            tensor<fp16, [256, 256]> var_1107_to_fp16 = const()[name = tensor<string, []>("op_1107_to_fp16"), val = tensor<fp16, [256, 256]>(BLOBFILE(path = tensor<string, []>("@model_path/weights/weight.bin"), offset = tensor<uint64, []>(9528576)))];
            tensor<fp16, [256]> var_1108_to_fp16 = const()[name = tensor<string, []>("op_1108_to_fp16"), val = tensor<fp16, [256]>(BLOBFILE(path = tensor<string, []>("@model_path/weights/weight.bin"), offset = tensor<uint64, []>(9659712)))];
            tensor<fp16, [1, 256]> linear_39_cast_fp16 = linear(bias = var_1108_to_fp16, weight = var_1107_to_fp16, x = input_99_cast_fp16)[name = tensor<string, []>("linear_39_cast_fp16")];
            tensor<fp16, [1, 256]> input_103_cast_fp16 = relu(x = linear_39_cast_fp16)[name = tensor<string, []>("input_103_cast_fp16")];
            tensor<fp16, [32, 256]> var_1111_to_fp16 = const()[name = tensor<string, []>("op_1111_to_fp16"), val = tensor<fp16, [32, 256]>(BLOBFILE(path = tensor<string, []>("@model_path/weights/weight.bin"), offset = tensor<uint64, []>(9660288)))];
            tensor<fp16, [32]> var_1112_to_fp16 = const()[name = tensor<string, []>("op_1112_to_fp16"), val = tensor<fp16, [32]>(BLOBFILE(path = tensor<string, []>("@model_path/weights/weight.bin"), offset = tensor<uint64, []>(9676736)))];
            tensor<fp16, [1, 32]> linear_40_cast_fp16 = linear(bias = var_1112_to_fp16, weight = var_1111_to_fp16, x = input_103_cast_fp16)[name = tensor<string, []>("linear_40_cast_fp16")];
            tensor<int32, [3]> var_1121_begin_0 = const()[name = tensor<string, []>("op_1121_begin_0"), val = tensor<int32, [3]>([0, 3, 0])];
            tensor<int32, [3]> var_1121_end_0 = const()[name = tensor<string, []>("op_1121_end_0"), val = tensor<int32, [3]>([1, 4, 256])];
            tensor<bool, [3]> var_1121_end_mask_0 = const()[name = tensor<string, []>("op_1121_end_mask_0"), val = tensor<bool, [3]>([true, false, true])];
            tensor<bool, [3]> var_1121_squeeze_mask_0 = const()[name = tensor<string, []>("op_1121_squeeze_mask_0"), val = tensor<bool, [3]>([false, true, false])];
            tensor<fp16, [1, 256]> var_1121_cast_fp16 = slice_by_index(begin = var_1121_begin_0, end = var_1121_end_0, end_mask = var_1121_end_mask_0, squeeze_mask = var_1121_squeeze_mask_0, x = var_937_cast_fp16)[name = tensor<string, []>("op_1121_cast_fp16")];
            tensor<fp16, [256, 256]> var_1127_to_fp16 = const()[name = tensor<string, []>("op_1127_to_fp16"), val = tensor<fp16, [256, 256]>(BLOBFILE(path = tensor<string, []>("@model_path/weights/weight.bin"), offset = tensor<uint64, []>(9676864)))];
            tensor<fp16, [256]> var_1128_to_fp16 = const()[name = tensor<string, []>("op_1128_to_fp16"), val = tensor<fp16, [256]>(BLOBFILE(path = tensor<string, []>("@model_path/weights/weight.bin"), offset = tensor<uint64, []>(9808000)))];
            tensor<fp16, [1, 256]> linear_41_cast_fp16 = linear(bias = var_1128_to_fp16, weight = var_1127_to_fp16, x = var_1121_cast_fp16)[name = tensor<string, []>("linear_41_cast_fp16")];
            tensor<fp16, [1, 256]> input_109_cast_fp16 = relu(x = linear_41_cast_fp16)[name = tensor<string, []>("input_109_cast_fp16")];
            tensor<fp16, [256, 256]> var_1131_to_fp16 = const()[name = tensor<string, []>("op_1131_to_fp16"), val = tensor<fp16, [256, 256]>(BLOBFILE(path = tensor<string, []>("@model_path/weights/weight.bin"), offset = tensor<uint64, []>(9808576)))];
            tensor<fp16, [256]> var_1132_to_fp16 = const()[name = tensor<string, []>("op_1132_to_fp16"), val = tensor<fp16, [256]>(BLOBFILE(path = tensor<string, []>("@model_path/weights/weight.bin"), offset = tensor<uint64, []>(9939712)))];
            tensor<fp16, [1, 256]> linear_42_cast_fp16 = linear(bias = var_1132_to_fp16, weight = var_1131_to_fp16, x = input_109_cast_fp16)[name = tensor<string, []>("linear_42_cast_fp16")];
            tensor<fp16, [1, 256]> input_113_cast_fp16 = relu(x = linear_42_cast_fp16)[name = tensor<string, []>("input_113_cast_fp16")];
            tensor<fp16, [32, 256]> var_1135_to_fp16 = const()[name = tensor<string, []>("op_1135_to_fp16"), val = tensor<fp16, [32, 256]>(BLOBFILE(path = tensor<string, []>("@model_path/weights/weight.bin"), offset = tensor<uint64, []>(9940288)))];
            tensor<fp16, [32]> var_1136_to_fp16 = const()[name = tensor<string, []>("op_1136_to_fp16"), val = tensor<fp16, [32]>(BLOBFILE(path = tensor<string, []>("@model_path/weights/weight.bin"), offset = tensor<uint64, []>(9956736)))];
            tensor<fp16, [1, 32]> linear_43_cast_fp16 = linear(bias = var_1136_to_fp16, weight = var_1135_to_fp16, x = input_113_cast_fp16)[name = tensor<string, []>("linear_43_cast_fp16")];
            tensor<int32, []> var_1139 = const()[name = tensor<string, []>("op_1139"), val = tensor<int32, []>(1)];
            tensor<fp16, [1, 4, 32]> hyper_in_cast_fp16 = stack(axis = var_1139, values = (linear_34_cast_fp16, linear_37_cast_fp16, linear_40_cast_fp16, linear_43_cast_fp16))[name = tensor<string, []>("hyper_in_cast_fp16")];
            tensor<int32, [3]> var_1160 = const()[name = tensor<string, []>("op_1160"), val = tensor<int32, [3]>([1, 32, 65536])];
            tensor<fp16, [1, 32, 65536]> var_1161_cast_fp16 = reshape(shape = var_1160, x = upscaled_embedding_cast_fp16)[name = tensor<string, []>("op_1161_cast_fp16")];
            tensor<bool, []> var_1162_transpose_x_0 = const()[name = tensor<string, []>("op_1162_transpose_x_0"), val = tensor<bool, []>(false)];
            tensor<bool, []> var_1162_transpose_y_0 = const()[name = tensor<string, []>("op_1162_transpose_y_0"), val = tensor<bool, []>(false)];
            tensor<fp16, [1, 4, 65536]> var_1162_cast_fp16 = matmul(transpose_x = var_1162_transpose_x_0, transpose_y = var_1162_transpose_y_0, x = hyper_in_cast_fp16, y = var_1161_cast_fp16)[name = tensor<string, []>("op_1162_cast_fp16")];
            tensor<int32, [4]> var_1164 = const()[name = tensor<string, []>("op_1164"), val = tensor<int32, [4]>([1, -1, 256, 256])];
            tensor<fp16, [1, 4, 256, 256]> masks_cast_fp16 = reshape(shape = var_1164, x = var_1162_cast_fp16)[name = tensor<string, []>("masks_cast_fp16")];
            tensor<fp16, [256, 256]> var_1166_to_fp16 = const()[name = tensor<string, []>("op_1166_to_fp16"), val = tensor<fp16, [256, 256]>(BLOBFILE(path = tensor<string, []>("@model_path/weights/weight.bin"), offset = tensor<uint64, []>(9956864)))];
            tensor<fp16, [256]> var_1167_to_fp16 = const()[name = tensor<string, []>("op_1167_to_fp16"), val = tensor<fp16, [256]>(BLOBFILE(path = tensor<string, []>("@model_path/weights/weight.bin"), offset = tensor<uint64, []>(10088000)))];
            tensor<fp16, [1, 256]> linear_44_cast_fp16 = linear(bias = var_1167_to_fp16, weight = var_1166_to_fp16, x = var_922_cast_fp16)[name = tensor<string, []>("linear_44_cast_fp16")];
            tensor<fp16, [1, 256]> input_119_cast_fp16 = relu(x = linear_44_cast_fp16)[name = tensor<string, []>("input_119_cast_fp16")];
            tensor<fp16, [256, 256]> var_1170_to_fp16 = const()[name = tensor<string, []>("op_1170_to_fp16"), val = tensor<fp16, [256, 256]>(BLOBFILE(path = tensor<string, []>("@model_path/weights/weight.bin"), offset = tensor<uint64, []>(10088576)))];
            tensor<fp16, [256]> var_1171_to_fp16 = const()[name = tensor<string, []>("op_1171_to_fp16"), val = tensor<fp16, [256]>(BLOBFILE(path = tensor<string, []>("@model_path/weights/weight.bin"), offset = tensor<uint64, []>(10219712)))];
            tensor<fp16, [1, 256]> linear_45_cast_fp16 = linear(bias = var_1171_to_fp16, weight = var_1170_to_fp16, x = input_119_cast_fp16)[name = tensor<string, []>("linear_45_cast_fp16")];
            tensor<fp16, [1, 256]> input_123_cast_fp16 = relu(x = linear_45_cast_fp16)[name = tensor<string, []>("input_123_cast_fp16")];
            tensor<fp16, [4, 256]> var_1174_to_fp16 = const()[name = tensor<string, []>("op_1174_to_fp16"), val = tensor<fp16, [4, 256]>(BLOBFILE(path = tensor<string, []>("@model_path/weights/weight.bin"), offset = tensor<uint64, []>(10220288)))];
            tensor<fp16, [4]> var_1175_to_fp16 = const()[name = tensor<string, []>("op_1175_to_fp16"), val = tensor<fp16, [4]>([0x1.f7p-2, 0x1.824p-3, 0x1.05cp-2, 0x1.8e8p-2])];
            tensor<fp16, [1, 4]> linear_46_cast_fp16 = linear(bias = var_1175_to_fp16, weight = var_1174_to_fp16, x = input_123_cast_fp16)[name = tensor<string, []>("linear_46_cast_fp16")];
            tensor<fp16, [1, 4]> iou_pred_cast_fp16 = sigmoid(x = linear_46_cast_fp16)[name = tensor<string, []>("iou_pred_cast_fp16")];
            tensor<int32, [4]> var_1187_begin_0 = const()[name = tensor<string, []>("op_1187_begin_0"), val = tensor<int32, [4]>([0, 1, 0, 0])];
            tensor<int32, [4]> var_1187_end_0 = const()[name = tensor<string, []>("op_1187_end_0"), val = tensor<int32, [4]>([1, 4, 256, 256])];
            tensor<bool, [4]> var_1187_end_mask_0 = const()[name = tensor<string, []>("op_1187_end_mask_0"), val = tensor<bool, [4]>([true, true, true, true])];
            tensor<fp16, [1, 3, 256, 256]> low_res_masks = slice_by_index(begin = var_1187_begin_0, end = var_1187_end_0, end_mask = var_1187_end_mask_0, x = masks_cast_fp16)[name = tensor<string, []>("op_1187_cast_fp16")];
            tensor<int32, [2]> var_1207_begin_0 = const()[name = tensor<string, []>("op_1207_begin_0"), val = tensor<int32, [2]>([0, 1])];
            tensor<int32, [2]> var_1207_end_0 = const()[name = tensor<string, []>("op_1207_end_0"), val = tensor<int32, [2]>([1, 4])];
            tensor<bool, [2]> var_1207_end_mask_0 = const()[name = tensor<string, []>("op_1207_end_mask_0"), val = tensor<bool, [2]>([true, true])];
            tensor<fp16, [1, 3]> scores = slice_by_index(begin = var_1207_begin_0, end = var_1207_end_0, end_mask = var_1207_end_mask_0, x = iou_pred_cast_fp16)[name = tensor<string, []>("op_1207_cast_fp16")];
        } -> (low_res_masks, scores);
}