program(1.0)
[buildInfo = dict<tensor<string, []>, tensor<string, []>>({{"coremlc-component-MIL", "3520.4.1"}, {"coremlc-version", "3520.5.1"}, {"coremltools-component-torch", "2.4.1"}, {"coremltools-source-dialect", "TorchScript"}, {"coremltools-version", "8.0b2"}})]
{
    func main<ios17>(tensor<fp32, [1, 3, 1024, 1024]> image) {
            tensor<fp32, []> image__scaled___y_0 = const()[name = tensor<string, []>("image__scaled___y_0"), val = tensor<fp32, []>(0x1.1c4bep-6)];
            tensor<fp32, [1, 3, 1024, 1024]> image__scaled__ = mul(x = image, y = image__scaled___y_0)[name = tensor<string, []>("image__scaled__")];
            tensor<fp32, [1, 3, 1, 1]> image__biased___y_0 = const()[name = tensor<string, []>("image__biased___y_0"), val = tensor<fp32, [1, 3, 1, 1]>([[[[-0x1.0f177ap+1]], [[-0x1.04924ap+1]], [[-0x1.cdf012p+0]]]])];
            tensor<fp32, [1, 3, 1024, 1024]> image__biased__ = add(x = image__scaled__, y = image__biased___y_0)[name = tensor<string, []>("image__biased__")];
            tensor<int32, [2]> var_6 = const()[name = tensor<string, []>("op_6"), val = tensor<int32, [2]>([4, 4])];
            tensor<int32, [2]> var_12 = const()[name = tensor<string, []>("op_12"), val = tensor<int32, [2]>([1, 1])];
            tensor<int32, []> var_17 = const()[name = tensor<string, []>("op_17"), val = tensor<int32, []>(1)];
            tensor<string, []> x_1_pad_type_0 = const()[name = tensor<string, []>("x_1_pad_type_0"), val = tensor<string, []>("custom")];
            tensor<int32, [4]> x_1_pad_0 = const()[name = tensor<string, []>("x_1_pad_0"), val = tensor<int32, [4]>([3, 3, 3, 3])];
            tensor<string, []> image_to_fp16_dtype_0 = const()[name = tensor<string, []>("image_to_fp16_dtype_0"), val = tensor<string, []>("fp16")];
            tensor<fp16, [96, 3, 7, 7]> var_2_to_fp16 = const()[name = tensor<string, []>("op_2_to_fp16"), val = tensor<fp16, [96, 3, 7, 7]>(BLOBFILE(path = tensor<string, []>("@model_path/weights/weight.bin"), offset = tensor<uint64, []>(64)))];
            tensor<fp16, [96]> var_3_to_fp16 = const()[name = tensor<string, []>("op_3_to_fp16"), val = tensor<fp16, [96]>(BLOBFILE(path = tensor<string, []>("@model_path/weights/weight.bin"), offset = tensor<uint64, []>(28352)))];
            tensor<fp16, [1, 3, 1024, 1024]> image_to_fp16 = cast(dtype = image_to_fp16_dtype_0, x = image__biased__)[name = tensor<string, []>("cast_75")];
            tensor<fp16, [1, 96, 256, 256]> x_1_cast_fp16 = conv(bias = var_3_to_fp16, dilations = var_12, groups = var_17, pad = x_1_pad_0, pad_type = x_1_pad_type_0, strides = var_6, weight = var_2_to_fp16, x = image_to_fp16)[name = tensor<string, []>("x_1_cast_fp16")];
            tensor<int32, [4]> var_27 = const()[name = tensor<string, []>("op_27"), val = tensor<int32, [4]>([0, 2, 3, 1])];
            tensor<fp32, []> pos_embed_1_scale_factor_height_0 = const()[name = tensor<string, []>("pos_embed_1_scale_factor_height_0"), val = tensor<fp32, []>(0x1.24924ap+5)];
            tensor<fp32, []> pos_embed_1_scale_factor_width_0 = const()[name = tensor<string, []>("pos_embed_1_scale_factor_width_0"), val = tensor<fp32, []>(0x1.24924ap+5)];
            tensor<bool, []> pos_embed_1_align_corners_0 = const()[name = tensor<string, []>("pos_embed_1_align_corners_0"), val = tensor<bool, []>(false)];
            tensor<fp16, [1, 96, 7, 7]> var_37_to_fp16 = const()[name = tensor<string, []>("op_37_to_fp16"), val = tensor<fp16, [1, 96, 7, 7]>(BLOBFILE(path = tensor<string, []>("@model_path/weights/weight.bin"), offset = tensor<uint64, []>(28608)))];
            tensor<fp16, [1, 96, 256, 256]> pos_embed_1_cast_fp16 = upsample_bilinear(align_corners = pos_embed_1_align_corners_0, scale_factor_height = pos_embed_1_scale_factor_height_0, scale_factor_width = pos_embed_1_scale_factor_width_0, x = var_37_to_fp16)[name = tensor<string, []>("pos_embed_1_cast_fp16")];
            tensor<fp16, [1, 96, 256, 256]> var_76_to_fp16 = const()[name = tensor<string, []>("op_76_to_fp16"), val = tensor<fp16, [1, 96, 256, 256]>(BLOBFILE(path = tensor<string, []>("@model_path/weights/weight.bin"), offset = tensor<uint64, []>(38080)))];
            tensor<fp16, [1, 96, 256, 256]> pos_embed_cast_fp16 = add(x = pos_embed_1_cast_fp16, y = var_76_to_fp16)[name = tensor<string, []>("pos_embed_cast_fp16")];
            tensor<int32, [4]> var_83 = const()[name = tensor<string, []>("op_83"), val = tensor<int32, [4]>([0, 2, 3, 1])];
            tensor<fp16, [1, 256, 256, 96]> var_84_cast_fp16 = transpose(perm = var_83, x = pos_embed_cast_fp16)[name = tensor<string, []>("transpose_172")];
            tensor<fp16, [1, 256, 256, 96]> x_3_cast_fp16 = transpose(perm = var_27, x = x_1_cast_fp16)[name = tensor<string, []>("transpose_173")];
            tensor<fp16, [1, 256, 256, 96]> input_1_cast_fp16 = add(x = x_3_cast_fp16, y = var_84_cast_fp16)[name = tensor<string, []>("input_1_cast_fp16")];
            tensor<int32, [1]> x_5_axes_0 = const()[name = tensor<string, []>("x_5_axes_0"), val = tensor<int32, [1]>([-1])];
            tensor<fp16, [96]> var_89_to_fp16 = const()[name = tensor<string, []>("op_89_to_fp16"), val = tensor<fp16, [96]>(BLOBFILE(path = tensor<string, []>("@model_path/weights/weight.bin"), offset = tensor<uint64, []>(12621056)))];
            tensor<fp16, [96]> var_90_to_fp16 = const()[name = tensor<string, []>("op_90_to_fp16"), val = tensor<fp16, [96]>(BLOBFILE(path = tensor<string, []>("@model_path/weights/weight.bin"), offset = tensor<uint64, []>(12621312)))];
            tensor<fp16, []> var_91_to_fp16 = const()[name = tensor<string, []>("op_91_to_fp16"), val = tensor<fp16, []>(0x1.1p-20)];
            tensor<fp16, [1, 256, 256, 96]> x_5_cast_fp16 = layer_norm(axes = x_5_axes_0, beta = var_90_to_fp16, epsilon = var_91_to_fp16, gamma = var_89_to_fp16, x = input_1_cast_fp16)[name = tensor<string, []>("x_5_cast_fp16")];
            tensor<int32, [4]> reshape_0_shape_0 = const()[name = tensor<string, []>("reshape_0_shape_0"), val = tensor<int32, [4]>([32, 8, 32, 768])];
            tensor<fp16, [32, 8, 32, 768]> reshape_0_cast_fp16 = reshape(shape = reshape_0_shape_0, x = x_5_cast_fp16)[name = tensor<string, []>("reshape_0_cast_fp16")];
            tensor<int32, [4]> transpose_24_perm_0 = const()[name = tensor<string, []>("transpose_24_perm_0"), val = tensor<int32, [4]>([0, 2, 1, 3])];
            tensor<int32, [4]> reshape_1_shape_0 = const()[name = tensor<string, []>("reshape_1_shape_0"), val = tensor<int32, [4]>([-1, 8, 8, 96])];
            tensor<fp16, [32, 32, 8, 768]> transpose_24_cast_fp16 = transpose(perm = transpose_24_perm_0, x = reshape_0_cast_fp16)[name = tensor<string, []>("transpose_171")];
            tensor<fp16, [1024, 8, 8, 96]> reshape_1_cast_fp16 = reshape(shape = reshape_1_shape_0, x = transpose_24_cast_fp16)[name = tensor<string, []>("reshape_1_cast_fp16")];
            tensor<fp16, [288, 96]> var_167_to_fp16 = const()[name = tensor<string, []>("op_167_to_fp16"), val = tensor<fp16, [288, 96]>(BLOBFILE(path = tensor<string, []>("@model_path/weights/weight.bin"), offset = tensor<uint64, []>(12621568)))];
            tensor<fp16, [288]> var_168_to_fp16 = const()[name = tensor<string, []>("op_168_to_fp16"), val = tensor<fp16, [288]>(BLOBFILE(path = tensor<string, []>("@model_path/weights/weight.bin"), offset = tensor<uint64, []>(12676928)))];
            tensor<fp16, [1024, 8, 8, 288]> linear_0_cast_fp16 = linear(bias = var_168_to_fp16, weight = var_167_to_fp16, x = reshape_1_cast_fp16)[name = tensor<string, []>("linear_0_cast_fp16")];
            tensor<int32, [5]> var_175 = const()[name = tensor<string, []>("op_175"), val = tensor<int32, [5]>([1024, 64, 3, 1, -1])];
            tensor<fp16, [1024, 64, 3, 1, 96]> qkv_1_cast_fp16 = reshape(shape = var_175, x = linear_0_cast_fp16)[name = tensor<string, []>("qkv_1_cast_fp16")];
            tensor<int32, [3]> var_178_split_sizes_0 = const()[name = tensor<string, []>("op_178_split_sizes_0"), val = tensor<int32, [3]>([1, 1, 1])];
            tensor<int32, []> var_178_axis_0 = const()[name = tensor<string, []>("op_178_axis_0"), val = tensor<int32, []>(2)];
            tensor<fp16, [1024, 64, 1, 1, 96]> var_178_cast_fp16_0, tensor<fp16, [1024, 64, 1, 1, 96]> var_178_cast_fp16_1, tensor<fp16, [1024, 64, 1, 1, 96]> var_178_cast_fp16_2 = split(axis = var_178_axis_0, split_sizes = var_178_split_sizes_0, x = qkv_1_cast_fp16)[name = tensor<string, []>("op_178_cast_fp16")];
            tensor<int32, [1]> squeeze_0_axes_0 = const()[name = tensor<string, []>("squeeze_0_axes_0"), val = tensor<int32, [1]>([2])];
            tensor<fp16, [1024, 64, 1, 96]> squeeze_0_cast_fp16 = squeeze(axes = squeeze_0_axes_0, x = var_178_cast_fp16_0)[name = tensor<string, []>("squeeze_0_cast_fp16")];
            tensor<int32, [1]> squeeze_1_axes_0 = const()[name = tensor<string, []>("squeeze_1_axes_0"), val = tensor<int32, [1]>([2])];
            tensor<fp16, [1024, 64, 1, 96]> squeeze_1_cast_fp16 = squeeze(axes = squeeze_1_axes_0, x = var_178_cast_fp16_1)[name = tensor<string, []>("squeeze_1_cast_fp16")];
            tensor<int32, [1]> squeeze_2_axes_0 = const()[name = tensor<string, []>("squeeze_2_axes_0"), val = tensor<int32, [1]>([2])];
            tensor<fp16, [1024, 64, 1, 96]> squeeze_2_cast_fp16 = squeeze(axes = squeeze_2_axes_0, x = var_178_cast_fp16_2)[name = tensor<string, []>("squeeze_2_cast_fp16")];
            tensor<int32, [4]> var_190_perm_0 = const()[name = tensor<string, []>("op_190_perm_0"), val = tensor<int32, [4]>([0, 2, 1, 3])];
            tensor<fp16, []> mul_0_y_0_to_fp16 = const()[name = tensor<string, []>("mul_0_y_0_to_fp16"), val = tensor<fp16, []>(0x1.a2p-4)];
            tensor<fp16, [1024, 64, 1, 96]> mul_0_cast_fp16 = mul(x = squeeze_0_cast_fp16, y = mul_0_y_0_to_fp16)[name = tensor<string, []>("mul_0_cast_fp16")];
            tensor<bool, []> matmul_0_transpose_y_0 = const()[name = tensor<string, []>("matmul_0_transpose_y_0"), val = tensor<bool, []>(true)];
            tensor<bool, []> matmul_0_transpose_x_0 = const()[name = tensor<string, []>("matmul_0_transpose_x_0"), val = tensor<bool, []>(false)];
            tensor<int32, [4]> transpose_66_perm_0 = const()[name = tensor<string, []>("transpose_66_perm_0"), val = tensor<int32, [4]>([0, 2, -3, -1])];
            tensor<int32, [4]> transpose_67_perm_0 = const()[name = tensor<string, []>("transpose_67_perm_0"), val = tensor<int32, [4]>([0, 2, -3, -1])];
            tensor<fp16, [1024, 1, 64, 96]> transpose_67 = transpose(perm = transpose_67_perm_0, x = squeeze_1_cast_fp16)[name = tensor<string, []>("transpose_168")];
            tensor<fp16, [1024, 1, 64, 96]> transpose_66 = transpose(perm = transpose_66_perm_0, x = mul_0_cast_fp16)[name = tensor<string, []>("transpose_169")];
            tensor<fp16, [1024, 1, 64, 64]> matmul_0_cast_fp16 = matmul(transpose_x = matmul_0_transpose_x_0, transpose_y = matmul_0_transpose_y_0, x = transpose_66, y = transpose_67)[name = tensor<string, []>("matmul_0_cast_fp16")];
            tensor<int32, []> softmax_0_axis_0 = const()[name = tensor<string, []>("softmax_0_axis_0"), val = tensor<int32, []>(-1)];
            tensor<fp16, [1024, 1, 64, 64]> softmax_0_cast_fp16 = softmax(axis = softmax_0_axis_0, x = matmul_0_cast_fp16)[name = tensor<string, []>("softmax_0_cast_fp16")];
            tensor<bool, []> x_11_transpose_x_0 = const()[name = tensor<string, []>("x_11_transpose_x_0"), val = tensor<bool, []>(false)];
            tensor<bool, []> x_11_transpose_y_0 = const()[name = tensor<string, []>("x_11_transpose_y_0"), val = tensor<bool, []>(false)];
            tensor<fp16, [1024, 1, 64, 96]> var_190_cast_fp16 = transpose(perm = var_190_perm_0, x = squeeze_2_cast_fp16)[name = tensor<string, []>("transpose_170")];
            tensor<fp16, [1024, 1, 64, 96]> x_11_cast_fp16 = matmul(transpose_x = x_11_transpose_x_0, transpose_y = x_11_transpose_y_0, x = softmax_0_cast_fp16, y = var_190_cast_fp16)[name = tensor<string, []>("x_11_cast_fp16")];
            tensor<int32, [4]> x_13_perm_0 = const()[name = tensor<string, []>("x_13_perm_0"), val = tensor<int32, [4]>([0, 2, 1, 3])];
            tensor<int32, [4]> var_200 = const()[name = tensor<string, []>("op_200"), val = tensor<int32, [4]>([1024, 8, 8, -1])];
            tensor<fp16, [1024, 64, 1, 96]> x_13_cast_fp16 = transpose(perm = x_13_perm_0, x = x_11_cast_fp16)[name = tensor<string, []>("transpose_167")];
            tensor<fp16, [1024, 8, 8, 96]> input_3_cast_fp16 = reshape(shape = var_200, x = x_13_cast_fp16)[name = tensor<string, []>("input_3_cast_fp16")];
            tensor<fp16, [96, 96]> var_202_to_fp16 = const()[name = tensor<string, []>("op_202_to_fp16"), val = tensor<fp16, [96, 96]>(BLOBFILE(path = tensor<string, []>("@model_path/weights/weight.bin"), offset = tensor<uint64, []>(12677568)))];
            tensor<fp16, [96]> var_203_to_fp16 = const()[name = tensor<string, []>("op_203_to_fp16"), val = tensor<fp16, [96]>(BLOBFILE(path = tensor<string, []>("@model_path/weights/weight.bin"), offset = tensor<uint64, []>(12696064)))];
            tensor<fp16, [1024, 8, 8, 96]> linear_1_cast_fp16 = linear(bias = var_203_to_fp16, weight = var_202_to_fp16, x = input_3_cast_fp16)[name = tensor<string, []>("linear_1_cast_fp16")];
            tensor<int32, [4]> reshape_2_shape_0 = const()[name = tensor<string, []>("reshape_2_shape_0"), val = tensor<int32, [4]>([32, 32, 8, 768])];
            tensor<fp16, [32, 32, 8, 768]> reshape_2_cast_fp16 = reshape(shape = reshape_2_shape_0, x = linear_1_cast_fp16)[name = tensor<string, []>("reshape_2_cast_fp16")];
            tensor<int32, [4]> transpose_25_perm_0 = const()[name = tensor<string, []>("transpose_25_perm_0"), val = tensor<int32, [4]>([0, 2, 1, 3])];
            tensor<int32, [4]> reshape_3_shape_0 = const()[name = tensor<string, []>("reshape_3_shape_0"), val = tensor<int32, [4]>([1, 256, 256, -1])];
            tensor<fp16, [32, 8, 32, 768]> transpose_25_cast_fp16 = transpose(perm = transpose_25_perm_0, x = reshape_2_cast_fp16)[name = tensor<string, []>("transpose_166")];
            tensor<fp16, [1, 256, 256, 96]> reshape_3_cast_fp16 = reshape(shape = reshape_3_shape_0, x = transpose_25_cast_fp16)[name = tensor<string, []>("reshape_3_cast_fp16")];
            tensor<fp16, [1, 256, 256, 96]> input_5_cast_fp16 = add(x = input_1_cast_fp16, y = reshape_3_cast_fp16)[name = tensor<string, []>("input_5_cast_fp16")];
            tensor<int32, [1]> input_7_axes_0 = const()[name = tensor<string, []>("input_7_axes_0"), val = tensor<int32, [1]>([-1])];
            tensor<fp16, [96]> var_244_to_fp16 = const()[name = tensor<string, []>("op_244_to_fp16"), val = tensor<fp16, [96]>(BLOBFILE(path = tensor<string, []>("@model_path/weights/weight.bin"), offset = tensor<uint64, []>(12696320)))];
            tensor<fp16, [96]> var_245_to_fp16 = const()[name = tensor<string, []>("op_245_to_fp16"), val = tensor<fp16, [96]>(BLOBFILE(path = tensor<string, []>("@model_path/weights/weight.bin"), offset = tensor<uint64, []>(12696576)))];
            tensor<fp16, []> var_246_to_fp16 = const()[name = tensor<string, []>("op_246_to_fp16"), val = tensor<fp16, []>(0x1.1p-20)];
            tensor<fp16, [1, 256, 256, 96]> input_7_cast_fp16 = layer_norm(axes = input_7_axes_0, beta = var_245_to_fp16, epsilon = var_246_to_fp16, gamma = var_244_to_fp16, x = input_5_cast_fp16)[name = tensor<string, []>("input_7_cast_fp16")];
            tensor<fp16, [384, 96]> var_249_to_fp16 = const()[name = tensor<string, []>("op_249_to_fp16"), val = tensor<fp16, [384, 96]>(BLOBFILE(path = tensor<string, []>("@model_path/weights/weight.bin"), offset = tensor<uint64, []>(12696832)))];
            tensor<fp16, [384]> var_250_to_fp16 = const()[name = tensor<string, []>("op_250_to_fp16"), val = tensor<fp16, [384]>(BLOBFILE(path = tensor<string, []>("@model_path/weights/weight.bin"), offset = tensor<uint64, []>(12770624)))];
            tensor<fp16, [1, 256, 256, 384]> linear_2_cast_fp16 = linear(bias = var_250_to_fp16, weight = var_249_to_fp16, x = input_7_cast_fp16)[name = tensor<string, []>("linear_2_cast_fp16")];
            tensor<string, []> input_11_mode_0 = const()[name = tensor<string, []>("input_11_mode_0"), val = tensor<string, []>("EXACT")];
            tensor<fp16, [1, 256, 256, 384]> input_11_cast_fp16 = gelu(mode = input_11_mode_0, x = linear_2_cast_fp16)[name = tensor<string, []>("input_11_cast_fp16")];
            tensor<fp16, [96, 384]> var_254_to_fp16 = const()[name = tensor<string, []>("op_254_to_fp16"), val = tensor<fp16, [96, 384]>(BLOBFILE(path = tensor<string, []>("@model_path/weights/weight.bin"), offset = tensor<uint64, []>(12771456)))];
            tensor<fp16, [96]> var_255_to_fp16 = const()[name = tensor<string, []>("op_255_to_fp16"), val = tensor<fp16, [96]>(BLOBFILE(path = tensor<string, []>("@model_path/weights/weight.bin"), offset = tensor<uint64, []>(12845248)))];
            tensor<fp16, [1, 256, 256, 96]> linear_3_cast_fp16 = linear(bias = var_255_to_fp16, weight = var_254_to_fp16, x = input_11_cast_fp16)[name = tensor<string, []>("linear_3_cast_fp16")];
            tensor<fp16, [1, 256, 256, 96]> x_19_cast_fp16 = add(x = input_5_cast_fp16, y = linear_3_cast_fp16)[name = tensor<string, []>("x_19_cast_fp16")];
            tensor<int32, [4]> var_263 = const()[name = tensor<string, []>("op_263"), val = tensor<int32, [4]>([0, 3, 1, 2])];
            tensor<int32, [1]> input_13_axes_0 = const()[name = tensor<string, []>("input_13_axes_0"), val = tensor<int32, [1]>([-1])];
            tensor<fp16, [96]> var_267_to_fp16 = const()[name = tensor<string, []>("op_267_to_fp16"), val = tensor<fp16, [96]>(BLOBFILE(path = tensor<string, []>("@model_path/weights/weight.bin"), offset = tensor<uint64, []>(12845504)))];
            tensor<fp16, [96]> var_268_to_fp16 = const()[name = tensor<string, []>("op_268_to_fp16"), val = tensor<fp16, [96]>(BLOBFILE(path = tensor<string, []>("@model_path/weights/weight.bin"), offset = tensor<uint64, []>(12845760)))];
            tensor<fp16, []> var_269_to_fp16 = const()[name = tensor<string, []>("op_269_to_fp16"), val = tensor<fp16, []>(0x1.1p-20)];
            tensor<fp16, [1, 256, 256, 96]> input_13_cast_fp16 = layer_norm(axes = input_13_axes_0, beta = var_268_to_fp16, epsilon = var_269_to_fp16, gamma = var_267_to_fp16, x = x_19_cast_fp16)[name = tensor<string, []>("input_13_cast_fp16")];
            tensor<fp16, [192, 96]> var_272_to_fp16 = const()[name = tensor<string, []>("op_272_to_fp16"), val = tensor<fp16, [192, 96]>(BLOBFILE(path = tensor<string, []>("@model_path/weights/weight.bin"), offset = tensor<uint64, []>(12846016)))];
            tensor<fp16, [192]> var_273_to_fp16 = const()[name = tensor<string, []>("op_273_to_fp16"), val = tensor<fp16, [192]>(BLOBFILE(path = tensor<string, []>("@model_path/weights/weight.bin"), offset = tensor<uint64, []>(12882944)))];
            tensor<fp16, [1, 256, 256, 192]> linear_4_cast_fp16 = linear(bias = var_273_to_fp16, weight = var_272_to_fp16, x = input_13_cast_fp16)[name = tensor<string, []>("linear_4_cast_fp16")];
            tensor<int32, [4]> var_279 = const()[name = tensor<string, []>("op_279"), val = tensor<int32, [4]>([0, 3, 1, 2])];
            tensor<int32, [2]> var_283 = const()[name = tensor<string, []>("op_283"), val = tensor<int32, [2]>([2, 2])];
            tensor<int32, [2]> var_286 = const()[name = tensor<string, []>("op_286"), val = tensor<int32, [2]>([2, 2])];
            tensor<string, []> x_23_pad_type_0 = const()[name = tensor<string, []>("x_23_pad_type_0"), val = tensor<string, []>("custom")];
            tensor<int32, [4]> x_23_pad_0 = const()[name = tensor<string, []>("x_23_pad_0"), val = tensor<int32, [4]>([0, 0, 0, 0])];
            tensor<bool, []> x_23_ceil_mode_0 = const()[name = tensor<string, []>("x_23_ceil_mode_0"), val = tensor<bool, []>(false)];
            tensor<fp16, [1, 192, 256, 256]> input_15_cast_fp16 = transpose(perm = var_279, x = linear_4_cast_fp16)[name = tensor<string, []>("transpose_164")];
            tensor<fp16, [1, 192, 128, 128]> x_23_cast_fp16 = max_pool(ceil_mode = x_23_ceil_mode_0, kernel_sizes = var_283, pad = x_23_pad_0, pad_type = x_23_pad_type_0, strides = var_286, x = input_15_cast_fp16)[name = tensor<string, []>("x_23_cast_fp16")];
            tensor<int32, [4]> var_299 = const()[name = tensor<string, []>("op_299"), val = tensor<int32, [4]>([0, 2, 3, 1])];
            tensor<int32, [4]> reshape_4_shape_0 = const()[name = tensor<string, []>("reshape_4_shape_0"), val = tensor<int32, [4]>([32, 8, 32, 768])];
            tensor<fp16, [32, 8, 32, 768]> reshape_4_cast_fp16 = reshape(shape = reshape_4_shape_0, x = input_13_cast_fp16)[name = tensor<string, []>("reshape_4_cast_fp16")];
            tensor<int32, [4]> transpose_26_perm_0 = const()[name = tensor<string, []>("transpose_26_perm_0"), val = tensor<int32, [4]>([0, 2, 1, 3])];
            tensor<int32, [4]> reshape_5_shape_0 = const()[name = tensor<string, []>("reshape_5_shape_0"), val = tensor<int32, [4]>([-1, 8, 8, 96])];
            tensor<fp16, [32, 32, 8, 768]> transpose_26_cast_fp16 = transpose(perm = transpose_26_perm_0, x = reshape_4_cast_fp16)[name = tensor<string, []>("transpose_162")];
            tensor<fp16, [1024, 8, 8, 96]> reshape_5_cast_fp16 = reshape(shape = reshape_5_shape_0, x = transpose_26_cast_fp16)[name = tensor<string, []>("reshape_5_cast_fp16")];
            tensor<fp16, [576, 96]> var_374_to_fp16 = const()[name = tensor<string, []>("op_374_to_fp16"), val = tensor<fp16, [576, 96]>(BLOBFILE(path = tensor<string, []>("@model_path/weights/weight.bin"), offset = tensor<uint64, []>(12883392)))];
            tensor<fp16, [576]> var_375_to_fp16 = const()[name = tensor<string, []>("op_375_to_fp16"), val = tensor<fp16, [576]>(BLOBFILE(path = tensor<string, []>("@model_path/weights/weight.bin"), offset = tensor<uint64, []>(12994048)))];
            tensor<fp16, [1024, 8, 8, 576]> linear_5_cast_fp16 = linear(bias = var_375_to_fp16, weight = var_374_to_fp16, x = reshape_5_cast_fp16)[name = tensor<string, []>("linear_5_cast_fp16")];
            tensor<int32, [5]> var_382 = const()[name = tensor<string, []>("op_382"), val = tensor<int32, [5]>([1024, 64, 3, 2, -1])];
            tensor<fp16, [1024, 64, 3, 2, 96]> qkv_3_cast_fp16 = reshape(shape = var_382, x = linear_5_cast_fp16)[name = tensor<string, []>("qkv_3_cast_fp16")];
            tensor<int32, [3]> var_385_split_sizes_0 = const()[name = tensor<string, []>("op_385_split_sizes_0"), val = tensor<int32, [3]>([1, 1, 1])];
            tensor<int32, []> var_385_axis_0 = const()[name = tensor<string, []>("op_385_axis_0"), val = tensor<int32, []>(2)];
            tensor<fp16, [1024, 64, 1, 2, 96]> var_385_cast_fp16_0, tensor<fp16, [1024, 64, 1, 2, 96]> var_385_cast_fp16_1, tensor<fp16, [1024, 64, 1, 2, 96]> var_385_cast_fp16_2 = split(axis = var_385_axis_0, split_sizes = var_385_split_sizes_0, x = qkv_3_cast_fp16)[name = tensor<string, []>("op_385_cast_fp16")];
            tensor<int32, [1]> squeeze_3_axes_0 = const()[name = tensor<string, []>("squeeze_3_axes_0"), val = tensor<int32, [1]>([2])];
            tensor<fp16, [1024, 64, 2, 96]> squeeze_3_cast_fp16 = squeeze(axes = squeeze_3_axes_0, x = var_385_cast_fp16_0)[name = tensor<string, []>("squeeze_3_cast_fp16")];
            tensor<int32, [1]> squeeze_4_axes_0 = const()[name = tensor<string, []>("squeeze_4_axes_0"), val = tensor<int32, [1]>([2])];
            tensor<fp16, [1024, 64, 2, 96]> squeeze_4_cast_fp16 = squeeze(axes = squeeze_4_axes_0, x = var_385_cast_fp16_1)[name = tensor<string, []>("squeeze_4_cast_fp16")];
            tensor<int32, [1]> squeeze_5_axes_0 = const()[name = tensor<string, []>("squeeze_5_axes_0"), val = tensor<int32, [1]>([2])];
            tensor<fp16, [1024, 64, 2, 96]> squeeze_5_cast_fp16 = squeeze(axes = squeeze_5_axes_0, x = var_385_cast_fp16_2)[name = tensor<string, []>("squeeze_5_cast_fp16")];
            tensor<int32, [4]> var_390 = const()[name = tensor<string, []>("op_390"), val = tensor<int32, [4]>([1024, 8, 8, -1])];
            tensor<fp16, [1024, 8, 8, 192]> x_29_cast_fp16 = reshape(shape = var_390, x = squeeze_3_cast_fp16)[name = tensor<string, []>("x_29_cast_fp16")];
            tensor<int32, [4]> var_396 = const()[name = tensor<string, []>("op_396"), val = tensor<int32, [4]>([0, 3, 1, 2])];
            tensor<int32, [2]> var_400 = const()[name = tensor<string, []>("op_400"), val = tensor<int32, [2]>([2, 2])];
            tensor<int32, [2]> var_403 = const()[name = tensor<string, []>("op_403"), val = tensor<int32, [2]>([2, 2])];
            tensor<string, []> x_31_pad_type_0 = const()[name = tensor<string, []>("x_31_pad_type_0"), val = tensor<string, []>("custom")];
            tensor<int32, [4]> x_31_pad_0 = const()[name = tensor<string, []>("x_31_pad_0"), val = tensor<int32, [4]>([0, 0, 0, 0])];
            tensor<bool, []> x_31_ceil_mode_0 = const()[name = tensor<string, []>("x_31_ceil_mode_0"), val = tensor<bool, []>(false)];
            tensor<fp16, [1024, 192, 8, 8]> input_17_cast_fp16 = transpose(perm = var_396, x = x_29_cast_fp16)[name = tensor<string, []>("transpose_161")];
            tensor<fp16, [1024, 192, 4, 4]> x_31_cast_fp16 = max_pool(ceil_mode = x_31_ceil_mode_0, kernel_sizes = var_400, pad = x_31_pad_0, pad_type = x_31_pad_type_0, strides = var_403, x = input_17_cast_fp16)[name = tensor<string, []>("x_31_cast_fp16")];
            tensor<int32, [4]> var_416 = const()[name = tensor<string, []>("op_416"), val = tensor<int32, [4]>([0, 2, 3, 1])];
            tensor<int32, [4]> var_430 = const()[name = tensor<string, []>("op_430"), val = tensor<int32, [4]>([1024, 16, 2, -1])];
            tensor<fp16, [1024, 4, 4, 192]> q_5_cast_fp16 = transpose(perm = var_416, x = x_31_cast_fp16)[name = tensor<string, []>("transpose_160")];
            tensor<fp16, [1024, 16, 2, 96]> q_7_cast_fp16 = reshape(shape = var_430, x = q_5_cast_fp16)[name = tensor<string, []>("q_7_cast_fp16")];
            tensor<int32, [4]> var_440_perm_0 = const()[name = tensor<string, []>("op_440_perm_0"), val = tensor<int32, [4]>([0, 2, 1, 3])];
            tensor<fp16, []> mul_1_y_0_to_fp16 = const()[name = tensor<string, []>("mul_1_y_0_to_fp16"), val = tensor<fp16, []>(0x1.a2p-4)];
            tensor<fp16, [1024, 16, 2, 96]> mul_1_cast_fp16 = mul(x = q_7_cast_fp16, y = mul_1_y_0_to_fp16)[name = tensor<string, []>("mul_1_cast_fp16")];
            tensor<bool, []> matmul_1_transpose_y_0 = const()[name = tensor<string, []>("matmul_1_transpose_y_0"), val = tensor<bool, []>(true)];
            tensor<bool, []> matmul_1_transpose_x_0 = const()[name = tensor<string, []>("matmul_1_transpose_x_0"), val = tensor<bool, []>(false)];
            tensor<int32, [4]> transpose_68_perm_0 = const()[name = tensor<string, []>("transpose_68_perm_0"), val = tensor<int32, [4]>([0, 2, -3, -1])];
            tensor<int32, [4]> transpose_69_perm_0 = const()[name = tensor<string, []>("transpose_69_perm_0"), val = tensor<int32, [4]>([0, 2, -3, -1])];
            tensor<fp16, [1024, 2, 64, 96]> transpose_69 = transpose(perm = transpose_69_perm_0, x = squeeze_4_cast_fp16)[name = tensor<string, []>("transpose_157")];
            tensor<fp16, [1024, 2, 16, 96]> transpose_68 = transpose(perm = transpose_68_perm_0, x = mul_1_cast_fp16)[name = tensor<string, []>("transpose_158")];
            tensor<fp16, [1024, 2, 16, 64]> matmul_1_cast_fp16 = matmul(transpose_x = matmul_1_transpose_x_0, transpose_y = matmul_1_transpose_y_0, x = transpose_68, y = transpose_69)[name = tensor<string, []>("matmul_1_cast_fp16")];
            tensor<int32, []> softmax_1_axis_0 = const()[name = tensor<string, []>("softmax_1_axis_0"), val = tensor<int32, []>(-1)];
            tensor<fp16, [1024, 2, 16, 64]> softmax_1_cast_fp16 = softmax(axis = softmax_1_axis_0, x = matmul_1_cast_fp16)[name = tensor<string, []>("softmax_1_cast_fp16")];
            tensor<bool, []> x_33_transpose_x_0 = const()[name = tensor<string, []>("x_33_transpose_x_0"), val = tensor<bool, []>(false)];
            tensor<bool, []> x_33_transpose_y_0 = const()[name = tensor<string, []>("x_33_transpose_y_0"), val = tensor<bool, []>(false)];
            tensor<fp16, [1024, 2, 64, 96]> var_440_cast_fp16 = transpose(perm = var_440_perm_0, x = squeeze_5_cast_fp16)[name = tensor<string, []>("transpose_159")];
            tensor<fp16, [1024, 2, 16, 96]> x_33_cast_fp16 = matmul(transpose_x = x_33_transpose_x_0, transpose_y = x_33_transpose_y_0, x = softmax_1_cast_fp16, y = var_440_cast_fp16)[name = tensor<string, []>("x_33_cast_fp16")];
            tensor<int32, [4]> x_35_perm_0 = const()[name = tensor<string, []>("x_35_perm_0"), val = tensor<int32, [4]>([0, 2, 1, 3])];
            tensor<int32, [4]> var_450 = const()[name = tensor<string, []>("op_450"), val = tensor<int32, [4]>([1024, 4, 4, -1])];
            tensor<fp16, [1024, 16, 2, 96]> x_35_cast_fp16 = transpose(perm = x_35_perm_0, x = x_33_cast_fp16)[name = tensor<string, []>("transpose_156")];
            tensor<fp16, [1024, 4, 4, 192]> input_19_cast_fp16 = reshape(shape = var_450, x = x_35_cast_fp16)[name = tensor<string, []>("input_19_cast_fp16")];
            tensor<fp16, [192, 192]> var_452_to_fp16 = const()[name = tensor<string, []>("op_452_to_fp16"), val = tensor<fp16, [192, 192]>(BLOBFILE(path = tensor<string, []>("@model_path/weights/weight.bin"), offset = tensor<uint64, []>(12995264)))];
            tensor<fp16, [192]> var_453_to_fp16 = const()[name = tensor<string, []>("op_453_to_fp16"), val = tensor<fp16, [192]>(BLOBFILE(path = tensor<string, []>("@model_path/weights/weight.bin"), offset = tensor<uint64, []>(13069056)))];
            tensor<fp16, [1024, 4, 4, 192]> linear_6_cast_fp16 = linear(bias = var_453_to_fp16, weight = var_452_to_fp16, x = input_19_cast_fp16)[name = tensor<string, []>("linear_6_cast_fp16")];
            tensor<int32, [4]> reshape_6_shape_0 = const()[name = tensor<string, []>("reshape_6_shape_0"), val = tensor<int32, [4]>([32, 32, 4, 768])];
            tensor<fp16, [32, 32, 4, 768]> reshape_6_cast_fp16 = reshape(shape = reshape_6_shape_0, x = linear_6_cast_fp16)[name = tensor<string, []>("reshape_6_cast_fp16")];
            tensor<int32, [4]> transpose_27_perm_0 = const()[name = tensor<string, []>("transpose_27_perm_0"), val = tensor<int32, [4]>([0, 2, 1, 3])];
            tensor<int32, [4]> reshape_7_shape_0 = const()[name = tensor<string, []>("reshape_7_shape_0"), val = tensor<int32, [4]>([1, 128, 128, -1])];
            tensor<fp16, [32, 4, 32, 768]> transpose_27_cast_fp16 = transpose(perm = transpose_27_perm_0, x = reshape_6_cast_fp16)[name = tensor<string, []>("transpose_155")];
            tensor<fp16, [1, 128, 128, 192]> reshape_7_cast_fp16 = reshape(shape = reshape_7_shape_0, x = transpose_27_cast_fp16)[name = tensor<string, []>("reshape_7_cast_fp16")];
            tensor<fp16, [1, 128, 128, 192]> shortcut_1_cast_fp16 = transpose(perm = var_299, x = x_23_cast_fp16)[name = tensor<string, []>("transpose_163")];
            tensor<fp16, [1, 128, 128, 192]> input_21_cast_fp16 = add(x = shortcut_1_cast_fp16, y = reshape_7_cast_fp16)[name = tensor<string, []>("input_21_cast_fp16")];
            tensor<int32, [1]> input_23_axes_0 = const()[name = tensor<string, []>("input_23_axes_0"), val = tensor<int32, [1]>([-1])];
            tensor<fp16, [192]> var_520_to_fp16 = const()[name = tensor<string, []>("op_520_to_fp16"), val = tensor<fp16, [192]>(BLOBFILE(path = tensor<string, []>("@model_path/weights/weight.bin"), offset = tensor<uint64, []>(13069504)))];
            tensor<fp16, [192]> var_521_to_fp16 = const()[name = tensor<string, []>("op_521_to_fp16"), val = tensor<fp16, [192]>(BLOBFILE(path = tensor<string, []>("@model_path/weights/weight.bin"), offset = tensor<uint64, []>(13069952)))];
            tensor<fp16, []> var_522_to_fp16 = const()[name = tensor<string, []>("op_522_to_fp16"), val = tensor<fp16, []>(0x1.1p-20)];
            tensor<fp16, [1, 128, 128, 192]> input_23_cast_fp16 = layer_norm(axes = input_23_axes_0, beta = var_521_to_fp16, epsilon = var_522_to_fp16, gamma = var_520_to_fp16, x = input_21_cast_fp16)[name = tensor<string, []>("input_23_cast_fp16")];
            tensor<fp16, [768, 192]> var_525_to_fp16 = const()[name = tensor<string, []>("op_525_to_fp16"), val = tensor<fp16, [768, 192]>(BLOBFILE(path = tensor<string, []>("@model_path/weights/weight.bin"), offset = tensor<uint64, []>(13070400)))];
            tensor<fp16, [768]> var_526_to_fp16 = const()[name = tensor<string, []>("op_526_to_fp16"), val = tensor<fp16, [768]>(BLOBFILE(path = tensor<string, []>("@model_path/weights/weight.bin"), offset = tensor<uint64, []>(13365376)))];
            tensor<fp16, [1, 128, 128, 768]> linear_7_cast_fp16 = linear(bias = var_526_to_fp16, weight = var_525_to_fp16, x = input_23_cast_fp16)[name = tensor<string, []>("linear_7_cast_fp16")];
            tensor<string, []> input_27_mode_0 = const()[name = tensor<string, []>("input_27_mode_0"), val = tensor<string, []>("EXACT")];
            tensor<fp16, [1, 128, 128, 768]> input_27_cast_fp16 = gelu(mode = input_27_mode_0, x = linear_7_cast_fp16)[name = tensor<string, []>("input_27_cast_fp16")];
            tensor<fp16, [192, 768]> var_530_to_fp16 = const()[name = tensor<string, []>("op_530_to_fp16"), val = tensor<fp16, [192, 768]>(BLOBFILE(path = tensor<string, []>("@model_path/weights/weight.bin"), offset = tensor<uint64, []>(13366976)))];
            tensor<fp16, [192]> var_531_to_fp16 = const()[name = tensor<string, []>("op_531_to_fp16"), val = tensor<fp16, [192]>(BLOBFILE(path = tensor<string, []>("@model_path/weights/weight.bin"), offset = tensor<uint64, []>(13661952)))];
            tensor<fp16, [1, 128, 128, 192]> linear_8_cast_fp16 = linear(bias = var_531_to_fp16, weight = var_530_to_fp16, x = input_27_cast_fp16)[name = tensor<string, []>("linear_8_cast_fp16")];
            tensor<fp16, [1, 128, 128, 192]> input_29_cast_fp16 = add(x = input_21_cast_fp16, y = linear_8_cast_fp16)[name = tensor<string, []>("input_29_cast_fp16")];
            tensor<int32, [1]> x_41_axes_0 = const()[name = tensor<string, []>("x_41_axes_0"), val = tensor<int32, [1]>([-1])];
            tensor<fp16, [192]> var_537_to_fp16 = const()[name = tensor<string, []>("op_537_to_fp16"), val = tensor<fp16, [192]>(BLOBFILE(path = tensor<string, []>("@model_path/weights/weight.bin"), offset = tensor<uint64, []>(13662400)))];
            tensor<fp16, [192]> var_538_to_fp16 = const()[name = tensor<string, []>("op_538_to_fp16"), val = tensor<fp16, [192]>(BLOBFILE(path = tensor<string, []>("@model_path/weights/weight.bin"), offset = tensor<uint64, []>(13662848)))];
            tensor<fp16, []> var_539_to_fp16 = const()[name = tensor<string, []>("op_539_to_fp16"), val = tensor<fp16, []>(0x1.1p-20)];
            tensor<fp16, [1, 128, 128, 192]> x_41_cast_fp16 = layer_norm(axes = x_41_axes_0, beta = var_538_to_fp16, epsilon = var_539_to_fp16, gamma = var_537_to_fp16, x = input_29_cast_fp16)[name = tensor<string, []>("x_41_cast_fp16")];
            tensor<int32, [4]> reshape_8_shape_0 = const()[name = tensor<string, []>("reshape_8_shape_0"), val = tensor<int32, [4]>([32, 4, 32, 768])];
            tensor<fp16, [32, 4, 32, 768]> reshape_8_cast_fp16 = reshape(shape = reshape_8_shape_0, x = x_41_cast_fp16)[name = tensor<string, []>("reshape_8_cast_fp16")];
            tensor<int32, [4]> transpose_28_perm_0 = const()[name = tensor<string, []>("transpose_28_perm_0"), val = tensor<int32, [4]>([0, 2, 1, 3])];
            tensor<int32, [4]> reshape_9_shape_0 = const()[name = tensor<string, []>("reshape_9_shape_0"), val = tensor<int32, [4]>([-1, 4, 4, 192])];
            tensor<fp16, [32, 32, 4, 768]> transpose_28_cast_fp16 = transpose(perm = transpose_28_perm_0, x = reshape_8_cast_fp16)[name = tensor<string, []>("transpose_154")];
            tensor<fp16, [1024, 4, 4, 192]> reshape_9_cast_fp16 = reshape(shape = reshape_9_shape_0, x = transpose_28_cast_fp16)[name = tensor<string, []>("reshape_9_cast_fp16")];
            tensor<fp16, [576, 192]> var_615_to_fp16 = const()[name = tensor<string, []>("op_615_to_fp16"), val = tensor<fp16, [576, 192]>(BLOBFILE(path = tensor<string, []>("@model_path/weights/weight.bin"), offset = tensor<uint64, []>(13663296)))];
            tensor<fp16, [576]> var_616_to_fp16 = const()[name = tensor<string, []>("op_616_to_fp16"), val = tensor<fp16, [576]>(BLOBFILE(path = tensor<string, []>("@model_path/weights/weight.bin"), offset = tensor<uint64, []>(13884544)))];
            tensor<fp16, [1024, 4, 4, 576]> linear_9_cast_fp16 = linear(bias = var_616_to_fp16, weight = var_615_to_fp16, x = reshape_9_cast_fp16)[name = tensor<string, []>("linear_9_cast_fp16")];
            tensor<int32, [5]> var_623 = const()[name = tensor<string, []>("op_623"), val = tensor<int32, [5]>([1024, 16, 3, 2, -1])];
            tensor<fp16, [1024, 16, 3, 2, 96]> qkv_5_cast_fp16 = reshape(shape = var_623, x = linear_9_cast_fp16)[name = tensor<string, []>("qkv_5_cast_fp16")];
            tensor<int32, [3]> var_626_split_sizes_0 = const()[name = tensor<string, []>("op_626_split_sizes_0"), val = tensor<int32, [3]>([1, 1, 1])];
            tensor<int32, []> var_626_axis_0 = const()[name = tensor<string, []>("op_626_axis_0"), val = tensor<int32, []>(2)];
            tensor<fp16, [1024, 16, 1, 2, 96]> var_626_cast_fp16_0, tensor<fp16, [1024, 16, 1, 2, 96]> var_626_cast_fp16_1, tensor<fp16, [1024, 16, 1, 2, 96]> var_626_cast_fp16_2 = split(axis = var_626_axis_0, split_sizes = var_626_split_sizes_0, x = qkv_5_cast_fp16)[name = tensor<string, []>("op_626_cast_fp16")];
            tensor<int32, [1]> squeeze_6_axes_0 = const()[name = tensor<string, []>("squeeze_6_axes_0"), val = tensor<int32, [1]>([2])];
            tensor<fp16, [1024, 16, 2, 96]> squeeze_6_cast_fp16 = squeeze(axes = squeeze_6_axes_0, x = var_626_cast_fp16_0)[name = tensor<string, []>("squeeze_6_cast_fp16")];
            tensor<int32, [1]> squeeze_7_axes_0 = const()[name = tensor<string, []>("squeeze_7_axes_0"), val = tensor<int32, [1]>([2])];
            tensor<fp16, [1024, 16, 2, 96]> squeeze_7_cast_fp16 = squeeze(axes = squeeze_7_axes_0, x = var_626_cast_fp16_1)[name = tensor<string, []>("squeeze_7_cast_fp16")];
            tensor<int32, [1]> squeeze_8_axes_0 = const()[name = tensor<string, []>("squeeze_8_axes_0"), val = tensor<int32, [1]>([2])];
            tensor<fp16, [1024, 16, 2, 96]> squeeze_8_cast_fp16 = squeeze(axes = squeeze_8_axes_0, x = var_626_cast_fp16_2)[name = tensor<string, []>("squeeze_8_cast_fp16")];
            tensor<int32, [4]> var_638_perm_0 = const()[name = tensor<string, []>("op_638_perm_0"), val = tensor<int32, [4]>([0, 2, 1, 3])];
            tensor<fp16, []> mul_2_y_0_to_fp16 = const()[name = tensor<string, []>("mul_2_y_0_to_fp16"), val = tensor<fp16, []>(0x1.a2p-4)];
            tensor<fp16, [1024, 16, 2, 96]> mul_2_cast_fp16 = mul(x = squeeze_6_cast_fp16, y = mul_2_y_0_to_fp16)[name = tensor<string, []>("mul_2_cast_fp16")];
            tensor<bool, []> matmul_2_transpose_y_0 = const()[name = tensor<string, []>("matmul_2_transpose_y_0"), val = tensor<bool, []>(true)];
            tensor<bool, []> matmul_2_transpose_x_0 = const()[name = tensor<string, []>("matmul_2_transpose_x_0"), val = tensor<bool, []>(false)];
            tensor<int32, [4]> transpose_70_perm_0 = const()[name = tensor<string, []>("transpose_70_perm_0"), val = tensor<int32, [4]>([0, 2, -3, -1])];
            tensor<int32, [4]> transpose_71_perm_0 = const()[name = tensor<string, []>("transpose_71_perm_0"), val = tensor<int32, [4]>([0, 2, -3, -1])];
            tensor<fp16, [1024, 2, 16, 96]> transpose_71 = transpose(perm = transpose_71_perm_0, x = squeeze_7_cast_fp16)[name = tensor<string, []>("transpose_151")];
            tensor<fp16, [1024, 2, 16, 96]> transpose_70 = transpose(perm = transpose_70_perm_0, x = mul_2_cast_fp16)[name = tensor<string, []>("transpose_152")];
            tensor<fp16, [1024, 2, 16, 16]> matmul_2_cast_fp16 = matmul(transpose_x = matmul_2_transpose_x_0, transpose_y = matmul_2_transpose_y_0, x = transpose_70, y = transpose_71)[name = tensor<string, []>("matmul_2_cast_fp16")];
            tensor<int32, []> softmax_2_axis_0 = const()[name = tensor<string, []>("softmax_2_axis_0"), val = tensor<int32, []>(-1)];
            tensor<fp16, [1024, 2, 16, 16]> softmax_2_cast_fp16 = softmax(axis = softmax_2_axis_0, x = matmul_2_cast_fp16)[name = tensor<string, []>("softmax_2_cast_fp16")];
            tensor<bool, []> x_47_transpose_x_0 = const()[name = tensor<string, []>("x_47_transpose_x_0"), val = tensor<bool, []>(false)];
            tensor<bool, []> x_47_transpose_y_0 = const()[name = tensor<string, []>("x_47_transpose_y_0"), val = tensor<bool, []>(false)];
            tensor<fp16, [1024, 2, 16, 96]> var_638_cast_fp16 = transpose(perm = var_638_perm_0, x = squeeze_8_cast_fp16)[name = tensor<string, []>("transpose_153")];
            tensor<fp16, [1024, 2, 16, 96]> x_47_cast_fp16 = matmul(transpose_x = x_47_transpose_x_0, transpose_y = x_47_transpose_y_0, x = softmax_2_cast_fp16, y = var_638_cast_fp16)[name = tensor<string, []>("x_47_cast_fp16")];
            tensor<int32, [4]> x_49_perm_0 = const()[name = tensor<string, []>("x_49_perm_0"), val = tensor<int32, [4]>([0, 2, 1, 3])];
            tensor<int32, [4]> var_648 = const()[name = tensor<string, []>("op_648"), val = tensor<int32, [4]>([1024, 4, 4, -1])];
            tensor<fp16, [1024, 16, 2, 96]> x_49_cast_fp16 = transpose(perm = x_49_perm_0, x = x_47_cast_fp16)[name = tensor<string, []>("transpose_150")];
            tensor<fp16, [1024, 4, 4, 192]> input_31_cast_fp16 = reshape(shape = var_648, x = x_49_cast_fp16)[name = tensor<string, []>("input_31_cast_fp16")];
            tensor<fp16, [192, 192]> var_650_to_fp16 = const()[name = tensor<string, []>("op_650_to_fp16"), val = tensor<fp16, [192, 192]>(BLOBFILE(path = tensor<string, []>("@model_path/weights/weight.bin"), offset = tensor<uint64, []>(13885760)))];
            tensor<fp16, [192]> var_651_to_fp16 = const()[name = tensor<string, []>("op_651_to_fp16"), val = tensor<fp16, [192]>(BLOBFILE(path = tensor<string, []>("@model_path/weights/weight.bin"), offset = tensor<uint64, []>(13959552)))];
            tensor<fp16, [1024, 4, 4, 192]> linear_10_cast_fp16 = linear(bias = var_651_to_fp16, weight = var_650_to_fp16, x = input_31_cast_fp16)[name = tensor<string, []>("linear_10_cast_fp16")];
            tensor<int32, [4]> reshape_10_shape_0 = const()[name = tensor<string, []>("reshape_10_shape_0"), val = tensor<int32, [4]>([32, 32, 4, 768])];
            tensor<fp16, [32, 32, 4, 768]> reshape_10_cast_fp16 = reshape(shape = reshape_10_shape_0, x = linear_10_cast_fp16)[name = tensor<string, []>("reshape_10_cast_fp16")];
            tensor<int32, [4]> transpose_29_perm_0 = const()[name = tensor<string, []>("transpose_29_perm_0"), val = tensor<int32, [4]>([0, 2, 1, 3])];
            tensor<int32, [4]> reshape_11_shape_0 = const()[name = tensor<string, []>("reshape_11_shape_0"), val = tensor<int32, [4]>([1, 128, 128, -1])];
            tensor<fp16, [32, 4, 32, 768]> transpose_29_cast_fp16 = transpose(perm = transpose_29_perm_0, x = reshape_10_cast_fp16)[name = tensor<string, []>("transpose_149")];
            tensor<fp16, [1, 128, 128, 192]> reshape_11_cast_fp16 = reshape(shape = reshape_11_shape_0, x = transpose_29_cast_fp16)[name = tensor<string, []>("reshape_11_cast_fp16")];
            tensor<fp16, [1, 128, 128, 192]> input_33_cast_fp16 = add(x = input_29_cast_fp16, y = reshape_11_cast_fp16)[name = tensor<string, []>("input_33_cast_fp16")];
            tensor<int32, [1]> input_35_axes_0 = const()[name = tensor<string, []>("input_35_axes_0"), val = tensor<int32, [1]>([-1])];
            tensor<fp16, [192]> var_692_to_fp16 = const()[name = tensor<string, []>("op_692_to_fp16"), val = tensor<fp16, [192]>(BLOBFILE(path = tensor<string, []>("@model_path/weights/weight.bin"), offset = tensor<uint64, []>(13960000)))];
            tensor<fp16, [192]> var_693_to_fp16 = const()[name = tensor<string, []>("op_693_to_fp16"), val = tensor<fp16, [192]>(BLOBFILE(path = tensor<string, []>("@model_path/weights/weight.bin"), offset = tensor<uint64, []>(13960448)))];
            tensor<fp16, []> var_694_to_fp16 = const()[name = tensor<string, []>("op_694_to_fp16"), val = tensor<fp16, []>(0x1.1p-20)];
            tensor<fp16, [1, 128, 128, 192]> input_35_cast_fp16 = layer_norm(axes = input_35_axes_0, beta = var_693_to_fp16, epsilon = var_694_to_fp16, gamma = var_692_to_fp16, x = input_33_cast_fp16)[name = tensor<string, []>("input_35_cast_fp16")];
            tensor<fp16, [768, 192]> var_697_to_fp16 = const()[name = tensor<string, []>("op_697_to_fp16"), val = tensor<fp16, [768, 192]>(BLOBFILE(path = tensor<string, []>("@model_path/weights/weight.bin"), offset = tensor<uint64, []>(13960896)))];
            tensor<fp16, [768]> var_698_to_fp16 = const()[name = tensor<string, []>("op_698_to_fp16"), val = tensor<fp16, [768]>(BLOBFILE(path = tensor<string, []>("@model_path/weights/weight.bin"), offset = tensor<uint64, []>(14255872)))];
            tensor<fp16, [1, 128, 128, 768]> linear_11_cast_fp16 = linear(bias = var_698_to_fp16, weight = var_697_to_fp16, x = input_35_cast_fp16)[name = tensor<string, []>("linear_11_cast_fp16")];
            tensor<string, []> input_39_mode_0 = const()[name = tensor<string, []>("input_39_mode_0"), val = tensor<string, []>("EXACT")];
            tensor<fp16, [1, 128, 128, 768]> input_39_cast_fp16 = gelu(mode = input_39_mode_0, x = linear_11_cast_fp16)[name = tensor<string, []>("input_39_cast_fp16")];
            tensor<fp16, [192, 768]> var_702_to_fp16 = const()[name = tensor<string, []>("op_702_to_fp16"), val = tensor<fp16, [192, 768]>(BLOBFILE(path = tensor<string, []>("@model_path/weights/weight.bin"), offset = tensor<uint64, []>(14257472)))];
            tensor<fp16, [192]> var_703_to_fp16 = const()[name = tensor<string, []>("op_703_to_fp16"), val = tensor<fp16, [192]>(BLOBFILE(path = tensor<string, []>("@model_path/weights/weight.bin"), offset = tensor<uint64, []>(14552448)))];
            tensor<fp16, [1, 128, 128, 192]> linear_12_cast_fp16 = linear(bias = var_703_to_fp16, weight = var_702_to_fp16, x = input_39_cast_fp16)[name = tensor<string, []>("linear_12_cast_fp16")];
            tensor<fp16, [1, 128, 128, 192]> x_55_cast_fp16 = add(x = input_33_cast_fp16, y = linear_12_cast_fp16)[name = tensor<string, []>("x_55_cast_fp16")];
            tensor<int32, [4]> var_711 = const()[name = tensor<string, []>("op_711"), val = tensor<int32, [4]>([0, 3, 1, 2])];
            tensor<int32, [1]> input_41_axes_0 = const()[name = tensor<string, []>("input_41_axes_0"), val = tensor<int32, [1]>([-1])];
            tensor<fp16, [192]> var_715_to_fp16 = const()[name = tensor<string, []>("op_715_to_fp16"), val = tensor<fp16, [192]>(BLOBFILE(path = tensor<string, []>("@model_path/weights/weight.bin"), offset = tensor<uint64, []>(14552896)))];
            tensor<fp16, [192]> var_716_to_fp16 = const()[name = tensor<string, []>("op_716_to_fp16"), val = tensor<fp16, [192]>(BLOBFILE(path = tensor<string, []>("@model_path/weights/weight.bin"), offset = tensor<uint64, []>(14553344)))];
            tensor<fp16, []> var_717_to_fp16 = const()[name = tensor<string, []>("op_717_to_fp16"), val = tensor<fp16, []>(0x1.1p-20)];
            tensor<fp16, [1, 128, 128, 192]> input_41_cast_fp16 = layer_norm(axes = input_41_axes_0, beta = var_716_to_fp16, epsilon = var_717_to_fp16, gamma = var_715_to_fp16, x = x_55_cast_fp16)[name = tensor<string, []>("input_41_cast_fp16")];
            tensor<fp16, [384, 192]> var_720_to_fp16 = const()[name = tensor<string, []>("op_720_to_fp16"), val = tensor<fp16, [384, 192]>(BLOBFILE(path = tensor<string, []>("@model_path/weights/weight.bin"), offset = tensor<uint64, []>(14553792)))];
            tensor<fp16, [384]> var_721_to_fp16 = const()[name = tensor<string, []>("op_721_to_fp16"), val = tensor<fp16, [384]>(BLOBFILE(path = tensor<string, []>("@model_path/weights/weight.bin"), offset = tensor<uint64, []>(14701312)))];
            tensor<fp16, [1, 128, 128, 384]> linear_13_cast_fp16 = linear(bias = var_721_to_fp16, weight = var_720_to_fp16, x = input_41_cast_fp16)[name = tensor<string, []>("linear_13_cast_fp16")];
            tensor<int32, [4]> var_727 = const()[name = tensor<string, []>("op_727"), val = tensor<int32, [4]>([0, 3, 1, 2])];
            tensor<int32, [2]> var_731 = const()[name = tensor<string, []>("op_731"), val = tensor<int32, [2]>([2, 2])];
            tensor<int32, [2]> var_734 = const()[name = tensor<string, []>("op_734"), val = tensor<int32, [2]>([2, 2])];
            tensor<string, []> x_59_pad_type_0 = const()[name = tensor<string, []>("x_59_pad_type_0"), val = tensor<string, []>("custom")];
            tensor<int32, [4]> x_59_pad_0 = const()[name = tensor<string, []>("x_59_pad_0"), val = tensor<int32, [4]>([0, 0, 0, 0])];
            tensor<bool, []> x_59_ceil_mode_0 = const()[name = tensor<string, []>("x_59_ceil_mode_0"), val = tensor<bool, []>(false)];
            tensor<fp16, [1, 384, 128, 128]> input_43_cast_fp16 = transpose(perm = var_727, x = linear_13_cast_fp16)[name = tensor<string, []>("transpose_147")];
            tensor<fp16, [1, 384, 64, 64]> x_59_cast_fp16 = max_pool(ceil_mode = x_59_ceil_mode_0, kernel_sizes = var_731, pad = x_59_pad_0, pad_type = x_59_pad_type_0, strides = var_734, x = input_43_cast_fp16)[name = tensor<string, []>("x_59_cast_fp16")];
            tensor<int32, [4]> var_747 = const()[name = tensor<string, []>("op_747"), val = tensor<int32, [4]>([0, 2, 3, 1])];
            tensor<int32, [4]> reshape_12_shape_0 = const()[name = tensor<string, []>("reshape_12_shape_0"), val = tensor<int32, [4]>([32, 4, 32, 768])];
            tensor<fp16, [32, 4, 32, 768]> reshape_12_cast_fp16 = reshape(shape = reshape_12_shape_0, x = input_41_cast_fp16)[name = tensor<string, []>("reshape_12_cast_fp16")];
            tensor<int32, [4]> transpose_30_perm_0 = const()[name = tensor<string, []>("transpose_30_perm_0"), val = tensor<int32, [4]>([0, 2, 1, 3])];
            tensor<int32, [4]> reshape_13_shape_0 = const()[name = tensor<string, []>("reshape_13_shape_0"), val = tensor<int32, [4]>([-1, 4, 4, 192])];
            tensor<fp16, [32, 32, 4, 768]> transpose_30_cast_fp16 = transpose(perm = transpose_30_perm_0, x = reshape_12_cast_fp16)[name = tensor<string, []>("transpose_145")];
            tensor<fp16, [1024, 4, 4, 192]> reshape_13_cast_fp16 = reshape(shape = reshape_13_shape_0, x = transpose_30_cast_fp16)[name = tensor<string, []>("reshape_13_cast_fp16")];
            tensor<fp16, [1152, 192]> var_822_to_fp16 = const()[name = tensor<string, []>("op_822_to_fp16"), val = tensor<fp16, [1152, 192]>(BLOBFILE(path = tensor<string, []>("@model_path/weights/weight.bin"), offset = tensor<uint64, []>(14702144)))];
            tensor<fp16, [1152]> var_823_to_fp16 = const()[name = tensor<string, []>("op_823_to_fp16"), val = tensor<fp16, [1152]>(BLOBFILE(path = tensor<string, []>("@model_path/weights/weight.bin"), offset = tensor<uint64, []>(15144576)))];
            tensor<fp16, [1024, 4, 4, 1152]> linear_14_cast_fp16 = linear(bias = var_823_to_fp16, weight = var_822_to_fp16, x = reshape_13_cast_fp16)[name = tensor<string, []>("linear_14_cast_fp16")];
            tensor<int32, [5]> var_830 = const()[name = tensor<string, []>("op_830"), val = tensor<int32, [5]>([1024, 16, 3, 4, -1])];
            tensor<fp16, [1024, 16, 3, 4, 96]> qkv_7_cast_fp16 = reshape(shape = var_830, x = linear_14_cast_fp16)[name = tensor<string, []>("qkv_7_cast_fp16")];
            tensor<int32, [3]> var_833_split_sizes_0 = const()[name = tensor<string, []>("op_833_split_sizes_0"), val = tensor<int32, [3]>([1, 1, 1])];
            tensor<int32, []> var_833_axis_0 = const()[name = tensor<string, []>("op_833_axis_0"), val = tensor<int32, []>(2)];
            tensor<fp16, [1024, 16, 1, 4, 96]> var_833_cast_fp16_0, tensor<fp16, [1024, 16, 1, 4, 96]> var_833_cast_fp16_1, tensor<fp16, [1024, 16, 1, 4, 96]> var_833_cast_fp16_2 = split(axis = var_833_axis_0, split_sizes = var_833_split_sizes_0, x = qkv_7_cast_fp16)[name = tensor<string, []>("op_833_cast_fp16")];
            tensor<int32, [1]> squeeze_9_axes_0 = const()[name = tensor<string, []>("squeeze_9_axes_0"), val = tensor<int32, [1]>([2])];
            tensor<fp16, [1024, 16, 4, 96]> squeeze_9_cast_fp16 = squeeze(axes = squeeze_9_axes_0, x = var_833_cast_fp16_0)[name = tensor<string, []>("squeeze_9_cast_fp16")];
            tensor<int32, [1]> squeeze_10_axes_0 = const()[name = tensor<string, []>("squeeze_10_axes_0"), val = tensor<int32, [1]>([2])];
            tensor<fp16, [1024, 16, 4, 96]> squeeze_10_cast_fp16 = squeeze(axes = squeeze_10_axes_0, x = var_833_cast_fp16_1)[name = tensor<string, []>("squeeze_10_cast_fp16")];
            tensor<int32, [1]> squeeze_11_axes_0 = const()[name = tensor<string, []>("squeeze_11_axes_0"), val = tensor<int32, [1]>([2])];
            tensor<fp16, [1024, 16, 4, 96]> squeeze_11_cast_fp16 = squeeze(axes = squeeze_11_axes_0, x = var_833_cast_fp16_2)[name = tensor<string, []>("squeeze_11_cast_fp16")];
            tensor<int32, [4]> var_838 = const()[name = tensor<string, []>("op_838"), val = tensor<int32, [4]>([1024, 4, 4, -1])];
            tensor<fp16, [1024, 4, 4, 384]> x_65_cast_fp16 = reshape(shape = var_838, x = squeeze_9_cast_fp16)[name = tensor<string, []>("x_65_cast_fp16")];
            tensor<int32, [4]> var_844 = const()[name = tensor<string, []>("op_844"), val = tensor<int32, [4]>([0, 3, 1, 2])];
            tensor<int32, [2]> var_848 = const()[name = tensor<string, []>("op_848"), val = tensor<int32, [2]>([2, 2])];
            tensor<int32, [2]> var_851 = const()[name = tensor<string, []>("op_851"), val = tensor<int32, [2]>([2, 2])];
            tensor<string, []> x_67_pad_type_0 = const()[name = tensor<string, []>("x_67_pad_type_0"), val = tensor<string, []>("custom")];
            tensor<int32, [4]> x_67_pad_0 = const()[name = tensor<string, []>("x_67_pad_0"), val = tensor<int32, [4]>([0, 0, 0, 0])];
            tensor<bool, []> x_67_ceil_mode_0 = const()[name = tensor<string, []>("x_67_ceil_mode_0"), val = tensor<bool, []>(false)];
            tensor<fp16, [1024, 384, 4, 4]> input_45_cast_fp16 = transpose(perm = var_844, x = x_65_cast_fp16)[name = tensor<string, []>("transpose_144")];
            tensor<fp16, [1024, 384, 2, 2]> x_67_cast_fp16 = max_pool(ceil_mode = x_67_ceil_mode_0, kernel_sizes = var_848, pad = x_67_pad_0, pad_type = x_67_pad_type_0, strides = var_851, x = input_45_cast_fp16)[name = tensor<string, []>("x_67_cast_fp16")];
            tensor<int32, [4]> var_864 = const()[name = tensor<string, []>("op_864"), val = tensor<int32, [4]>([0, 2, 3, 1])];
            tensor<int32, [4]> var_878 = const()[name = tensor<string, []>("op_878"), val = tensor<int32, [4]>([1024, 4, 4, -1])];
            tensor<fp16, [1024, 2, 2, 384]> q_13_cast_fp16 = transpose(perm = var_864, x = x_67_cast_fp16)[name = tensor<string, []>("transpose_143")];
            tensor<fp16, [1024, 4, 4, 96]> q_15_cast_fp16 = reshape(shape = var_878, x = q_13_cast_fp16)[name = tensor<string, []>("q_15_cast_fp16")];
            tensor<int32, [4]> var_888_perm_0 = const()[name = tensor<string, []>("op_888_perm_0"), val = tensor<int32, [4]>([0, 2, 1, 3])];
            tensor<fp16, []> mul_3_y_0_to_fp16 = const()[name = tensor<string, []>("mul_3_y_0_to_fp16"), val = tensor<fp16, []>(0x1.a2p-4)];
            tensor<fp16, [1024, 4, 4, 96]> mul_3_cast_fp16 = mul(x = q_15_cast_fp16, y = mul_3_y_0_to_fp16)[name = tensor<string, []>("mul_3_cast_fp16")];
            tensor<bool, []> matmul_3_transpose_y_0 = const()[name = tensor<string, []>("matmul_3_transpose_y_0"), val = tensor<bool, []>(true)];
            tensor<bool, []> matmul_3_transpose_x_0 = const()[name = tensor<string, []>("matmul_3_transpose_x_0"), val = tensor<bool, []>(false)];
            tensor<int32, [4]> transpose_72_perm_0 = const()[name = tensor<string, []>("transpose_72_perm_0"), val = tensor<int32, [4]>([0, 2, -3, -1])];
            tensor<int32, [4]> transpose_73_perm_0 = const()[name = tensor<string, []>("transpose_73_perm_0"), val = tensor<int32, [4]>([0, 2, -3, -1])];
            tensor<fp16, [1024, 4, 16, 96]> transpose_73 = transpose(perm = transpose_73_perm_0, x = squeeze_10_cast_fp16)[name = tensor<string, []>("transpose_140")];
            tensor<fp16, [1024, 4, 4, 96]> transpose_72 = transpose(perm = transpose_72_perm_0, x = mul_3_cast_fp16)[name = tensor<string, []>("transpose_141")];
            tensor<fp16, [1024, 4, 4, 16]> matmul_3_cast_fp16 = matmul(transpose_x = matmul_3_transpose_x_0, transpose_y = matmul_3_transpose_y_0, x = transpose_72, y = transpose_73)[name = tensor<string, []>("matmul_3_cast_fp16")];
            tensor<int32, []> softmax_3_axis_0 = const()[name = tensor<string, []>("softmax_3_axis_0"), val = tensor<int32, []>(-1)];
            tensor<fp16, [1024, 4, 4, 16]> softmax_3_cast_fp16 = softmax(axis = softmax_3_axis_0, x = matmul_3_cast_fp16)[name = tensor<string, []>("softmax_3_cast_fp16")];
            tensor<bool, []> x_69_transpose_x_0 = const()[name = tensor<string, []>("x_69_transpose_x_0"), val = tensor<bool, []>(false)];
            tensor<bool, []> x_69_transpose_y_0 = const()[name = tensor<string, []>("x_69_transpose_y_0"), val = tensor<bool, []>(false)];
            tensor<fp16, [1024, 4, 16, 96]> var_888_cast_fp16 = transpose(perm = var_888_perm_0, x = squeeze_11_cast_fp16)[name = tensor<string, []>("transpose_142")];
            tensor<fp16, [1024, 4, 4, 96]> x_69_cast_fp16 = matmul(transpose_x = x_69_transpose_x_0, transpose_y = x_69_transpose_y_0, x = softmax_3_cast_fp16, y = var_888_cast_fp16)[name = tensor<string, []>("x_69_cast_fp16")];
            tensor<int32, [4]> x_71_perm_0 = const()[name = tensor<string, []>("x_71_perm_0"), val = tensor<int32, [4]>([0, 2, 1, 3])];
            tensor<int32, [4]> var_898 = const()[name = tensor<string, []>("op_898"), val = tensor<int32, [4]>([1024, 2, 2, -1])];
            tensor<fp16, [1024, 4, 4, 96]> x_71_cast_fp16 = transpose(perm = x_71_perm_0, x = x_69_cast_fp16)[name = tensor<string, []>("transpose_139")];
            tensor<fp16, [1024, 2, 2, 384]> input_47_cast_fp16 = reshape(shape = var_898, x = x_71_cast_fp16)[name = tensor<string, []>("input_47_cast_fp16")];
            tensor<fp16, [384, 384]> var_900_to_fp16 = const()[name = tensor<string, []>("op_900_to_fp16"), val = tensor<fp16, [384, 384]>(BLOBFILE(path = tensor<string, []>("@model_path/weights/weight.bin"), offset = tensor<uint64, []>(15146944)))];
            tensor<fp16, [384]> var_901_to_fp16 = const()[name = tensor<string, []>("op_901_to_fp16"), val = tensor<fp16, [384]>(BLOBFILE(path = tensor<string, []>("@model_path/weights/weight.bin"), offset = tensor<uint64, []>(15441920)))];
            tensor<fp16, [1024, 2, 2, 384]> linear_15_cast_fp16 = linear(bias = var_901_to_fp16, weight = var_900_to_fp16, x = input_47_cast_fp16)[name = tensor<string, []>("linear_15_cast_fp16")];
            tensor<int32, [4]> reshape_14_shape_0 = const()[name = tensor<string, []>("reshape_14_shape_0"), val = tensor<int32, [4]>([32, 32, 2, 768])];
            tensor<fp16, [32, 32, 2, 768]> reshape_14_cast_fp16 = reshape(shape = reshape_14_shape_0, x = linear_15_cast_fp16)[name = tensor<string, []>("reshape_14_cast_fp16")];
            tensor<int32, [4]> transpose_31_perm_0 = const()[name = tensor<string, []>("transpose_31_perm_0"), val = tensor<int32, [4]>([0, 2, 1, 3])];
            tensor<int32, [4]> reshape_15_shape_0 = const()[name = tensor<string, []>("reshape_15_shape_0"), val = tensor<int32, [4]>([1, 64, 64, -1])];
            tensor<fp16, [32, 2, 32, 768]> transpose_31_cast_fp16 = transpose(perm = transpose_31_perm_0, x = reshape_14_cast_fp16)[name = tensor<string, []>("transpose_138")];
            tensor<fp16, [1, 64, 64, 384]> reshape_15_cast_fp16 = reshape(shape = reshape_15_shape_0, x = transpose_31_cast_fp16)[name = tensor<string, []>("reshape_15_cast_fp16")];
            tensor<fp16, [1, 64, 64, 384]> shortcut_3_cast_fp16 = transpose(perm = var_747, x = x_59_cast_fp16)[name = tensor<string, []>("transpose_146")];
            tensor<fp16, [1, 64, 64, 384]> input_49_cast_fp16 = add(x = shortcut_3_cast_fp16, y = reshape_15_cast_fp16)[name = tensor<string, []>("input_49_cast_fp16")];
            tensor<int32, [1]> input_51_axes_0 = const()[name = tensor<string, []>("input_51_axes_0"), val = tensor<int32, [1]>([-1])];
            tensor<fp16, [384]> var_968_to_fp16 = const()[name = tensor<string, []>("op_968_to_fp16"), val = tensor<fp16, [384]>(BLOBFILE(path = tensor<string, []>("@model_path/weights/weight.bin"), offset = tensor<uint64, []>(15442752)))];
            tensor<fp16, [384]> var_969_to_fp16 = const()[name = tensor<string, []>("op_969_to_fp16"), val = tensor<fp16, [384]>(BLOBFILE(path = tensor<string, []>("@model_path/weights/weight.bin"), offset = tensor<uint64, []>(15443584)))];
            tensor<fp16, []> var_970_to_fp16 = const()[name = tensor<string, []>("op_970_to_fp16"), val = tensor<fp16, []>(0x1.1p-20)];
            tensor<fp16, [1, 64, 64, 384]> input_51_cast_fp16 = layer_norm(axes = input_51_axes_0, beta = var_969_to_fp16, epsilon = var_970_to_fp16, gamma = var_968_to_fp16, x = input_49_cast_fp16)[name = tensor<string, []>("input_51_cast_fp16")];
            tensor<fp16, [1536, 384]> var_973_to_fp16 = const()[name = tensor<string, []>("op_973_to_fp16"), val = tensor<fp16, [1536, 384]>(BLOBFILE(path = tensor<string, []>("@model_path/weights/weight.bin"), offset = tensor<uint64, []>(15444416)))];
            tensor<fp16, [1536]> var_974_to_fp16 = const()[name = tensor<string, []>("op_974_to_fp16"), val = tensor<fp16, [1536]>(BLOBFILE(path = tensor<string, []>("@model_path/weights/weight.bin"), offset = tensor<uint64, []>(16624128)))];
            tensor<fp16, [1, 64, 64, 1536]> linear_16_cast_fp16 = linear(bias = var_974_to_fp16, weight = var_973_to_fp16, x = input_51_cast_fp16)[name = tensor<string, []>("linear_16_cast_fp16")];
            tensor<string, []> input_55_mode_0 = const()[name = tensor<string, []>("input_55_mode_0"), val = tensor<string, []>("EXACT")];
            tensor<fp16, [1, 64, 64, 1536]> input_55_cast_fp16 = gelu(mode = input_55_mode_0, x = linear_16_cast_fp16)[name = tensor<string, []>("input_55_cast_fp16")];
            tensor<fp16, [384, 1536]> var_978_to_fp16 = const()[name = tensor<string, []>("op_978_to_fp16"), val = tensor<fp16, [384, 1536]>(BLOBFILE(path = tensor<string, []>("@model_path/weights/weight.bin"), offset = tensor<uint64, []>(16627264)))];
            tensor<fp16, [384]> var_979_to_fp16 = const()[name = tensor<string, []>("op_979_to_fp16"), val = tensor<fp16, [384]>(BLOBFILE(path = tensor<string, []>("@model_path/weights/weight.bin"), offset = tensor<uint64, []>(17806976)))];
            tensor<fp16, [1, 64, 64, 384]> linear_17_cast_fp16 = linear(bias = var_979_to_fp16, weight = var_978_to_fp16, x = input_55_cast_fp16)[name = tensor<string, []>("linear_17_cast_fp16")];
            tensor<fp16, [1, 64, 64, 384]> input_57_cast_fp16 = add(x = input_49_cast_fp16, y = linear_17_cast_fp16)[name = tensor<string, []>("input_57_cast_fp16")];
            tensor<int32, [1]> x_77_axes_0 = const()[name = tensor<string, []>("x_77_axes_0"), val = tensor<int32, [1]>([-1])];
            tensor<fp16, [384]> var_985_to_fp16 = const()[name = tensor<string, []>("op_985_to_fp16"), val = tensor<fp16, [384]>(BLOBFILE(path = tensor<string, []>("@model_path/weights/weight.bin"), offset = tensor<uint64, []>(17807808)))];
            tensor<fp16, [384]> var_986_to_fp16 = const()[name = tensor<string, []>("op_986_to_fp16"), val = tensor<fp16, [384]>(BLOBFILE(path = tensor<string, []>("@model_path/weights/weight.bin"), offset = tensor<uint64, []>(17808640)))];
            tensor<fp16, []> var_987_to_fp16 = const()[name = tensor<string, []>("op_987_to_fp16"), val = tensor<fp16, []>(0x1.1p-20)];
            tensor<fp16, [1, 64, 64, 384]> x_77_cast_fp16 = layer_norm(axes = x_77_axes_0, beta = var_986_to_fp16, epsilon = var_987_to_fp16, gamma = var_985_to_fp16, x = input_57_cast_fp16)[name = tensor<string, []>("x_77_cast_fp16")];
            tensor<int32, [8]> x_79_pad_0 = const()[name = tensor<string, []>("x_79_pad_0"), val = tensor<int32, [8]>([0, 0, 0, 6, 0, 6, 0, 0])];
            tensor<string, []> x_79_mode_0 = const()[name = tensor<string, []>("x_79_mode_0"), val = tensor<string, []>("constant")];
            tensor<fp16, []> const_56_to_fp16 = const()[name = tensor<string, []>("const_56_to_fp16"), val = tensor<fp16, []>(0x0p+0)];
            tensor<fp16, [1, 70, 70, 384]> x_79_cast_fp16 = pad(constant_val = const_56_to_fp16, mode = x_79_mode_0, pad = x_79_pad_0, x = x_77_cast_fp16)[name = tensor<string, []>("x_79_cast_fp16")];
            tensor<int32, [4]> reshape_16_shape_0 = const()[name = tensor<string, []>("reshape_16_shape_0"), val = tensor<int32, [4]>([5, 14, 5, 5376])];
            tensor<fp16, [5, 14, 5, 5376]> reshape_16_cast_fp16 = reshape(shape = reshape_16_shape_0, x = x_79_cast_fp16)[name = tensor<string, []>("reshape_16_cast_fp16")];
            tensor<int32, [4]> transpose_32_perm_0 = const()[name = tensor<string, []>("transpose_32_perm_0"), val = tensor<int32, [4]>([0, 2, 1, 3])];
            tensor<int32, [4]> reshape_17_shape_0 = const()[name = tensor<string, []>("reshape_17_shape_0"), val = tensor<int32, [4]>([-1, 14, 14, 384])];
            tensor<fp16, [5, 5, 14, 5376]> transpose_32_cast_fp16 = transpose(perm = transpose_32_perm_0, x = reshape_16_cast_fp16)[name = tensor<string, []>("transpose_137")];
            tensor<fp16, [25, 14, 14, 384]> reshape_17_cast_fp16 = reshape(shape = reshape_17_shape_0, x = transpose_32_cast_fp16)[name = tensor<string, []>("reshape_17_cast_fp16")];
            tensor<fp16, [1152, 384]> var_1081_to_fp16 = const()[name = tensor<string, []>("op_1081_to_fp16"), val = tensor<fp16, [1152, 384]>(BLOBFILE(path = tensor<string, []>("@model_path/weights/weight.bin"), offset = tensor<uint64, []>(17809472)))];
            tensor<fp16, [1152]> var_1082_to_fp16 = const()[name = tensor<string, []>("op_1082_to_fp16"), val = tensor<fp16, [1152]>(BLOBFILE(path = tensor<string, []>("@model_path/weights/weight.bin"), offset = tensor<uint64, []>(18694272)))];
            tensor<fp16, [25, 14, 14, 1152]> linear_18_cast_fp16 = linear(bias = var_1082_to_fp16, weight = var_1081_to_fp16, x = reshape_17_cast_fp16)[name = tensor<string, []>("linear_18_cast_fp16")];
            tensor<int32, [5]> var_1089 = const()[name = tensor<string, []>("op_1089"), val = tensor<int32, [5]>([25, 196, 3, 4, -1])];
            tensor<fp16, [25, 196, 3, 4, 96]> qkv_9_cast_fp16 = reshape(shape = var_1089, x = linear_18_cast_fp16)[name = tensor<string, []>("qkv_9_cast_fp16")];
            tensor<int32, [3]> var_1092_split_sizes_0 = const()[name = tensor<string, []>("op_1092_split_sizes_0"), val = tensor<int32, [3]>([1, 1, 1])];
            tensor<int32, []> var_1092_axis_0 = const()[name = tensor<string, []>("op_1092_axis_0"), val = tensor<int32, []>(2)];
            tensor<fp16, [25, 196, 1, 4, 96]> var_1092_cast_fp16_0, tensor<fp16, [25, 196, 1, 4, 96]> var_1092_cast_fp16_1, tensor<fp16, [25, 196, 1, 4, 96]> var_1092_cast_fp16_2 = split(axis = var_1092_axis_0, split_sizes = var_1092_split_sizes_0, x = qkv_9_cast_fp16)[name = tensor<string, []>("op_1092_cast_fp16")];
            tensor<int32, [1]> squeeze_12_axes_0 = const()[name = tensor<string, []>("squeeze_12_axes_0"), val = tensor<int32, [1]>([2])];
            tensor<fp16, [25, 196, 4, 96]> squeeze_12_cast_fp16 = squeeze(axes = squeeze_12_axes_0, x = var_1092_cast_fp16_0)[name = tensor<string, []>("squeeze_12_cast_fp16")];
            tensor<int32, [1]> squeeze_13_axes_0 = const()[name = tensor<string, []>("squeeze_13_axes_0"), val = tensor<int32, [1]>([2])];
            tensor<fp16, [25, 196, 4, 96]> squeeze_13_cast_fp16 = squeeze(axes = squeeze_13_axes_0, x = var_1092_cast_fp16_1)[name = tensor<string, []>("squeeze_13_cast_fp16")];
            tensor<int32, [1]> squeeze_14_axes_0 = const()[name = tensor<string, []>("squeeze_14_axes_0"), val = tensor<int32, [1]>([2])];
            tensor<fp16, [25, 196, 4, 96]> squeeze_14_cast_fp16 = squeeze(axes = squeeze_14_axes_0, x = var_1092_cast_fp16_2)[name = tensor<string, []>("squeeze_14_cast_fp16")];
            tensor<int32, [4]> var_1104_perm_0 = const()[name = tensor<string, []>("op_1104_perm_0"), val = tensor<int32, [4]>([0, 2, 1, 3])];
            tensor<fp16, []> mul_4_y_0_to_fp16 = const()[name = tensor<string, []>("mul_4_y_0_to_fp16"), val = tensor<fp16, []>(0x1.a2p-4)];
            tensor<fp16, [25, 196, 4, 96]> mul_4_cast_fp16 = mul(x = squeeze_12_cast_fp16, y = mul_4_y_0_to_fp16)[name = tensor<string, []>("mul_4_cast_fp16")];
            tensor<bool, []> matmul_4_transpose_y_0 = const()[name = tensor<string, []>("matmul_4_transpose_y_0"), val = tensor<bool, []>(true)];
            tensor<bool, []> matmul_4_transpose_x_0 = const()[name = tensor<string, []>("matmul_4_transpose_x_0"), val = tensor<bool, []>(false)];
            tensor<int32, [4]> transpose_74_perm_0 = const()[name = tensor<string, []>("transpose_74_perm_0"), val = tensor<int32, [4]>([0, 2, -3, -1])];
            tensor<int32, [4]> transpose_75_perm_0 = const()[name = tensor<string, []>("transpose_75_perm_0"), val = tensor<int32, [4]>([0, 2, -3, -1])];
            tensor<fp16, [25, 4, 196, 96]> transpose_75 = transpose(perm = transpose_75_perm_0, x = squeeze_13_cast_fp16)[name = tensor<string, []>("transpose_134")];
            tensor<fp16, [25, 4, 196, 96]> transpose_74 = transpose(perm = transpose_74_perm_0, x = mul_4_cast_fp16)[name = tensor<string, []>("transpose_135")];
            tensor<fp16, [25, 4, 196, 196]> matmul_4_cast_fp16 = matmul(transpose_x = matmul_4_transpose_x_0, transpose_y = matmul_4_transpose_y_0, x = transpose_74, y = transpose_75)[name = tensor<string, []>("matmul_4_cast_fp16")];
            tensor<int32, []> softmax_4_axis_0 = const()[name = tensor<string, []>("softmax_4_axis_0"), val = tensor<int32, []>(-1)];
            tensor<fp16, [25, 4, 196, 196]> softmax_4_cast_fp16 = softmax(axis = softmax_4_axis_0, x = matmul_4_cast_fp16)[name = tensor<string, []>("softmax_4_cast_fp16")];
            tensor<bool, []> x_85_transpose_x_0 = const()[name = tensor<string, []>("x_85_transpose_x_0"), val = tensor<bool, []>(false)];
            tensor<bool, []> x_85_transpose_y_0 = const()[name = tensor<string, []>("x_85_transpose_y_0"), val = tensor<bool, []>(false)];
            tensor<fp16, [25, 4, 196, 96]> var_1104_cast_fp16 = transpose(perm = var_1104_perm_0, x = squeeze_14_cast_fp16)[name = tensor<string, []>("transpose_136")];
            tensor<fp16, [25, 4, 196, 96]> x_85_cast_fp16 = matmul(transpose_x = x_85_transpose_x_0, transpose_y = x_85_transpose_y_0, x = softmax_4_cast_fp16, y = var_1104_cast_fp16)[name = tensor<string, []>("x_85_cast_fp16")];
            tensor<int32, [4]> x_87_perm_0 = const()[name = tensor<string, []>("x_87_perm_0"), val = tensor<int32, [4]>([0, 2, 1, 3])];
            tensor<int32, [4]> var_1114 = const()[name = tensor<string, []>("op_1114"), val = tensor<int32, [4]>([25, 14, 14, -1])];
            tensor<fp16, [25, 196, 4, 96]> x_87_cast_fp16 = transpose(perm = x_87_perm_0, x = x_85_cast_fp16)[name = tensor<string, []>("transpose_133")];
            tensor<fp16, [25, 14, 14, 384]> input_59_cast_fp16 = reshape(shape = var_1114, x = x_87_cast_fp16)[name = tensor<string, []>("input_59_cast_fp16")];
            tensor<fp16, [384, 384]> var_1116_to_fp16 = const()[name = tensor<string, []>("op_1116_to_fp16"), val = tensor<fp16, [384, 384]>(BLOBFILE(path = tensor<string, []>("@model_path/weights/weight.bin"), offset = tensor<uint64, []>(18696640)))];
            tensor<fp16, [384]> var_1117_to_fp16 = const()[name = tensor<string, []>("op_1117_to_fp16"), val = tensor<fp16, [384]>(BLOBFILE(path = tensor<string, []>("@model_path/weights/weight.bin"), offset = tensor<uint64, []>(18991616)))];
            tensor<fp16, [25, 14, 14, 384]> linear_19_cast_fp16 = linear(bias = var_1117_to_fp16, weight = var_1116_to_fp16, x = input_59_cast_fp16)[name = tensor<string, []>("linear_19_cast_fp16")];
            tensor<int32, [4]> reshape_18_shape_0 = const()[name = tensor<string, []>("reshape_18_shape_0"), val = tensor<int32, [4]>([5, 5, 14, 5376])];
            tensor<fp16, [5, 5, 14, 5376]> reshape_18_cast_fp16 = reshape(shape = reshape_18_shape_0, x = linear_19_cast_fp16)[name = tensor<string, []>("reshape_18_cast_fp16")];
            tensor<int32, [4]> transpose_33_perm_0 = const()[name = tensor<string, []>("transpose_33_perm_0"), val = tensor<int32, [4]>([0, 2, 1, 3])];
            tensor<int32, [4]> reshape_19_shape_0 = const()[name = tensor<string, []>("reshape_19_shape_0"), val = tensor<int32, [4]>([1, 70, 70, -1])];
            tensor<fp16, [5, 14, 5, 5376]> transpose_33_cast_fp16 = transpose(perm = transpose_33_perm_0, x = reshape_18_cast_fp16)[name = tensor<string, []>("transpose_132")];
            tensor<fp16, [1, 70, 70, 384]> reshape_19_cast_fp16 = reshape(shape = reshape_19_shape_0, x = transpose_33_cast_fp16)[name = tensor<string, []>("reshape_19_cast_fp16")];
            tensor<int32, [4]> var_1162_begin_0 = const()[name = tensor<string, []>("op_1162_begin_0"), val = tensor<int32, [4]>([0, 0, 0, 0])];
            tensor<int32, [4]> var_1162_end_0 = const()[name = tensor<string, []>("op_1162_end_0"), val = tensor<int32, [4]>([1, 64, 70, 384])];
            tensor<bool, [4]> var_1162_end_mask_0 = const()[name = tensor<string, []>("op_1162_end_mask_0"), val = tensor<bool, [4]>([true, false, true, true])];
            tensor<fp16, [1, 64, 70, 384]> var_1162_cast_fp16 = slice_by_index(begin = var_1162_begin_0, end = var_1162_end_0, end_mask = var_1162_end_mask_0, x = reshape_19_cast_fp16)[name = tensor<string, []>("op_1162_cast_fp16")];
            tensor<int32, [4]> var_1166_begin_0 = const()[name = tensor<string, []>("op_1166_begin_0"), val = tensor<int32, [4]>([0, 0, 0, 0])];
            tensor<int32, [4]> var_1166_end_0 = const()[name = tensor<string, []>("op_1166_end_0"), val = tensor<int32, [4]>([1, 64, 64, 384])];
            tensor<bool, [4]> var_1166_end_mask_0 = const()[name = tensor<string, []>("op_1166_end_mask_0"), val = tensor<bool, [4]>([true, true, false, true])];
            tensor<fp16, [1, 64, 64, 384]> var_1166_cast_fp16 = slice_by_index(begin = var_1166_begin_0, end = var_1166_end_0, end_mask = var_1166_end_mask_0, x = var_1162_cast_fp16)[name = tensor<string, []>("op_1166_cast_fp16")];
            tensor<fp16, [1, 64, 64, 384]> input_61_cast_fp16 = add(x = input_57_cast_fp16, y = var_1166_cast_fp16)[name = tensor<string, []>("input_61_cast_fp16")];
            tensor<int32, [1]> input_63_axes_0 = const()[name = tensor<string, []>("input_63_axes_0"), val = tensor<int32, [1]>([-1])];
            tensor<fp16, [384]> var_1178_to_fp16 = const()[name = tensor<string, []>("op_1178_to_fp16"), val = tensor<fp16, [384]>(BLOBFILE(path = tensor<string, []>("@model_path/weights/weight.bin"), offset = tensor<uint64, []>(18992448)))];
            tensor<fp16, [384]> var_1179_to_fp16 = const()[name = tensor<string, []>("op_1179_to_fp16"), val = tensor<fp16, [384]>(BLOBFILE(path = tensor<string, []>("@model_path/weights/weight.bin"), offset = tensor<uint64, []>(18993280)))];
            tensor<fp16, []> var_1180_to_fp16 = const()[name = tensor<string, []>("op_1180_to_fp16"), val = tensor<fp16, []>(0x1.1p-20)];
            tensor<fp16, [1, 64, 64, 384]> input_63_cast_fp16 = layer_norm(axes = input_63_axes_0, beta = var_1179_to_fp16, epsilon = var_1180_to_fp16, gamma = var_1178_to_fp16, x = input_61_cast_fp16)[name = tensor<string, []>("input_63_cast_fp16")];
            tensor<fp16, [1536, 384]> var_1183_to_fp16 = const()[name = tensor<string, []>("op_1183_to_fp16"), val = tensor<fp16, [1536, 384]>(BLOBFILE(path = tensor<string, []>("@model_path/weights/weight.bin"), offset = tensor<uint64, []>(18994112)))];
            tensor<fp16, [1536]> var_1184_to_fp16 = const()[name = tensor<string, []>("op_1184_to_fp16"), val = tensor<fp16, [1536]>(BLOBFILE(path = tensor<string, []>("@model_path/weights/weight.bin"), offset = tensor<uint64, []>(20173824)))];
            tensor<fp16, [1, 64, 64, 1536]> linear_20_cast_fp16 = linear(bias = var_1184_to_fp16, weight = var_1183_to_fp16, x = input_63_cast_fp16)[name = tensor<string, []>("linear_20_cast_fp16")];
            tensor<string, []> input_67_mode_0 = const()[name = tensor<string, []>("input_67_mode_0"), val = tensor<string, []>("EXACT")];
            tensor<fp16, [1, 64, 64, 1536]> input_67_cast_fp16 = gelu(mode = input_67_mode_0, x = linear_20_cast_fp16)[name = tensor<string, []>("input_67_cast_fp16")];
            tensor<fp16, [384, 1536]> var_1188_to_fp16 = const()[name = tensor<string, []>("op_1188_to_fp16"), val = tensor<fp16, [384, 1536]>(BLOBFILE(path = tensor<string, []>("@model_path/weights/weight.bin"), offset = tensor<uint64, []>(20176960)))];
            tensor<fp16, [384]> var_1189_to_fp16 = const()[name = tensor<string, []>("op_1189_to_fp16"), val = tensor<fp16, [384]>(BLOBFILE(path = tensor<string, []>("@model_path/weights/weight.bin"), offset = tensor<uint64, []>(21356672)))];
            tensor<fp16, [1, 64, 64, 384]> linear_21_cast_fp16 = linear(bias = var_1189_to_fp16, weight = var_1188_to_fp16, x = input_67_cast_fp16)[name = tensor<string, []>("linear_21_cast_fp16")];
            tensor<fp16, [1, 64, 64, 384]> input_69_cast_fp16 = add(x = input_61_cast_fp16, y = linear_21_cast_fp16)[name = tensor<string, []>("input_69_cast_fp16")];
            tensor<int32, [1]> x_95_axes_0 = const()[name = tensor<string, []>("x_95_axes_0"), val = tensor<int32, [1]>([-1])];
            tensor<fp16, [384]> var_1195_to_fp16 = const()[name = tensor<string, []>("op_1195_to_fp16"), val = tensor<fp16, [384]>(BLOBFILE(path = tensor<string, []>("@model_path/weights/weight.bin"), offset = tensor<uint64, []>(21357504)))];
            tensor<fp16, [384]> var_1196_to_fp16 = const()[name = tensor<string, []>("op_1196_to_fp16"), val = tensor<fp16, [384]>(BLOBFILE(path = tensor<string, []>("@model_path/weights/weight.bin"), offset = tensor<uint64, []>(21358336)))];
            tensor<fp16, []> var_1197_to_fp16 = const()[name = tensor<string, []>("op_1197_to_fp16"), val = tensor<fp16, []>(0x1.1p-20)];
            tensor<fp16, [1, 64, 64, 384]> x_95_cast_fp16 = layer_norm(axes = x_95_axes_0, beta = var_1196_to_fp16, epsilon = var_1197_to_fp16, gamma = var_1195_to_fp16, x = input_69_cast_fp16)[name = tensor<string, []>("x_95_cast_fp16")];
            tensor<fp16, [1152, 384]> var_1213_to_fp16 = const()[name = tensor<string, []>("op_1213_to_fp16"), val = tensor<fp16, [1152, 384]>(BLOBFILE(path = tensor<string, []>("@model_path/weights/weight.bin"), offset = tensor<uint64, []>(21359168)))];
            tensor<fp16, [1152]> var_1214_to_fp16 = const()[name = tensor<string, []>("op_1214_to_fp16"), val = tensor<fp16, [1152]>(BLOBFILE(path = tensor<string, []>("@model_path/weights/weight.bin"), offset = tensor<uint64, []>(22243968)))];
            tensor<fp16, [1, 64, 64, 1152]> linear_22_cast_fp16 = linear(bias = var_1214_to_fp16, weight = var_1213_to_fp16, x = x_95_cast_fp16)[name = tensor<string, []>("linear_22_cast_fp16")];
            tensor<int32, [5]> var_1221 = const()[name = tensor<string, []>("op_1221"), val = tensor<int32, [5]>([1, 4096, 3, 4, -1])];
            tensor<fp16, [1, 4096, 3, 4, 96]> qkv_11_cast_fp16 = reshape(shape = var_1221, x = linear_22_cast_fp16)[name = tensor<string, []>("qkv_11_cast_fp16")];
            tensor<int32, [3]> var_1224_split_sizes_0 = const()[name = tensor<string, []>("op_1224_split_sizes_0"), val = tensor<int32, [3]>([1, 1, 1])];
            tensor<int32, []> var_1224_axis_0 = const()[name = tensor<string, []>("op_1224_axis_0"), val = tensor<int32, []>(2)];
            tensor<fp16, [1, 4096, 1, 4, 96]> var_1224_cast_fp16_0, tensor<fp16, [1, 4096, 1, 4, 96]> var_1224_cast_fp16_1, tensor<fp16, [1, 4096, 1, 4, 96]> var_1224_cast_fp16_2 = split(axis = var_1224_axis_0, split_sizes = var_1224_split_sizes_0, x = qkv_11_cast_fp16)[name = tensor<string, []>("op_1224_cast_fp16")];
            tensor<int32, [1]> squeeze_15_axes_0 = const()[name = tensor<string, []>("squeeze_15_axes_0"), val = tensor<int32, [1]>([2])];
            tensor<fp16, [1, 4096, 4, 96]> squeeze_15_cast_fp16 = squeeze(axes = squeeze_15_axes_0, x = var_1224_cast_fp16_0)[name = tensor<string, []>("squeeze_15_cast_fp16")];
            tensor<int32, [1]> squeeze_16_axes_0 = const()[name = tensor<string, []>("squeeze_16_axes_0"), val = tensor<int32, [1]>([2])];
            tensor<fp16, [1, 4096, 4, 96]> squeeze_16_cast_fp16 = squeeze(axes = squeeze_16_axes_0, x = var_1224_cast_fp16_1)[name = tensor<string, []>("squeeze_16_cast_fp16")];
            tensor<int32, [1]> squeeze_17_axes_0 = const()[name = tensor<string, []>("squeeze_17_axes_0"), val = tensor<int32, [1]>([2])];
            tensor<fp16, [1, 4096, 4, 96]> squeeze_17_cast_fp16 = squeeze(axes = squeeze_17_axes_0, x = var_1224_cast_fp16_2)[name = tensor<string, []>("squeeze_17_cast_fp16")];
            tensor<int32, [4]> var_1236_perm_0 = const()[name = tensor<string, []>("op_1236_perm_0"), val = tensor<int32, [4]>([0, 2, 1, 3])];
            tensor<fp16, []> mul_5_y_0_to_fp16 = const()[name = tensor<string, []>("mul_5_y_0_to_fp16"), val = tensor<fp16, []>(0x1.a2p-4)];
            tensor<fp16, [1, 4096, 4, 96]> mul_5_cast_fp16 = mul(x = squeeze_15_cast_fp16, y = mul_5_y_0_to_fp16)[name = tensor<string, []>("mul_5_cast_fp16")];
            tensor<bool, []> matmul_5_transpose_y_0 = const()[name = tensor<string, []>("matmul_5_transpose_y_0"), val = tensor<bool, []>(true)];
            tensor<bool, []> matmul_5_transpose_x_0 = const()[name = tensor<string, []>("matmul_5_transpose_x_0"), val = tensor<bool, []>(false)];
            tensor<int32, [4]> transpose_76_perm_0 = const()[name = tensor<string, []>("transpose_76_perm_0"), val = tensor<int32, [4]>([0, 2, -3, -1])];
            tensor<int32, [4]> transpose_77_perm_0 = const()[name = tensor<string, []>("transpose_77_perm_0"), val = tensor<int32, [4]>([0, 2, -3, -1])];
            tensor<fp16, [1, 4, 4096, 96]> transpose_77 = transpose(perm = transpose_77_perm_0, x = squeeze_16_cast_fp16)[name = tensor<string, []>("transpose_129")];
            tensor<fp16, [1, 4, 4096, 96]> transpose_76 = transpose(perm = transpose_76_perm_0, x = mul_5_cast_fp16)[name = tensor<string, []>("transpose_130")];
            tensor<fp16, [1, 4, 4096, 4096]> matmul_5_cast_fp16 = matmul(transpose_x = matmul_5_transpose_x_0, transpose_y = matmul_5_transpose_y_0, x = transpose_76, y = transpose_77)[name = tensor<string, []>("matmul_5_cast_fp16")];
            tensor<int32, []> softmax_5_axis_0 = const()[name = tensor<string, []>("softmax_5_axis_0"), val = tensor<int32, []>(-1)];
            tensor<fp16, [1, 4, 4096, 4096]> softmax_5_cast_fp16 = softmax(axis = softmax_5_axis_0, x = matmul_5_cast_fp16)[name = tensor<string, []>("softmax_5_cast_fp16")];
            tensor<bool, []> x_97_transpose_x_0 = const()[name = tensor<string, []>("x_97_transpose_x_0"), val = tensor<bool, []>(false)];
            tensor<bool, []> x_97_transpose_y_0 = const()[name = tensor<string, []>("x_97_transpose_y_0"), val = tensor<bool, []>(false)];
            tensor<fp16, [1, 4, 4096, 96]> var_1236_cast_fp16 = transpose(perm = var_1236_perm_0, x = squeeze_17_cast_fp16)[name = tensor<string, []>("transpose_131")];
            tensor<fp16, [1, 4, 4096, 96]> x_97_cast_fp16 = matmul(transpose_x = x_97_transpose_x_0, transpose_y = x_97_transpose_y_0, x = softmax_5_cast_fp16, y = var_1236_cast_fp16)[name = tensor<string, []>("x_97_cast_fp16")];
            tensor<int32, [4]> x_99_perm_0 = const()[name = tensor<string, []>("x_99_perm_0"), val = tensor<int32, [4]>([0, 2, 1, 3])];
            tensor<int32, [4]> var_1246 = const()[name = tensor<string, []>("op_1246"), val = tensor<int32, [4]>([1, 64, 64, -1])];
            tensor<fp16, [1, 4096, 4, 96]> x_99_cast_fp16 = transpose(perm = x_99_perm_0, x = x_97_cast_fp16)[name = tensor<string, []>("transpose_128")];
            tensor<fp16, [1, 64, 64, 384]> input_71_cast_fp16 = reshape(shape = var_1246, x = x_99_cast_fp16)[name = tensor<string, []>("input_71_cast_fp16")];
            tensor<fp16, [384, 384]> var_1248_to_fp16 = const()[name = tensor<string, []>("op_1248_to_fp16"), val = tensor<fp16, [384, 384]>(BLOBFILE(path = tensor<string, []>("@model_path/weights/weight.bin"), offset = tensor<uint64, []>(22246336)))];
            tensor<fp16, [384]> var_1249_to_fp16 = const()[name = tensor<string, []>("op_1249_to_fp16"), val = tensor<fp16, [384]>(BLOBFILE(path = tensor<string, []>("@model_path/weights/weight.bin"), offset = tensor<uint64, []>(22541312)))];
            tensor<fp16, [1, 64, 64, 384]> linear_23_cast_fp16 = linear(bias = var_1249_to_fp16, weight = var_1248_to_fp16, x = input_71_cast_fp16)[name = tensor<string, []>("linear_23_cast_fp16")];
            tensor<fp16, [1, 64, 64, 384]> input_73_cast_fp16 = add(x = input_69_cast_fp16, y = linear_23_cast_fp16)[name = tensor<string, []>("input_73_cast_fp16")];
            tensor<int32, [1]> input_75_axes_0 = const()[name = tensor<string, []>("input_75_axes_0"), val = tensor<int32, [1]>([-1])];
            tensor<fp16, [384]> var_1255_to_fp16 = const()[name = tensor<string, []>("op_1255_to_fp16"), val = tensor<fp16, [384]>(BLOBFILE(path = tensor<string, []>("@model_path/weights/weight.bin"), offset = tensor<uint64, []>(22542144)))];
            tensor<fp16, [384]> var_1256_to_fp16 = const()[name = tensor<string, []>("op_1256_to_fp16"), val = tensor<fp16, [384]>(BLOBFILE(path = tensor<string, []>("@model_path/weights/weight.bin"), offset = tensor<uint64, []>(22542976)))];
            tensor<fp16, []> var_1257_to_fp16 = const()[name = tensor<string, []>("op_1257_to_fp16"), val = tensor<fp16, []>(0x1.1p-20)];
            tensor<fp16, [1, 64, 64, 384]> input_75_cast_fp16 = layer_norm(axes = input_75_axes_0, beta = var_1256_to_fp16, epsilon = var_1257_to_fp16, gamma = var_1255_to_fp16, x = input_73_cast_fp16)[name = tensor<string, []>("input_75_cast_fp16")];
            tensor<fp16, [1536, 384]> var_1260_to_fp16 = const()[name = tensor<string, []>("op_1260_to_fp16"), val = tensor<fp16, [1536, 384]>(BLOBFILE(path = tensor<string, []>("@model_path/weights/weight.bin"), offset = tensor<uint64, []>(22543808)))];
            tensor<fp16, [1536]> var_1261_to_fp16 = const()[name = tensor<string, []>("op_1261_to_fp16"), val = tensor<fp16, [1536]>(BLOBFILE(path = tensor<string, []>("@model_path/weights/weight.bin"), offset = tensor<uint64, []>(23723520)))];
            tensor<fp16, [1, 64, 64, 1536]> linear_24_cast_fp16 = linear(bias = var_1261_to_fp16, weight = var_1260_to_fp16, x = input_75_cast_fp16)[name = tensor<string, []>("linear_24_cast_fp16")];
            tensor<string, []> input_79_mode_0 = const()[name = tensor<string, []>("input_79_mode_0"), val = tensor<string, []>("EXACT")];
            tensor<fp16, [1, 64, 64, 1536]> input_79_cast_fp16 = gelu(mode = input_79_mode_0, x = linear_24_cast_fp16)[name = tensor<string, []>("input_79_cast_fp16")];
            tensor<fp16, [384, 1536]> var_1265_to_fp16 = const()[name = tensor<string, []>("op_1265_to_fp16"), val = tensor<fp16, [384, 1536]>(BLOBFILE(path = tensor<string, []>("@model_path/weights/weight.bin"), offset = tensor<uint64, []>(23726656)))];
            tensor<fp16, [384]> var_1266_to_fp16 = const()[name = tensor<string, []>("op_1266_to_fp16"), val = tensor<fp16, [384]>(BLOBFILE(path = tensor<string, []>("@model_path/weights/weight.bin"), offset = tensor<uint64, []>(24906368)))];
            tensor<fp16, [1, 64, 64, 384]> linear_25_cast_fp16 = linear(bias = var_1266_to_fp16, weight = var_1265_to_fp16, x = input_79_cast_fp16)[name = tensor<string, []>("linear_25_cast_fp16")];
            tensor<fp16, [1, 64, 64, 384]> input_81_cast_fp16 = add(x = input_73_cast_fp16, y = linear_25_cast_fp16)[name = tensor<string, []>("input_81_cast_fp16")];
            tensor<int32, [1]> x_103_axes_0 = const()[name = tensor<string, []>("x_103_axes_0"), val = tensor<int32, [1]>([-1])];
            tensor<fp16, [384]> var_1272_to_fp16 = const()[name = tensor<string, []>("op_1272_to_fp16"), val = tensor<fp16, [384]>(BLOBFILE(path = tensor<string, []>("@model_path/weights/weight.bin"), offset = tensor<uint64, []>(24907200)))];
            tensor<fp16, [384]> var_1273_to_fp16 = const()[name = tensor<string, []>("op_1273_to_fp16"), val = tensor<fp16, [384]>(BLOBFILE(path = tensor<string, []>("@model_path/weights/weight.bin"), offset = tensor<uint64, []>(24908032)))];
            tensor<fp16, []> var_1274_to_fp16 = const()[name = tensor<string, []>("op_1274_to_fp16"), val = tensor<fp16, []>(0x1.1p-20)];
            tensor<fp16, [1, 64, 64, 384]> x_103_cast_fp16 = layer_norm(axes = x_103_axes_0, beta = var_1273_to_fp16, epsilon = var_1274_to_fp16, gamma = var_1272_to_fp16, x = input_81_cast_fp16)[name = tensor<string, []>("x_103_cast_fp16")];
            tensor<int32, [8]> x_105_pad_0 = const()[name = tensor<string, []>("x_105_pad_0"), val = tensor<int32, [8]>([0, 0, 0, 6, 0, 6, 0, 0])];
            tensor<string, []> x_105_mode_0 = const()[name = tensor<string, []>("x_105_mode_0"), val = tensor<string, []>("constant")];
            tensor<fp16, []> const_70_to_fp16 = const()[name = tensor<string, []>("const_70_to_fp16"), val = tensor<fp16, []>(0x0p+0)];
            tensor<fp16, [1, 70, 70, 384]> x_105_cast_fp16 = pad(constant_val = const_70_to_fp16, mode = x_105_mode_0, pad = x_105_pad_0, x = x_103_cast_fp16)[name = tensor<string, []>("x_105_cast_fp16")];
            tensor<int32, [4]> reshape_20_shape_0 = const()[name = tensor<string, []>("reshape_20_shape_0"), val = tensor<int32, [4]>([5, 14, 5, 5376])];
            tensor<fp16, [5, 14, 5, 5376]> reshape_20_cast_fp16 = reshape(shape = reshape_20_shape_0, x = x_105_cast_fp16)[name = tensor<string, []>("reshape_20_cast_fp16")];
            tensor<int32, [4]> transpose_34_perm_0 = const()[name = tensor<string, []>("transpose_34_perm_0"), val = tensor<int32, [4]>([0, 2, 1, 3])];
            tensor<int32, [4]> reshape_21_shape_0 = const()[name = tensor<string, []>("reshape_21_shape_0"), val = tensor<int32, [4]>([-1, 14, 14, 384])];
            tensor<fp16, [5, 5, 14, 5376]> transpose_34_cast_fp16 = transpose(perm = transpose_34_perm_0, x = reshape_20_cast_fp16)[name = tensor<string, []>("transpose_127")];
            tensor<fp16, [25, 14, 14, 384]> reshape_21_cast_fp16 = reshape(shape = reshape_21_shape_0, x = transpose_34_cast_fp16)[name = tensor<string, []>("reshape_21_cast_fp16")];
            tensor<fp16, [1152, 384]> var_1368_to_fp16 = const()[name = tensor<string, []>("op_1368_to_fp16"), val = tensor<fp16, [1152, 384]>(BLOBFILE(path = tensor<string, []>("@model_path/weights/weight.bin"), offset = tensor<uint64, []>(24908864)))];
            tensor<fp16, [1152]> var_1369_to_fp16 = const()[name = tensor<string, []>("op_1369_to_fp16"), val = tensor<fp16, [1152]>(BLOBFILE(path = tensor<string, []>("@model_path/weights/weight.bin"), offset = tensor<uint64, []>(25793664)))];
            tensor<fp16, [25, 14, 14, 1152]> linear_26_cast_fp16 = linear(bias = var_1369_to_fp16, weight = var_1368_to_fp16, x = reshape_21_cast_fp16)[name = tensor<string, []>("linear_26_cast_fp16")];
            tensor<int32, [5]> var_1376 = const()[name = tensor<string, []>("op_1376"), val = tensor<int32, [5]>([25, 196, 3, 4, -1])];
            tensor<fp16, [25, 196, 3, 4, 96]> qkv_13_cast_fp16 = reshape(shape = var_1376, x = linear_26_cast_fp16)[name = tensor<string, []>("qkv_13_cast_fp16")];
            tensor<int32, [3]> var_1379_split_sizes_0 = const()[name = tensor<string, []>("op_1379_split_sizes_0"), val = tensor<int32, [3]>([1, 1, 1])];
            tensor<int32, []> var_1379_axis_0 = const()[name = tensor<string, []>("op_1379_axis_0"), val = tensor<int32, []>(2)];
            tensor<fp16, [25, 196, 1, 4, 96]> var_1379_cast_fp16_0, tensor<fp16, [25, 196, 1, 4, 96]> var_1379_cast_fp16_1, tensor<fp16, [25, 196, 1, 4, 96]> var_1379_cast_fp16_2 = split(axis = var_1379_axis_0, split_sizes = var_1379_split_sizes_0, x = qkv_13_cast_fp16)[name = tensor<string, []>("op_1379_cast_fp16")];
            tensor<int32, [1]> squeeze_18_axes_0 = const()[name = tensor<string, []>("squeeze_18_axes_0"), val = tensor<int32, [1]>([2])];
            tensor<fp16, [25, 196, 4, 96]> squeeze_18_cast_fp16 = squeeze(axes = squeeze_18_axes_0, x = var_1379_cast_fp16_0)[name = tensor<string, []>("squeeze_18_cast_fp16")];
            tensor<int32, [1]> squeeze_19_axes_0 = const()[name = tensor<string, []>("squeeze_19_axes_0"), val = tensor<int32, [1]>([2])];
            tensor<fp16, [25, 196, 4, 96]> squeeze_19_cast_fp16 = squeeze(axes = squeeze_19_axes_0, x = var_1379_cast_fp16_1)[name = tensor<string, []>("squeeze_19_cast_fp16")];
            tensor<int32, [1]> squeeze_20_axes_0 = const()[name = tensor<string, []>("squeeze_20_axes_0"), val = tensor<int32, [1]>([2])];
            tensor<fp16, [25, 196, 4, 96]> squeeze_20_cast_fp16 = squeeze(axes = squeeze_20_axes_0, x = var_1379_cast_fp16_2)[name = tensor<string, []>("squeeze_20_cast_fp16")];
            tensor<int32, [4]> var_1391_perm_0 = const()[name = tensor<string, []>("op_1391_perm_0"), val = tensor<int32, [4]>([0, 2, 1, 3])];
            tensor<fp16, []> mul_6_y_0_to_fp16 = const()[name = tensor<string, []>("mul_6_y_0_to_fp16"), val = tensor<fp16, []>(0x1.a2p-4)];
            tensor<fp16, [25, 196, 4, 96]> mul_6_cast_fp16 = mul(x = squeeze_18_cast_fp16, y = mul_6_y_0_to_fp16)[name = tensor<string, []>("mul_6_cast_fp16")];
            tensor<bool, []> matmul_6_transpose_y_0 = const()[name = tensor<string, []>("matmul_6_transpose_y_0"), val = tensor<bool, []>(true)];
            tensor<bool, []> matmul_6_transpose_x_0 = const()[name = tensor<string, []>("matmul_6_transpose_x_0"), val = tensor<bool, []>(false)];
            tensor<int32, [4]> transpose_78_perm_0 = const()[name = tensor<string, []>("transpose_78_perm_0"), val = tensor<int32, [4]>([0, 2, -3, -1])];
            tensor<int32, [4]> transpose_79_perm_0 = const()[name = tensor<string, []>("transpose_79_perm_0"), val = tensor<int32, [4]>([0, 2, -3, -1])];
            tensor<fp16, [25, 4, 196, 96]> transpose_79 = transpose(perm = transpose_79_perm_0, x = squeeze_19_cast_fp16)[name = tensor<string, []>("transpose_124")];
            tensor<fp16, [25, 4, 196, 96]> transpose_78 = transpose(perm = transpose_78_perm_0, x = mul_6_cast_fp16)[name = tensor<string, []>("transpose_125")];
            tensor<fp16, [25, 4, 196, 196]> matmul_6_cast_fp16 = matmul(transpose_x = matmul_6_transpose_x_0, transpose_y = matmul_6_transpose_y_0, x = transpose_78, y = transpose_79)[name = tensor<string, []>("matmul_6_cast_fp16")];
            tensor<int32, []> softmax_6_axis_0 = const()[name = tensor<string, []>("softmax_6_axis_0"), val = tensor<int32, []>(-1)];
            tensor<fp16, [25, 4, 196, 196]> softmax_6_cast_fp16 = softmax(axis = softmax_6_axis_0, x = matmul_6_cast_fp16)[name = tensor<string, []>("softmax_6_cast_fp16")];
            tensor<bool, []> x_111_transpose_x_0 = const()[name = tensor<string, []>("x_111_transpose_x_0"), val = tensor<bool, []>(false)];
            tensor<bool, []> x_111_transpose_y_0 = const()[name = tensor<string, []>("x_111_transpose_y_0"), val = tensor<bool, []>(false)];
            tensor<fp16, [25, 4, 196, 96]> var_1391_cast_fp16 = transpose(perm = var_1391_perm_0, x = squeeze_20_cast_fp16)[name = tensor<string, []>("transpose_126")];
            tensor<fp16, [25, 4, 196, 96]> x_111_cast_fp16 = matmul(transpose_x = x_111_transpose_x_0, transpose_y = x_111_transpose_y_0, x = softmax_6_cast_fp16, y = var_1391_cast_fp16)[name = tensor<string, []>("x_111_cast_fp16")];
            tensor<int32, [4]> x_113_perm_0 = const()[name = tensor<string, []>("x_113_perm_0"), val = tensor<int32, [4]>([0, 2, 1, 3])];
            tensor<int32, [4]> var_1401 = const()[name = tensor<string, []>("op_1401"), val = tensor<int32, [4]>([25, 14, 14, -1])];
            tensor<fp16, [25, 196, 4, 96]> x_113_cast_fp16 = transpose(perm = x_113_perm_0, x = x_111_cast_fp16)[name = tensor<string, []>("transpose_123")];
            tensor<fp16, [25, 14, 14, 384]> input_83_cast_fp16 = reshape(shape = var_1401, x = x_113_cast_fp16)[name = tensor<string, []>("input_83_cast_fp16")];
            tensor<fp16, [384, 384]> var_1403_to_fp16 = const()[name = tensor<string, []>("op_1403_to_fp16"), val = tensor<fp16, [384, 384]>(BLOBFILE(path = tensor<string, []>("@model_path/weights/weight.bin"), offset = tensor<uint64, []>(25796032)))];
            tensor<fp16, [384]> var_1404_to_fp16 = const()[name = tensor<string, []>("op_1404_to_fp16"), val = tensor<fp16, [384]>(BLOBFILE(path = tensor<string, []>("@model_path/weights/weight.bin"), offset = tensor<uint64, []>(26091008)))];
            tensor<fp16, [25, 14, 14, 384]> linear_27_cast_fp16 = linear(bias = var_1404_to_fp16, weight = var_1403_to_fp16, x = input_83_cast_fp16)[name = tensor<string, []>("linear_27_cast_fp16")];
            tensor<int32, [4]> reshape_22_shape_0 = const()[name = tensor<string, []>("reshape_22_shape_0"), val = tensor<int32, [4]>([5, 5, 14, 5376])];
            tensor<fp16, [5, 5, 14, 5376]> reshape_22_cast_fp16 = reshape(shape = reshape_22_shape_0, x = linear_27_cast_fp16)[name = tensor<string, []>("reshape_22_cast_fp16")];
            tensor<int32, [4]> transpose_35_perm_0 = const()[name = tensor<string, []>("transpose_35_perm_0"), val = tensor<int32, [4]>([0, 2, 1, 3])];
            tensor<int32, [4]> reshape_23_shape_0 = const()[name = tensor<string, []>("reshape_23_shape_0"), val = tensor<int32, [4]>([1, 70, 70, -1])];
            tensor<fp16, [5, 14, 5, 5376]> transpose_35_cast_fp16 = transpose(perm = transpose_35_perm_0, x = reshape_22_cast_fp16)[name = tensor<string, []>("transpose_122")];
            tensor<fp16, [1, 70, 70, 384]> reshape_23_cast_fp16 = reshape(shape = reshape_23_shape_0, x = transpose_35_cast_fp16)[name = tensor<string, []>("reshape_23_cast_fp16")];
            tensor<int32, [4]> var_1449_begin_0 = const()[name = tensor<string, []>("op_1449_begin_0"), val = tensor<int32, [4]>([0, 0, 0, 0])];
            tensor<int32, [4]> var_1449_end_0 = const()[name = tensor<string, []>("op_1449_end_0"), val = tensor<int32, [4]>([1, 64, 70, 384])];
            tensor<bool, [4]> var_1449_end_mask_0 = const()[name = tensor<string, []>("op_1449_end_mask_0"), val = tensor<bool, [4]>([true, false, true, true])];
            tensor<fp16, [1, 64, 70, 384]> var_1449_cast_fp16 = slice_by_index(begin = var_1449_begin_0, end = var_1449_end_0, end_mask = var_1449_end_mask_0, x = reshape_23_cast_fp16)[name = tensor<string, []>("op_1449_cast_fp16")];
            tensor<int32, [4]> var_1453_begin_0 = const()[name = tensor<string, []>("op_1453_begin_0"), val = tensor<int32, [4]>([0, 0, 0, 0])];
            tensor<int32, [4]> var_1453_end_0 = const()[name = tensor<string, []>("op_1453_end_0"), val = tensor<int32, [4]>([1, 64, 64, 384])];
            tensor<bool, [4]> var_1453_end_mask_0 = const()[name = tensor<string, []>("op_1453_end_mask_0"), val = tensor<bool, [4]>([true, true, false, true])];
            tensor<fp16, [1, 64, 64, 384]> var_1453_cast_fp16 = slice_by_index(begin = var_1453_begin_0, end = var_1453_end_0, end_mask = var_1453_end_mask_0, x = var_1449_cast_fp16)[name = tensor<string, []>("op_1453_cast_fp16")];
            tensor<fp16, [1, 64, 64, 384]> input_85_cast_fp16 = add(x = input_81_cast_fp16, y = var_1453_cast_fp16)[name = tensor<string, []>("input_85_cast_fp16")];
            tensor<int32, [1]> input_87_axes_0 = const()[name = tensor<string, []>("input_87_axes_0"), val = tensor<int32, [1]>([-1])];
            tensor<fp16, [384]> var_1465_to_fp16 = const()[name = tensor<string, []>("op_1465_to_fp16"), val = tensor<fp16, [384]>(BLOBFILE(path = tensor<string, []>("@model_path/weights/weight.bin"), offset = tensor<uint64, []>(26091840)))];
            tensor<fp16, [384]> var_1466_to_fp16 = const()[name = tensor<string, []>("op_1466_to_fp16"), val = tensor<fp16, [384]>(BLOBFILE(path = tensor<string, []>("@model_path/weights/weight.bin"), offset = tensor<uint64, []>(26092672)))];
            tensor<fp16, []> var_1467_to_fp16 = const()[name = tensor<string, []>("op_1467_to_fp16"), val = tensor<fp16, []>(0x1.1p-20)];
            tensor<fp16, [1, 64, 64, 384]> input_87_cast_fp16 = layer_norm(axes = input_87_axes_0, beta = var_1466_to_fp16, epsilon = var_1467_to_fp16, gamma = var_1465_to_fp16, x = input_85_cast_fp16)[name = tensor<string, []>("input_87_cast_fp16")];
            tensor<fp16, [1536, 384]> var_1470_to_fp16 = const()[name = tensor<string, []>("op_1470_to_fp16"), val = tensor<fp16, [1536, 384]>(BLOBFILE(path = tensor<string, []>("@model_path/weights/weight.bin"), offset = tensor<uint64, []>(26093504)))];
            tensor<fp16, [1536]> var_1471_to_fp16 = const()[name = tensor<string, []>("op_1471_to_fp16"), val = tensor<fp16, [1536]>(BLOBFILE(path = tensor<string, []>("@model_path/weights/weight.bin"), offset = tensor<uint64, []>(27273216)))];
            tensor<fp16, [1, 64, 64, 1536]> linear_28_cast_fp16 = linear(bias = var_1471_to_fp16, weight = var_1470_to_fp16, x = input_87_cast_fp16)[name = tensor<string, []>("linear_28_cast_fp16")];
            tensor<string, []> input_91_mode_0 = const()[name = tensor<string, []>("input_91_mode_0"), val = tensor<string, []>("EXACT")];
            tensor<fp16, [1, 64, 64, 1536]> input_91_cast_fp16 = gelu(mode = input_91_mode_0, x = linear_28_cast_fp16)[name = tensor<string, []>("input_91_cast_fp16")];
            tensor<fp16, [384, 1536]> var_1475_to_fp16 = const()[name = tensor<string, []>("op_1475_to_fp16"), val = tensor<fp16, [384, 1536]>(BLOBFILE(path = tensor<string, []>("@model_path/weights/weight.bin"), offset = tensor<uint64, []>(27276352)))];
            tensor<fp16, [384]> var_1476_to_fp16 = const()[name = tensor<string, []>("op_1476_to_fp16"), val = tensor<fp16, [384]>(BLOBFILE(path = tensor<string, []>("@model_path/weights/weight.bin"), offset = tensor<uint64, []>(28456064)))];
            tensor<fp16, [1, 64, 64, 384]> linear_29_cast_fp16 = linear(bias = var_1476_to_fp16, weight = var_1475_to_fp16, x = input_91_cast_fp16)[name = tensor<string, []>("linear_29_cast_fp16")];
            tensor<fp16, [1, 64, 64, 384]> input_93_cast_fp16 = add(x = input_85_cast_fp16, y = linear_29_cast_fp16)[name = tensor<string, []>("input_93_cast_fp16")];
            tensor<int32, [1]> x_121_axes_0 = const()[name = tensor<string, []>("x_121_axes_0"), val = tensor<int32, [1]>([-1])];
            tensor<fp16, [384]> var_1482_to_fp16 = const()[name = tensor<string, []>("op_1482_to_fp16"), val = tensor<fp16, [384]>(BLOBFILE(path = tensor<string, []>("@model_path/weights/weight.bin"), offset = tensor<uint64, []>(28456896)))];
            tensor<fp16, [384]> var_1483_to_fp16 = const()[name = tensor<string, []>("op_1483_to_fp16"), val = tensor<fp16, [384]>(BLOBFILE(path = tensor<string, []>("@model_path/weights/weight.bin"), offset = tensor<uint64, []>(28457728)))];
            tensor<fp16, []> var_1484_to_fp16 = const()[name = tensor<string, []>("op_1484_to_fp16"), val = tensor<fp16, []>(0x1.1p-20)];
            tensor<fp16, [1, 64, 64, 384]> x_121_cast_fp16 = layer_norm(axes = x_121_axes_0, beta = var_1483_to_fp16, epsilon = var_1484_to_fp16, gamma = var_1482_to_fp16, x = input_93_cast_fp16)[name = tensor<string, []>("x_121_cast_fp16")];
            tensor<fp16, [1152, 384]> var_1500_to_fp16 = const()[name = tensor<string, []>("op_1500_to_fp16"), val = tensor<fp16, [1152, 384]>(BLOBFILE(path = tensor<string, []>("@model_path/weights/weight.bin"), offset = tensor<uint64, []>(28458560)))];
            tensor<fp16, [1152]> var_1501_to_fp16 = const()[name = tensor<string, []>("op_1501_to_fp16"), val = tensor<fp16, [1152]>(BLOBFILE(path = tensor<string, []>("@model_path/weights/weight.bin"), offset = tensor<uint64, []>(29343360)))];
            tensor<fp16, [1, 64, 64, 1152]> linear_30_cast_fp16 = linear(bias = var_1501_to_fp16, weight = var_1500_to_fp16, x = x_121_cast_fp16)[name = tensor<string, []>("linear_30_cast_fp16")];
            tensor<int32, [5]> var_1508 = const()[name = tensor<string, []>("op_1508"), val = tensor<int32, [5]>([1, 4096, 3, 4, -1])];
            tensor<fp16, [1, 4096, 3, 4, 96]> qkv_15_cast_fp16 = reshape(shape = var_1508, x = linear_30_cast_fp16)[name = tensor<string, []>("qkv_15_cast_fp16")];
            tensor<int32, [3]> var_1511_split_sizes_0 = const()[name = tensor<string, []>("op_1511_split_sizes_0"), val = tensor<int32, [3]>([1, 1, 1])];
            tensor<int32, []> var_1511_axis_0 = const()[name = tensor<string, []>("op_1511_axis_0"), val = tensor<int32, []>(2)];
            tensor<fp16, [1, 4096, 1, 4, 96]> var_1511_cast_fp16_0, tensor<fp16, [1, 4096, 1, 4, 96]> var_1511_cast_fp16_1, tensor<fp16, [1, 4096, 1, 4, 96]> var_1511_cast_fp16_2 = split(axis = var_1511_axis_0, split_sizes = var_1511_split_sizes_0, x = qkv_15_cast_fp16)[name = tensor<string, []>("op_1511_cast_fp16")];
            tensor<int32, [1]> squeeze_21_axes_0 = const()[name = tensor<string, []>("squeeze_21_axes_0"), val = tensor<int32, [1]>([2])];
            tensor<fp16, [1, 4096, 4, 96]> squeeze_21_cast_fp16 = squeeze(axes = squeeze_21_axes_0, x = var_1511_cast_fp16_0)[name = tensor<string, []>("squeeze_21_cast_fp16")];
            tensor<int32, [1]> squeeze_22_axes_0 = const()[name = tensor<string, []>("squeeze_22_axes_0"), val = tensor<int32, [1]>([2])];
            tensor<fp16, [1, 4096, 4, 96]> squeeze_22_cast_fp16 = squeeze(axes = squeeze_22_axes_0, x = var_1511_cast_fp16_1)[name = tensor<string, []>("squeeze_22_cast_fp16")];
            tensor<int32, [1]> squeeze_23_axes_0 = const()[name = tensor<string, []>("squeeze_23_axes_0"), val = tensor<int32, [1]>([2])];
            tensor<fp16, [1, 4096, 4, 96]> squeeze_23_cast_fp16 = squeeze(axes = squeeze_23_axes_0, x = var_1511_cast_fp16_2)[name = tensor<string, []>("squeeze_23_cast_fp16")];
            tensor<int32, [4]> var_1523_perm_0 = const()[name = tensor<string, []>("op_1523_perm_0"), val = tensor<int32, [4]>([0, 2, 1, 3])];
            tensor<fp16, []> mul_7_y_0_to_fp16 = const()[name = tensor<string, []>("mul_7_y_0_to_fp16"), val = tensor<fp16, []>(0x1.a2p-4)];
            tensor<fp16, [1, 4096, 4, 96]> mul_7_cast_fp16 = mul(x = squeeze_21_cast_fp16, y = mul_7_y_0_to_fp16)[name = tensor<string, []>("mul_7_cast_fp16")];
            tensor<bool, []> matmul_7_transpose_y_0 = const()[name = tensor<string, []>("matmul_7_transpose_y_0"), val = tensor<bool, []>(true)];
            tensor<bool, []> matmul_7_transpose_x_0 = const()[name = tensor<string, []>("matmul_7_transpose_x_0"), val = tensor<bool, []>(false)];
            tensor<int32, [4]> transpose_80_perm_0 = const()[name = tensor<string, []>("transpose_80_perm_0"), val = tensor<int32, [4]>([0, 2, -3, -1])];
            tensor<int32, [4]> transpose_81_perm_0 = const()[name = tensor<string, []>("transpose_81_perm_0"), val = tensor<int32, [4]>([0, 2, -3, -1])];
            tensor<fp16, [1, 4, 4096, 96]> transpose_81 = transpose(perm = transpose_81_perm_0, x = squeeze_22_cast_fp16)[name = tensor<string, []>("transpose_119")];
            tensor<fp16, [1, 4, 4096, 96]> transpose_80 = transpose(perm = transpose_80_perm_0, x = mul_7_cast_fp16)[name = tensor<string, []>("transpose_120")];
            tensor<fp16, [1, 4, 4096, 4096]> matmul_7_cast_fp16 = matmul(transpose_x = matmul_7_transpose_x_0, transpose_y = matmul_7_transpose_y_0, x = transpose_80, y = transpose_81)[name = tensor<string, []>("matmul_7_cast_fp16")];
            tensor<int32, []> softmax_7_axis_0 = const()[name = tensor<string, []>("softmax_7_axis_0"), val = tensor<int32, []>(-1)];
            tensor<fp16, [1, 4, 4096, 4096]> softmax_7_cast_fp16 = softmax(axis = softmax_7_axis_0, x = matmul_7_cast_fp16)[name = tensor<string, []>("softmax_7_cast_fp16")];
            tensor<bool, []> x_123_transpose_x_0 = const()[name = tensor<string, []>("x_123_transpose_x_0"), val = tensor<bool, []>(false)];
            tensor<bool, []> x_123_transpose_y_0 = const()[name = tensor<string, []>("x_123_transpose_y_0"), val = tensor<bool, []>(false)];
            tensor<fp16, [1, 4, 4096, 96]> var_1523_cast_fp16 = transpose(perm = var_1523_perm_0, x = squeeze_23_cast_fp16)[name = tensor<string, []>("transpose_121")];
            tensor<fp16, [1, 4, 4096, 96]> x_123_cast_fp16 = matmul(transpose_x = x_123_transpose_x_0, transpose_y = x_123_transpose_y_0, x = softmax_7_cast_fp16, y = var_1523_cast_fp16)[name = tensor<string, []>("x_123_cast_fp16")];
            tensor<int32, [4]> x_125_perm_0 = const()[name = tensor<string, []>("x_125_perm_0"), val = tensor<int32, [4]>([0, 2, 1, 3])];
            tensor<int32, [4]> var_1533 = const()[name = tensor<string, []>("op_1533"), val = tensor<int32, [4]>([1, 64, 64, -1])];
            tensor<fp16, [1, 4096, 4, 96]> x_125_cast_fp16 = transpose(perm = x_125_perm_0, x = x_123_cast_fp16)[name = tensor<string, []>("transpose_118")];
            tensor<fp16, [1, 64, 64, 384]> input_95_cast_fp16 = reshape(shape = var_1533, x = x_125_cast_fp16)[name = tensor<string, []>("input_95_cast_fp16")];
            tensor<fp16, [384, 384]> var_1535_to_fp16 = const()[name = tensor<string, []>("op_1535_to_fp16"), val = tensor<fp16, [384, 384]>(BLOBFILE(path = tensor<string, []>("@model_path/weights/weight.bin"), offset = tensor<uint64, []>(29345728)))];
            tensor<fp16, [384]> var_1536_to_fp16 = const()[name = tensor<string, []>("op_1536_to_fp16"), val = tensor<fp16, [384]>(BLOBFILE(path = tensor<string, []>("@model_path/weights/weight.bin"), offset = tensor<uint64, []>(29640704)))];
            tensor<fp16, [1, 64, 64, 384]> linear_31_cast_fp16 = linear(bias = var_1536_to_fp16, weight = var_1535_to_fp16, x = input_95_cast_fp16)[name = tensor<string, []>("linear_31_cast_fp16")];
            tensor<fp16, [1, 64, 64, 384]> input_97_cast_fp16 = add(x = input_93_cast_fp16, y = linear_31_cast_fp16)[name = tensor<string, []>("input_97_cast_fp16")];
            tensor<int32, [1]> input_99_axes_0 = const()[name = tensor<string, []>("input_99_axes_0"), val = tensor<int32, [1]>([-1])];
            tensor<fp16, [384]> var_1542_to_fp16 = const()[name = tensor<string, []>("op_1542_to_fp16"), val = tensor<fp16, [384]>(BLOBFILE(path = tensor<string, []>("@model_path/weights/weight.bin"), offset = tensor<uint64, []>(29641536)))];
            tensor<fp16, [384]> var_1543_to_fp16 = const()[name = tensor<string, []>("op_1543_to_fp16"), val = tensor<fp16, [384]>(BLOBFILE(path = tensor<string, []>("@model_path/weights/weight.bin"), offset = tensor<uint64, []>(29642368)))];
            tensor<fp16, []> var_1544_to_fp16 = const()[name = tensor<string, []>("op_1544_to_fp16"), val = tensor<fp16, []>(0x1.1p-20)];
            tensor<fp16, [1, 64, 64, 384]> input_99_cast_fp16 = layer_norm(axes = input_99_axes_0, beta = var_1543_to_fp16, epsilon = var_1544_to_fp16, gamma = var_1542_to_fp16, x = input_97_cast_fp16)[name = tensor<string, []>("input_99_cast_fp16")];
            tensor<fp16, [1536, 384]> var_1547_to_fp16 = const()[name = tensor<string, []>("op_1547_to_fp16"), val = tensor<fp16, [1536, 384]>(BLOBFILE(path = tensor<string, []>("@model_path/weights/weight.bin"), offset = tensor<uint64, []>(29643200)))];
            tensor<fp16, [1536]> var_1548_to_fp16 = const()[name = tensor<string, []>("op_1548_to_fp16"), val = tensor<fp16, [1536]>(BLOBFILE(path = tensor<string, []>("@model_path/weights/weight.bin"), offset = tensor<uint64, []>(30822912)))];
            tensor<fp16, [1, 64, 64, 1536]> linear_32_cast_fp16 = linear(bias = var_1548_to_fp16, weight = var_1547_to_fp16, x = input_99_cast_fp16)[name = tensor<string, []>("linear_32_cast_fp16")];
            tensor<string, []> input_103_mode_0 = const()[name = tensor<string, []>("input_103_mode_0"), val = tensor<string, []>("EXACT")];
            tensor<fp16, [1, 64, 64, 1536]> input_103_cast_fp16 = gelu(mode = input_103_mode_0, x = linear_32_cast_fp16)[name = tensor<string, []>("input_103_cast_fp16")];
            tensor<fp16, [384, 1536]> var_1552_to_fp16 = const()[name = tensor<string, []>("op_1552_to_fp16"), val = tensor<fp16, [384, 1536]>(BLOBFILE(path = tensor<string, []>("@model_path/weights/weight.bin"), offset = tensor<uint64, []>(30826048)))];
            tensor<fp16, [384]> var_1553_to_fp16 = const()[name = tensor<string, []>("op_1553_to_fp16"), val = tensor<fp16, [384]>(BLOBFILE(path = tensor<string, []>("@model_path/weights/weight.bin"), offset = tensor<uint64, []>(32005760)))];
            tensor<fp16, [1, 64, 64, 384]> linear_33_cast_fp16 = linear(bias = var_1553_to_fp16, weight = var_1552_to_fp16, x = input_103_cast_fp16)[name = tensor<string, []>("linear_33_cast_fp16")];
            tensor<fp16, [1, 64, 64, 384]> input_105_cast_fp16 = add(x = input_97_cast_fp16, y = linear_33_cast_fp16)[name = tensor<string, []>("input_105_cast_fp16")];
            tensor<int32, [1]> x_129_axes_0 = const()[name = tensor<string, []>("x_129_axes_0"), val = tensor<int32, [1]>([-1])];
            tensor<fp16, [384]> var_1559_to_fp16 = const()[name = tensor<string, []>("op_1559_to_fp16"), val = tensor<fp16, [384]>(BLOBFILE(path = tensor<string, []>("@model_path/weights/weight.bin"), offset = tensor<uint64, []>(32006592)))];
            tensor<fp16, [384]> var_1560_to_fp16 = const()[name = tensor<string, []>("op_1560_to_fp16"), val = tensor<fp16, [384]>(BLOBFILE(path = tensor<string, []>("@model_path/weights/weight.bin"), offset = tensor<uint64, []>(32007424)))];
            tensor<fp16, []> var_1561_to_fp16 = const()[name = tensor<string, []>("op_1561_to_fp16"), val = tensor<fp16, []>(0x1.1p-20)];
            tensor<fp16, [1, 64, 64, 384]> x_129_cast_fp16 = layer_norm(axes = x_129_axes_0, beta = var_1560_to_fp16, epsilon = var_1561_to_fp16, gamma = var_1559_to_fp16, x = input_105_cast_fp16)[name = tensor<string, []>("x_129_cast_fp16")];
            tensor<int32, [8]> x_131_pad_0 = const()[name = tensor<string, []>("x_131_pad_0"), val = tensor<int32, [8]>([0, 0, 0, 6, 0, 6, 0, 0])];
            tensor<string, []> x_131_mode_0 = const()[name = tensor<string, []>("x_131_mode_0"), val = tensor<string, []>("constant")];
            tensor<fp16, []> const_84_to_fp16 = const()[name = tensor<string, []>("const_84_to_fp16"), val = tensor<fp16, []>(0x0p+0)];
            tensor<fp16, [1, 70, 70, 384]> x_131_cast_fp16 = pad(constant_val = const_84_to_fp16, mode = x_131_mode_0, pad = x_131_pad_0, x = x_129_cast_fp16)[name = tensor<string, []>("x_131_cast_fp16")];
            tensor<int32, [4]> reshape_24_shape_0 = const()[name = tensor<string, []>("reshape_24_shape_0"), val = tensor<int32, [4]>([5, 14, 5, 5376])];
            tensor<fp16, [5, 14, 5, 5376]> reshape_24_cast_fp16 = reshape(shape = reshape_24_shape_0, x = x_131_cast_fp16)[name = tensor<string, []>("reshape_24_cast_fp16")];
            tensor<int32, [4]> transpose_36_perm_0 = const()[name = tensor<string, []>("transpose_36_perm_0"), val = tensor<int32, [4]>([0, 2, 1, 3])];
            tensor<int32, [4]> reshape_25_shape_0 = const()[name = tensor<string, []>("reshape_25_shape_0"), val = tensor<int32, [4]>([-1, 14, 14, 384])];
            tensor<fp16, [5, 5, 14, 5376]> transpose_36_cast_fp16 = transpose(perm = transpose_36_perm_0, x = reshape_24_cast_fp16)[name = tensor<string, []>("transpose_117")];
            tensor<fp16, [25, 14, 14, 384]> reshape_25_cast_fp16 = reshape(shape = reshape_25_shape_0, x = transpose_36_cast_fp16)[name = tensor<string, []>("reshape_25_cast_fp16")];
            tensor<fp16, [1152, 384]> var_1655_to_fp16 = const()[name = tensor<string, []>("op_1655_to_fp16"), val = tensor<fp16, [1152, 384]>(BLOBFILE(path = tensor<string, []>("@model_path/weights/weight.bin"), offset = tensor<uint64, []>(32008256)))];
            tensor<fp16, [1152]> var_1656_to_fp16 = const()[name = tensor<string, []>("op_1656_to_fp16"), val = tensor<fp16, [1152]>(BLOBFILE(path = tensor<string, []>("@model_path/weights/weight.bin"), offset = tensor<uint64, []>(32893056)))];
            tensor<fp16, [25, 14, 14, 1152]> linear_34_cast_fp16 = linear(bias = var_1656_to_fp16, weight = var_1655_to_fp16, x = reshape_25_cast_fp16)[name = tensor<string, []>("linear_34_cast_fp16")];
            tensor<int32, [5]> var_1663 = const()[name = tensor<string, []>("op_1663"), val = tensor<int32, [5]>([25, 196, 3, 4, -1])];
            tensor<fp16, [25, 196, 3, 4, 96]> qkv_17_cast_fp16 = reshape(shape = var_1663, x = linear_34_cast_fp16)[name = tensor<string, []>("qkv_17_cast_fp16")];
            tensor<int32, [3]> var_1666_split_sizes_0 = const()[name = tensor<string, []>("op_1666_split_sizes_0"), val = tensor<int32, [3]>([1, 1, 1])];
            tensor<int32, []> var_1666_axis_0 = const()[name = tensor<string, []>("op_1666_axis_0"), val = tensor<int32, []>(2)];
            tensor<fp16, [25, 196, 1, 4, 96]> var_1666_cast_fp16_0, tensor<fp16, [25, 196, 1, 4, 96]> var_1666_cast_fp16_1, tensor<fp16, [25, 196, 1, 4, 96]> var_1666_cast_fp16_2 = split(axis = var_1666_axis_0, split_sizes = var_1666_split_sizes_0, x = qkv_17_cast_fp16)[name = tensor<string, []>("op_1666_cast_fp16")];
            tensor<int32, [1]> squeeze_24_axes_0 = const()[name = tensor<string, []>("squeeze_24_axes_0"), val = tensor<int32, [1]>([2])];
            tensor<fp16, [25, 196, 4, 96]> squeeze_24_cast_fp16 = squeeze(axes = squeeze_24_axes_0, x = var_1666_cast_fp16_0)[name = tensor<string, []>("squeeze_24_cast_fp16")];
            tensor<int32, [1]> squeeze_25_axes_0 = const()[name = tensor<string, []>("squeeze_25_axes_0"), val = tensor<int32, [1]>([2])];
            tensor<fp16, [25, 196, 4, 96]> squeeze_25_cast_fp16 = squeeze(axes = squeeze_25_axes_0, x = var_1666_cast_fp16_1)[name = tensor<string, []>("squeeze_25_cast_fp16")];
            tensor<int32, [1]> squeeze_26_axes_0 = const()[name = tensor<string, []>("squeeze_26_axes_0"), val = tensor<int32, [1]>([2])];
            tensor<fp16, [25, 196, 4, 96]> squeeze_26_cast_fp16 = squeeze(axes = squeeze_26_axes_0, x = var_1666_cast_fp16_2)[name = tensor<string, []>("squeeze_26_cast_fp16")];
            tensor<int32, [4]> var_1678_perm_0 = const()[name = tensor<string, []>("op_1678_perm_0"), val = tensor<int32, [4]>([0, 2, 1, 3])];
            tensor<fp16, []> mul_8_y_0_to_fp16 = const()[name = tensor<string, []>("mul_8_y_0_to_fp16"), val = tensor<fp16, []>(0x1.a2p-4)];
            tensor<fp16, [25, 196, 4, 96]> mul_8_cast_fp16 = mul(x = squeeze_24_cast_fp16, y = mul_8_y_0_to_fp16)[name = tensor<string, []>("mul_8_cast_fp16")];
            tensor<bool, []> matmul_8_transpose_y_0 = const()[name = tensor<string, []>("matmul_8_transpose_y_0"), val = tensor<bool, []>(true)];
            tensor<bool, []> matmul_8_transpose_x_0 = const()[name = tensor<string, []>("matmul_8_transpose_x_0"), val = tensor<bool, []>(false)];
            tensor<int32, [4]> transpose_82_perm_0 = const()[name = tensor<string, []>("transpose_82_perm_0"), val = tensor<int32, [4]>([0, 2, -3, -1])];
            tensor<int32, [4]> transpose_83_perm_0 = const()[name = tensor<string, []>("transpose_83_perm_0"), val = tensor<int32, [4]>([0, 2, -3, -1])];
            tensor<fp16, [25, 4, 196, 96]> transpose_83 = transpose(perm = transpose_83_perm_0, x = squeeze_25_cast_fp16)[name = tensor<string, []>("transpose_114")];
            tensor<fp16, [25, 4, 196, 96]> transpose_82 = transpose(perm = transpose_82_perm_0, x = mul_8_cast_fp16)[name = tensor<string, []>("transpose_115")];
            tensor<fp16, [25, 4, 196, 196]> matmul_8_cast_fp16 = matmul(transpose_x = matmul_8_transpose_x_0, transpose_y = matmul_8_transpose_y_0, x = transpose_82, y = transpose_83)[name = tensor<string, []>("matmul_8_cast_fp16")];
            tensor<int32, []> softmax_8_axis_0 = const()[name = tensor<string, []>("softmax_8_axis_0"), val = tensor<int32, []>(-1)];
            tensor<fp16, [25, 4, 196, 196]> softmax_8_cast_fp16 = softmax(axis = softmax_8_axis_0, x = matmul_8_cast_fp16)[name = tensor<string, []>("softmax_8_cast_fp16")];
            tensor<bool, []> x_137_transpose_x_0 = const()[name = tensor<string, []>("x_137_transpose_x_0"), val = tensor<bool, []>(false)];
            tensor<bool, []> x_137_transpose_y_0 = const()[name = tensor<string, []>("x_137_transpose_y_0"), val = tensor<bool, []>(false)];
            tensor<fp16, [25, 4, 196, 96]> var_1678_cast_fp16 = transpose(perm = var_1678_perm_0, x = squeeze_26_cast_fp16)[name = tensor<string, []>("transpose_116")];
            tensor<fp16, [25, 4, 196, 96]> x_137_cast_fp16 = matmul(transpose_x = x_137_transpose_x_0, transpose_y = x_137_transpose_y_0, x = softmax_8_cast_fp16, y = var_1678_cast_fp16)[name = tensor<string, []>("x_137_cast_fp16")];
            tensor<int32, [4]> x_139_perm_0 = const()[name = tensor<string, []>("x_139_perm_0"), val = tensor<int32, [4]>([0, 2, 1, 3])];
            tensor<int32, [4]> var_1688 = const()[name = tensor<string, []>("op_1688"), val = tensor<int32, [4]>([25, 14, 14, -1])];
            tensor<fp16, [25, 196, 4, 96]> x_139_cast_fp16 = transpose(perm = x_139_perm_0, x = x_137_cast_fp16)[name = tensor<string, []>("transpose_113")];
            tensor<fp16, [25, 14, 14, 384]> input_107_cast_fp16 = reshape(shape = var_1688, x = x_139_cast_fp16)[name = tensor<string, []>("input_107_cast_fp16")];
            tensor<fp16, [384, 384]> var_1690_to_fp16 = const()[name = tensor<string, []>("op_1690_to_fp16"), val = tensor<fp16, [384, 384]>(BLOBFILE(path = tensor<string, []>("@model_path/weights/weight.bin"), offset = tensor<uint64, []>(32895424)))];
            tensor<fp16, [384]> var_1691_to_fp16 = const()[name = tensor<string, []>("op_1691_to_fp16"), val = tensor<fp16, [384]>(BLOBFILE(path = tensor<string, []>("@model_path/weights/weight.bin"), offset = tensor<uint64, []>(33190400)))];
            tensor<fp16, [25, 14, 14, 384]> linear_35_cast_fp16 = linear(bias = var_1691_to_fp16, weight = var_1690_to_fp16, x = input_107_cast_fp16)[name = tensor<string, []>("linear_35_cast_fp16")];
            tensor<int32, [4]> reshape_26_shape_0 = const()[name = tensor<string, []>("reshape_26_shape_0"), val = tensor<int32, [4]>([5, 5, 14, 5376])];
            tensor<fp16, [5, 5, 14, 5376]> reshape_26_cast_fp16 = reshape(shape = reshape_26_shape_0, x = linear_35_cast_fp16)[name = tensor<string, []>("reshape_26_cast_fp16")];
            tensor<int32, [4]> transpose_37_perm_0 = const()[name = tensor<string, []>("transpose_37_perm_0"), val = tensor<int32, [4]>([0, 2, 1, 3])];
            tensor<int32, [4]> reshape_27_shape_0 = const()[name = tensor<string, []>("reshape_27_shape_0"), val = tensor<int32, [4]>([1, 70, 70, -1])];
            tensor<fp16, [5, 14, 5, 5376]> transpose_37_cast_fp16 = transpose(perm = transpose_37_perm_0, x = reshape_26_cast_fp16)[name = tensor<string, []>("transpose_112")];
            tensor<fp16, [1, 70, 70, 384]> reshape_27_cast_fp16 = reshape(shape = reshape_27_shape_0, x = transpose_37_cast_fp16)[name = tensor<string, []>("reshape_27_cast_fp16")];
            tensor<int32, [4]> var_1736_begin_0 = const()[name = tensor<string, []>("op_1736_begin_0"), val = tensor<int32, [4]>([0, 0, 0, 0])];
            tensor<int32, [4]> var_1736_end_0 = const()[name = tensor<string, []>("op_1736_end_0"), val = tensor<int32, [4]>([1, 64, 70, 384])];
            tensor<bool, [4]> var_1736_end_mask_0 = const()[name = tensor<string, []>("op_1736_end_mask_0"), val = tensor<bool, [4]>([true, false, true, true])];
            tensor<fp16, [1, 64, 70, 384]> var_1736_cast_fp16 = slice_by_index(begin = var_1736_begin_0, end = var_1736_end_0, end_mask = var_1736_end_mask_0, x = reshape_27_cast_fp16)[name = tensor<string, []>("op_1736_cast_fp16")];
            tensor<int32, [4]> var_1740_begin_0 = const()[name = tensor<string, []>("op_1740_begin_0"), val = tensor<int32, [4]>([0, 0, 0, 0])];
            tensor<int32, [4]> var_1740_end_0 = const()[name = tensor<string, []>("op_1740_end_0"), val = tensor<int32, [4]>([1, 64, 64, 384])];
            tensor<bool, [4]> var_1740_end_mask_0 = const()[name = tensor<string, []>("op_1740_end_mask_0"), val = tensor<bool, [4]>([true, true, false, true])];
            tensor<fp16, [1, 64, 64, 384]> var_1740_cast_fp16 = slice_by_index(begin = var_1740_begin_0, end = var_1740_end_0, end_mask = var_1740_end_mask_0, x = var_1736_cast_fp16)[name = tensor<string, []>("op_1740_cast_fp16")];
            tensor<fp16, [1, 64, 64, 384]> input_109_cast_fp16 = add(x = input_105_cast_fp16, y = var_1740_cast_fp16)[name = tensor<string, []>("input_109_cast_fp16")];
            tensor<int32, [1]> input_111_axes_0 = const()[name = tensor<string, []>("input_111_axes_0"), val = tensor<int32, [1]>([-1])];
            tensor<fp16, [384]> var_1752_to_fp16 = const()[name = tensor<string, []>("op_1752_to_fp16"), val = tensor<fp16, [384]>(BLOBFILE(path = tensor<string, []>("@model_path/weights/weight.bin"), offset = tensor<uint64, []>(33191232)))];
            tensor<fp16, [384]> var_1753_to_fp16 = const()[name = tensor<string, []>("op_1753_to_fp16"), val = tensor<fp16, [384]>(BLOBFILE(path = tensor<string, []>("@model_path/weights/weight.bin"), offset = tensor<uint64, []>(33192064)))];
            tensor<fp16, []> var_1754_to_fp16 = const()[name = tensor<string, []>("op_1754_to_fp16"), val = tensor<fp16, []>(0x1.1p-20)];
            tensor<fp16, [1, 64, 64, 384]> input_111_cast_fp16 = layer_norm(axes = input_111_axes_0, beta = var_1753_to_fp16, epsilon = var_1754_to_fp16, gamma = var_1752_to_fp16, x = input_109_cast_fp16)[name = tensor<string, []>("input_111_cast_fp16")];
            tensor<fp16, [1536, 384]> var_1757_to_fp16 = const()[name = tensor<string, []>("op_1757_to_fp16"), val = tensor<fp16, [1536, 384]>(BLOBFILE(path = tensor<string, []>("@model_path/weights/weight.bin"), offset = tensor<uint64, []>(33192896)))];
            tensor<fp16, [1536]> var_1758_to_fp16 = const()[name = tensor<string, []>("op_1758_to_fp16"), val = tensor<fp16, [1536]>(BLOBFILE(path = tensor<string, []>("@model_path/weights/weight.bin"), offset = tensor<uint64, []>(34372608)))];
            tensor<fp16, [1, 64, 64, 1536]> linear_36_cast_fp16 = linear(bias = var_1758_to_fp16, weight = var_1757_to_fp16, x = input_111_cast_fp16)[name = tensor<string, []>("linear_36_cast_fp16")];
            tensor<string, []> input_115_mode_0 = const()[name = tensor<string, []>("input_115_mode_0"), val = tensor<string, []>("EXACT")];
            tensor<fp16, [1, 64, 64, 1536]> input_115_cast_fp16 = gelu(mode = input_115_mode_0, x = linear_36_cast_fp16)[name = tensor<string, []>("input_115_cast_fp16")];
            tensor<fp16, [384, 1536]> var_1762_to_fp16 = const()[name = tensor<string, []>("op_1762_to_fp16"), val = tensor<fp16, [384, 1536]>(BLOBFILE(path = tensor<string, []>("@model_path/weights/weight.bin"), offset = tensor<uint64, []>(34375744)))];
            tensor<fp16, [384]> var_1763_to_fp16 = const()[name = tensor<string, []>("op_1763_to_fp16"), val = tensor<fp16, [384]>(BLOBFILE(path = tensor<string, []>("@model_path/weights/weight.bin"), offset = tensor<uint64, []>(35555456)))];
            tensor<fp16, [1, 64, 64, 384]> linear_37_cast_fp16 = linear(bias = var_1763_to_fp16, weight = var_1762_to_fp16, x = input_115_cast_fp16)[name = tensor<string, []>("linear_37_cast_fp16")];
            tensor<fp16, [1, 64, 64, 384]> input_117_cast_fp16 = add(x = input_109_cast_fp16, y = linear_37_cast_fp16)[name = tensor<string, []>("input_117_cast_fp16")];
            tensor<int32, [1]> x_147_axes_0 = const()[name = tensor<string, []>("x_147_axes_0"), val = tensor<int32, [1]>([-1])];
            tensor<fp16, [384]> var_1769_to_fp16 = const()[name = tensor<string, []>("op_1769_to_fp16"), val = tensor<fp16, [384]>(BLOBFILE(path = tensor<string, []>("@model_path/weights/weight.bin"), offset = tensor<uint64, []>(35556288)))];
            tensor<fp16, [384]> var_1770_to_fp16 = const()[name = tensor<string, []>("op_1770_to_fp16"), val = tensor<fp16, [384]>(BLOBFILE(path = tensor<string, []>("@model_path/weights/weight.bin"), offset = tensor<uint64, []>(35557120)))];
            tensor<fp16, []> var_1771_to_fp16 = const()[name = tensor<string, []>("op_1771_to_fp16"), val = tensor<fp16, []>(0x1.1p-20)];
            tensor<fp16, [1, 64, 64, 384]> x_147_cast_fp16 = layer_norm(axes = x_147_axes_0, beta = var_1770_to_fp16, epsilon = var_1771_to_fp16, gamma = var_1769_to_fp16, x = input_117_cast_fp16)[name = tensor<string, []>("x_147_cast_fp16")];
            tensor<fp16, [1152, 384]> var_1787_to_fp16 = const()[name = tensor<string, []>("op_1787_to_fp16"), val = tensor<fp16, [1152, 384]>(BLOBFILE(path = tensor<string, []>("@model_path/weights/weight.bin"), offset = tensor<uint64, []>(35557952)))];
            tensor<fp16, [1152]> var_1788_to_fp16 = const()[name = tensor<string, []>("op_1788_to_fp16"), val = tensor<fp16, [1152]>(BLOBFILE(path = tensor<string, []>("@model_path/weights/weight.bin"), offset = tensor<uint64, []>(36442752)))];
            tensor<fp16, [1, 64, 64, 1152]> linear_38_cast_fp16 = linear(bias = var_1788_to_fp16, weight = var_1787_to_fp16, x = x_147_cast_fp16)[name = tensor<string, []>("linear_38_cast_fp16")];
            tensor<int32, [5]> var_1795 = const()[name = tensor<string, []>("op_1795"), val = tensor<int32, [5]>([1, 4096, 3, 4, -1])];
            tensor<fp16, [1, 4096, 3, 4, 96]> qkv_19_cast_fp16 = reshape(shape = var_1795, x = linear_38_cast_fp16)[name = tensor<string, []>("qkv_19_cast_fp16")];
            tensor<int32, [3]> var_1798_split_sizes_0 = const()[name = tensor<string, []>("op_1798_split_sizes_0"), val = tensor<int32, [3]>([1, 1, 1])];
            tensor<int32, []> var_1798_axis_0 = const()[name = tensor<string, []>("op_1798_axis_0"), val = tensor<int32, []>(2)];
            tensor<fp16, [1, 4096, 1, 4, 96]> var_1798_cast_fp16_0, tensor<fp16, [1, 4096, 1, 4, 96]> var_1798_cast_fp16_1, tensor<fp16, [1, 4096, 1, 4, 96]> var_1798_cast_fp16_2 = split(axis = var_1798_axis_0, split_sizes = var_1798_split_sizes_0, x = qkv_19_cast_fp16)[name = tensor<string, []>("op_1798_cast_fp16")];
            tensor<int32, [1]> squeeze_27_axes_0 = const()[name = tensor<string, []>("squeeze_27_axes_0"), val = tensor<int32, [1]>([2])];
            tensor<fp16, [1, 4096, 4, 96]> squeeze_27_cast_fp16 = squeeze(axes = squeeze_27_axes_0, x = var_1798_cast_fp16_0)[name = tensor<string, []>("squeeze_27_cast_fp16")];
            tensor<int32, [1]> squeeze_28_axes_0 = const()[name = tensor<string, []>("squeeze_28_axes_0"), val = tensor<int32, [1]>([2])];
            tensor<fp16, [1, 4096, 4, 96]> squeeze_28_cast_fp16 = squeeze(axes = squeeze_28_axes_0, x = var_1798_cast_fp16_1)[name = tensor<string, []>("squeeze_28_cast_fp16")];
            tensor<int32, [1]> squeeze_29_axes_0 = const()[name = tensor<string, []>("squeeze_29_axes_0"), val = tensor<int32, [1]>([2])];
            tensor<fp16, [1, 4096, 4, 96]> squeeze_29_cast_fp16 = squeeze(axes = squeeze_29_axes_0, x = var_1798_cast_fp16_2)[name = tensor<string, []>("squeeze_29_cast_fp16")];
            tensor<int32, [4]> var_1810_perm_0 = const()[name = tensor<string, []>("op_1810_perm_0"), val = tensor<int32, [4]>([0, 2, 1, 3])];
            tensor<fp16, []> mul_9_y_0_to_fp16 = const()[name = tensor<string, []>("mul_9_y_0_to_fp16"), val = tensor<fp16, []>(0x1.a2p-4)];
            tensor<fp16, [1, 4096, 4, 96]> mul_9_cast_fp16 = mul(x = squeeze_27_cast_fp16, y = mul_9_y_0_to_fp16)[name = tensor<string, []>("mul_9_cast_fp16")];
            tensor<bool, []> matmul_9_transpose_y_0 = const()[name = tensor<string, []>("matmul_9_transpose_y_0"), val = tensor<bool, []>(true)];
            tensor<bool, []> matmul_9_transpose_x_0 = const()[name = tensor<string, []>("matmul_9_transpose_x_0"), val = tensor<bool, []>(false)];
            tensor<int32, [4]> transpose_84_perm_0 = const()[name = tensor<string, []>("transpose_84_perm_0"), val = tensor<int32, [4]>([0, 2, -3, -1])];
            tensor<int32, [4]> transpose_85_perm_0 = const()[name = tensor<string, []>("transpose_85_perm_0"), val = tensor<int32, [4]>([0, 2, -3, -1])];
            tensor<fp16, [1, 4, 4096, 96]> transpose_85 = transpose(perm = transpose_85_perm_0, x = squeeze_28_cast_fp16)[name = tensor<string, []>("transpose_109")];
            tensor<fp16, [1, 4, 4096, 96]> transpose_84 = transpose(perm = transpose_84_perm_0, x = mul_9_cast_fp16)[name = tensor<string, []>("transpose_110")];
            tensor<fp16, [1, 4, 4096, 4096]> matmul_9_cast_fp16 = matmul(transpose_x = matmul_9_transpose_x_0, transpose_y = matmul_9_transpose_y_0, x = transpose_84, y = transpose_85)[name = tensor<string, []>("matmul_9_cast_fp16")];
            tensor<int32, []> softmax_9_axis_0 = const()[name = tensor<string, []>("softmax_9_axis_0"), val = tensor<int32, []>(-1)];
            tensor<fp16, [1, 4, 4096, 4096]> softmax_9_cast_fp16 = softmax(axis = softmax_9_axis_0, x = matmul_9_cast_fp16)[name = tensor<string, []>("softmax_9_cast_fp16")];
            tensor<bool, []> x_149_transpose_x_0 = const()[name = tensor<string, []>("x_149_transpose_x_0"), val = tensor<bool, []>(false)];
            tensor<bool, []> x_149_transpose_y_0 = const()[name = tensor<string, []>("x_149_transpose_y_0"), val = tensor<bool, []>(false)];
            tensor<fp16, [1, 4, 4096, 96]> var_1810_cast_fp16 = transpose(perm = var_1810_perm_0, x = squeeze_29_cast_fp16)[name = tensor<string, []>("transpose_111")];
            tensor<fp16, [1, 4, 4096, 96]> x_149_cast_fp16 = matmul(transpose_x = x_149_transpose_x_0, transpose_y = x_149_transpose_y_0, x = softmax_9_cast_fp16, y = var_1810_cast_fp16)[name = tensor<string, []>("x_149_cast_fp16")];
            tensor<int32, [4]> x_151_perm_0 = const()[name = tensor<string, []>("x_151_perm_0"), val = tensor<int32, [4]>([0, 2, 1, 3])];
            tensor<int32, [4]> var_1820 = const()[name = tensor<string, []>("op_1820"), val = tensor<int32, [4]>([1, 64, 64, -1])];
            tensor<fp16, [1, 4096, 4, 96]> x_151_cast_fp16 = transpose(perm = x_151_perm_0, x = x_149_cast_fp16)[name = tensor<string, []>("transpose_108")];
            tensor<fp16, [1, 64, 64, 384]> input_119_cast_fp16 = reshape(shape = var_1820, x = x_151_cast_fp16)[name = tensor<string, []>("input_119_cast_fp16")];
            tensor<fp16, [384, 384]> var_1822_to_fp16 = const()[name = tensor<string, []>("op_1822_to_fp16"), val = tensor<fp16, [384, 384]>(BLOBFILE(path = tensor<string, []>("@model_path/weights/weight.bin"), offset = tensor<uint64, []>(36445120)))];
            tensor<fp16, [384]> var_1823_to_fp16 = const()[name = tensor<string, []>("op_1823_to_fp16"), val = tensor<fp16, [384]>(BLOBFILE(path = tensor<string, []>("@model_path/weights/weight.bin"), offset = tensor<uint64, []>(36740096)))];
            tensor<fp16, [1, 64, 64, 384]> linear_39_cast_fp16 = linear(bias = var_1823_to_fp16, weight = var_1822_to_fp16, x = input_119_cast_fp16)[name = tensor<string, []>("linear_39_cast_fp16")];
            tensor<fp16, [1, 64, 64, 384]> input_121_cast_fp16 = add(x = input_117_cast_fp16, y = linear_39_cast_fp16)[name = tensor<string, []>("input_121_cast_fp16")];
            tensor<int32, [1]> input_123_axes_0 = const()[name = tensor<string, []>("input_123_axes_0"), val = tensor<int32, [1]>([-1])];
            tensor<fp16, [384]> var_1829_to_fp16 = const()[name = tensor<string, []>("op_1829_to_fp16"), val = tensor<fp16, [384]>(BLOBFILE(path = tensor<string, []>("@model_path/weights/weight.bin"), offset = tensor<uint64, []>(36740928)))];
            tensor<fp16, [384]> var_1830_to_fp16 = const()[name = tensor<string, []>("op_1830_to_fp16"), val = tensor<fp16, [384]>(BLOBFILE(path = tensor<string, []>("@model_path/weights/weight.bin"), offset = tensor<uint64, []>(36741760)))];
            tensor<fp16, []> var_1831_to_fp16 = const()[name = tensor<string, []>("op_1831_to_fp16"), val = tensor<fp16, []>(0x1.1p-20)];
            tensor<fp16, [1, 64, 64, 384]> input_123_cast_fp16 = layer_norm(axes = input_123_axes_0, beta = var_1830_to_fp16, epsilon = var_1831_to_fp16, gamma = var_1829_to_fp16, x = input_121_cast_fp16)[name = tensor<string, []>("input_123_cast_fp16")];
            tensor<fp16, [1536, 384]> var_1834_to_fp16 = const()[name = tensor<string, []>("op_1834_to_fp16"), val = tensor<fp16, [1536, 384]>(BLOBFILE(path = tensor<string, []>("@model_path/weights/weight.bin"), offset = tensor<uint64, []>(36742592)))];
            tensor<fp16, [1536]> var_1835_to_fp16 = const()[name = tensor<string, []>("op_1835_to_fp16"), val = tensor<fp16, [1536]>(BLOBFILE(path = tensor<string, []>("@model_path/weights/weight.bin"), offset = tensor<uint64, []>(37922304)))];
            tensor<fp16, [1, 64, 64, 1536]> linear_40_cast_fp16 = linear(bias = var_1835_to_fp16, weight = var_1834_to_fp16, x = input_123_cast_fp16)[name = tensor<string, []>("linear_40_cast_fp16")];
            tensor<string, []> input_127_mode_0 = const()[name = tensor<string, []>("input_127_mode_0"), val = tensor<string, []>("EXACT")];
            tensor<fp16, [1, 64, 64, 1536]> input_127_cast_fp16 = gelu(mode = input_127_mode_0, x = linear_40_cast_fp16)[name = tensor<string, []>("input_127_cast_fp16")];
            tensor<fp16, [384, 1536]> var_1839_to_fp16 = const()[name = tensor<string, []>("op_1839_to_fp16"), val = tensor<fp16, [384, 1536]>(BLOBFILE(path = tensor<string, []>("@model_path/weights/weight.bin"), offset = tensor<uint64, []>(37925440)))];
            tensor<fp16, [384]> var_1840_to_fp16 = const()[name = tensor<string, []>("op_1840_to_fp16"), val = tensor<fp16, [384]>(BLOBFILE(path = tensor<string, []>("@model_path/weights/weight.bin"), offset = tensor<uint64, []>(39105152)))];
            tensor<fp16, [1, 64, 64, 384]> linear_41_cast_fp16 = linear(bias = var_1840_to_fp16, weight = var_1839_to_fp16, x = input_127_cast_fp16)[name = tensor<string, []>("linear_41_cast_fp16")];
            tensor<fp16, [1, 64, 64, 384]> x_155_cast_fp16 = add(x = input_121_cast_fp16, y = linear_41_cast_fp16)[name = tensor<string, []>("x_155_cast_fp16")];
            tensor<int32, [4]> var_1848 = const()[name = tensor<string, []>("op_1848"), val = tensor<int32, [4]>([0, 3, 1, 2])];
            tensor<int32, [1]> input_129_axes_0 = const()[name = tensor<string, []>("input_129_axes_0"), val = tensor<int32, [1]>([-1])];
            tensor<fp16, [384]> var_1852_to_fp16 = const()[name = tensor<string, []>("op_1852_to_fp16"), val = tensor<fp16, [384]>(BLOBFILE(path = tensor<string, []>("@model_path/weights/weight.bin"), offset = tensor<uint64, []>(39105984)))];
            tensor<fp16, [384]> var_1853_to_fp16 = const()[name = tensor<string, []>("op_1853_to_fp16"), val = tensor<fp16, [384]>(BLOBFILE(path = tensor<string, []>("@model_path/weights/weight.bin"), offset = tensor<uint64, []>(39106816)))];
            tensor<fp16, []> var_1854_to_fp16 = const()[name = tensor<string, []>("op_1854_to_fp16"), val = tensor<fp16, []>(0x1.1p-20)];
            tensor<fp16, [1, 64, 64, 384]> input_129_cast_fp16 = layer_norm(axes = input_129_axes_0, beta = var_1853_to_fp16, epsilon = var_1854_to_fp16, gamma = var_1852_to_fp16, x = x_155_cast_fp16)[name = tensor<string, []>("input_129_cast_fp16")];
            tensor<fp16, [768, 384]> var_1857_to_fp16 = const()[name = tensor<string, []>("op_1857_to_fp16"), val = tensor<fp16, [768, 384]>(BLOBFILE(path = tensor<string, []>("@model_path/weights/weight.bin"), offset = tensor<uint64, []>(39107648)))];
            tensor<fp16, [768]> var_1858_to_fp16 = const()[name = tensor<string, []>("op_1858_to_fp16"), val = tensor<fp16, [768]>(BLOBFILE(path = tensor<string, []>("@model_path/weights/weight.bin"), offset = tensor<uint64, []>(39697536)))];
            tensor<fp16, [1, 64, 64, 768]> linear_42_cast_fp16 = linear(bias = var_1858_to_fp16, weight = var_1857_to_fp16, x = input_129_cast_fp16)[name = tensor<string, []>("linear_42_cast_fp16")];
            tensor<int32, [4]> var_1864 = const()[name = tensor<string, []>("op_1864"), val = tensor<int32, [4]>([0, 3, 1, 2])];
            tensor<int32, [2]> var_1868 = const()[name = tensor<string, []>("op_1868"), val = tensor<int32, [2]>([2, 2])];
            tensor<int32, [2]> var_1871 = const()[name = tensor<string, []>("op_1871"), val = tensor<int32, [2]>([2, 2])];
            tensor<string, []> x_159_pad_type_0 = const()[name = tensor<string, []>("x_159_pad_type_0"), val = tensor<string, []>("custom")];
            tensor<int32, [4]> x_159_pad_0 = const()[name = tensor<string, []>("x_159_pad_0"), val = tensor<int32, [4]>([0, 0, 0, 0])];
            tensor<bool, []> x_159_ceil_mode_0 = const()[name = tensor<string, []>("x_159_ceil_mode_0"), val = tensor<bool, []>(false)];
            tensor<fp16, [1, 768, 64, 64]> input_131_cast_fp16 = transpose(perm = var_1864, x = linear_42_cast_fp16)[name = tensor<string, []>("transpose_106")];
            tensor<fp16, [1, 768, 32, 32]> x_159_cast_fp16 = max_pool(ceil_mode = x_159_ceil_mode_0, kernel_sizes = var_1868, pad = x_159_pad_0, pad_type = x_159_pad_type_0, strides = var_1871, x = input_131_cast_fp16)[name = tensor<string, []>("x_159_cast_fp16")];
            tensor<int32, [4]> var_1884 = const()[name = tensor<string, []>("op_1884"), val = tensor<int32, [4]>([0, 2, 3, 1])];
            tensor<int32, [8]> x_161_pad_0 = const()[name = tensor<string, []>("x_161_pad_0"), val = tensor<int32, [8]>([0, 0, 0, 6, 0, 6, 0, 0])];
            tensor<string, []> x_161_mode_0 = const()[name = tensor<string, []>("x_161_mode_0"), val = tensor<string, []>("constant")];
            tensor<fp16, []> const_96_to_fp16 = const()[name = tensor<string, []>("const_96_to_fp16"), val = tensor<fp16, []>(0x0p+0)];
            tensor<fp16, [1, 70, 70, 384]> x_161_cast_fp16 = pad(constant_val = const_96_to_fp16, mode = x_161_mode_0, pad = x_161_pad_0, x = input_129_cast_fp16)[name = tensor<string, []>("x_161_cast_fp16")];
            tensor<int32, [4]> reshape_28_shape_0 = const()[name = tensor<string, []>("reshape_28_shape_0"), val = tensor<int32, [4]>([5, 14, 5, 5376])];
            tensor<fp16, [5, 14, 5, 5376]> reshape_28_cast_fp16 = reshape(shape = reshape_28_shape_0, x = x_161_cast_fp16)[name = tensor<string, []>("reshape_28_cast_fp16")];
            tensor<int32, [4]> transpose_38_perm_0 = const()[name = tensor<string, []>("transpose_38_perm_0"), val = tensor<int32, [4]>([0, 2, 1, 3])];
            tensor<int32, [4]> reshape_29_shape_0 = const()[name = tensor<string, []>("reshape_29_shape_0"), val = tensor<int32, [4]>([-1, 14, 14, 384])];
            tensor<fp16, [5, 5, 14, 5376]> transpose_38_cast_fp16 = transpose(perm = transpose_38_perm_0, x = reshape_28_cast_fp16)[name = tensor<string, []>("transpose_104")];
            tensor<fp16, [25, 14, 14, 384]> reshape_29_cast_fp16 = reshape(shape = reshape_29_shape_0, x = transpose_38_cast_fp16)[name = tensor<string, []>("reshape_29_cast_fp16")];
            tensor<fp16, [2304, 384]> var_1969_to_fp16 = const()[name = tensor<string, []>("op_1969_to_fp16"), val = tensor<fp16, [2304, 384]>(BLOBFILE(path = tensor<string, []>("@model_path/weights/weight.bin"), offset = tensor<uint64, []>(39699136)))];
            tensor<fp16, [2304]> var_1970_to_fp16 = const()[name = tensor<string, []>("op_1970_to_fp16"), val = tensor<fp16, [2304]>(BLOBFILE(path = tensor<string, []>("@model_path/weights/weight.bin"), offset = tensor<uint64, []>(41468672)))];
            tensor<fp16, [25, 14, 14, 2304]> linear_43_cast_fp16 = linear(bias = var_1970_to_fp16, weight = var_1969_to_fp16, x = reshape_29_cast_fp16)[name = tensor<string, []>("linear_43_cast_fp16")];
            tensor<int32, [5]> var_1977 = const()[name = tensor<string, []>("op_1977"), val = tensor<int32, [5]>([25, 196, 3, 8, -1])];
            tensor<fp16, [25, 196, 3, 8, 96]> qkv_21_cast_fp16 = reshape(shape = var_1977, x = linear_43_cast_fp16)[name = tensor<string, []>("qkv_21_cast_fp16")];
            tensor<int32, [3]> var_1980_split_sizes_0 = const()[name = tensor<string, []>("op_1980_split_sizes_0"), val = tensor<int32, [3]>([1, 1, 1])];
            tensor<int32, []> var_1980_axis_0 = const()[name = tensor<string, []>("op_1980_axis_0"), val = tensor<int32, []>(2)];
            tensor<fp16, [25, 196, 1, 8, 96]> var_1980_cast_fp16_0, tensor<fp16, [25, 196, 1, 8, 96]> var_1980_cast_fp16_1, tensor<fp16, [25, 196, 1, 8, 96]> var_1980_cast_fp16_2 = split(axis = var_1980_axis_0, split_sizes = var_1980_split_sizes_0, x = qkv_21_cast_fp16)[name = tensor<string, []>("op_1980_cast_fp16")];
            tensor<int32, [1]> squeeze_30_axes_0 = const()[name = tensor<string, []>("squeeze_30_axes_0"), val = tensor<int32, [1]>([2])];
            tensor<fp16, [25, 196, 8, 96]> squeeze_30_cast_fp16 = squeeze(axes = squeeze_30_axes_0, x = var_1980_cast_fp16_0)[name = tensor<string, []>("squeeze_30_cast_fp16")];
            tensor<int32, [1]> squeeze_31_axes_0 = const()[name = tensor<string, []>("squeeze_31_axes_0"), val = tensor<int32, [1]>([2])];
            tensor<fp16, [25, 196, 8, 96]> squeeze_31_cast_fp16 = squeeze(axes = squeeze_31_axes_0, x = var_1980_cast_fp16_1)[name = tensor<string, []>("squeeze_31_cast_fp16")];
            tensor<int32, [1]> squeeze_32_axes_0 = const()[name = tensor<string, []>("squeeze_32_axes_0"), val = tensor<int32, [1]>([2])];
            tensor<fp16, [25, 196, 8, 96]> squeeze_32_cast_fp16 = squeeze(axes = squeeze_32_axes_0, x = var_1980_cast_fp16_2)[name = tensor<string, []>("squeeze_32_cast_fp16")];
            tensor<int32, [4]> var_1985 = const()[name = tensor<string, []>("op_1985"), val = tensor<int32, [4]>([25, 14, 14, -1])];
            tensor<fp16, [25, 14, 14, 768]> x_167_cast_fp16 = reshape(shape = var_1985, x = squeeze_30_cast_fp16)[name = tensor<string, []>("x_167_cast_fp16")];
            tensor<int32, [4]> var_1991 = const()[name = tensor<string, []>("op_1991"), val = tensor<int32, [4]>([0, 3, 1, 2])];
            tensor<int32, [2]> var_1995 = const()[name = tensor<string, []>("op_1995"), val = tensor<int32, [2]>([2, 2])];
            tensor<int32, [2]> var_1998 = const()[name = tensor<string, []>("op_1998"), val = tensor<int32, [2]>([2, 2])];
            tensor<string, []> x_169_pad_type_0 = const()[name = tensor<string, []>("x_169_pad_type_0"), val = tensor<string, []>("custom")];
            tensor<int32, [4]> x_169_pad_0 = const()[name = tensor<string, []>("x_169_pad_0"), val = tensor<int32, [4]>([0, 0, 0, 0])];
            tensor<bool, []> x_169_ceil_mode_0 = const()[name = tensor<string, []>("x_169_ceil_mode_0"), val = tensor<bool, []>(false)];
            tensor<fp16, [25, 768, 14, 14]> input_133_cast_fp16 = transpose(perm = var_1991, x = x_167_cast_fp16)[name = tensor<string, []>("transpose_103")];
            tensor<fp16, [25, 768, 7, 7]> x_169_cast_fp16 = max_pool(ceil_mode = x_169_ceil_mode_0, kernel_sizes = var_1995, pad = x_169_pad_0, pad_type = x_169_pad_type_0, strides = var_1998, x = input_133_cast_fp16)[name = tensor<string, []>("x_169_cast_fp16")];
            tensor<int32, [4]> var_2011 = const()[name = tensor<string, []>("op_2011"), val = tensor<int32, [4]>([0, 2, 3, 1])];
            tensor<int32, [4]> var_2025 = const()[name = tensor<string, []>("op_2025"), val = tensor<int32, [4]>([25, 49, 8, -1])];
            tensor<fp16, [25, 7, 7, 768]> q_31_cast_fp16 = transpose(perm = var_2011, x = x_169_cast_fp16)[name = tensor<string, []>("transpose_102")];
            tensor<fp16, [25, 49, 8, 96]> q_33_cast_fp16 = reshape(shape = var_2025, x = q_31_cast_fp16)[name = tensor<string, []>("q_33_cast_fp16")];
            tensor<int32, [4]> var_2035_perm_0 = const()[name = tensor<string, []>("op_2035_perm_0"), val = tensor<int32, [4]>([0, 2, 1, 3])];
            tensor<fp16, []> mul_10_y_0_to_fp16 = const()[name = tensor<string, []>("mul_10_y_0_to_fp16"), val = tensor<fp16, []>(0x1.a2p-4)];
            tensor<fp16, [25, 49, 8, 96]> mul_10_cast_fp16 = mul(x = q_33_cast_fp16, y = mul_10_y_0_to_fp16)[name = tensor<string, []>("mul_10_cast_fp16")];
            tensor<bool, []> matmul_10_transpose_y_0 = const()[name = tensor<string, []>("matmul_10_transpose_y_0"), val = tensor<bool, []>(true)];
            tensor<bool, []> matmul_10_transpose_x_0 = const()[name = tensor<string, []>("matmul_10_transpose_x_0"), val = tensor<bool, []>(false)];
            tensor<int32, [4]> transpose_86_perm_0 = const()[name = tensor<string, []>("transpose_86_perm_0"), val = tensor<int32, [4]>([0, 2, -3, -1])];
            tensor<int32, [4]> transpose_87_perm_0 = const()[name = tensor<string, []>("transpose_87_perm_0"), val = tensor<int32, [4]>([0, 2, -3, -1])];
            tensor<fp16, [25, 8, 196, 96]> transpose_87 = transpose(perm = transpose_87_perm_0, x = squeeze_31_cast_fp16)[name = tensor<string, []>("transpose_99")];
            tensor<fp16, [25, 8, 49, 96]> transpose_86 = transpose(perm = transpose_86_perm_0, x = mul_10_cast_fp16)[name = tensor<string, []>("transpose_100")];
            tensor<fp16, [25, 8, 49, 196]> matmul_10_cast_fp16 = matmul(transpose_x = matmul_10_transpose_x_0, transpose_y = matmul_10_transpose_y_0, x = transpose_86, y = transpose_87)[name = tensor<string, []>("matmul_10_cast_fp16")];
            tensor<int32, []> softmax_10_axis_0 = const()[name = tensor<string, []>("softmax_10_axis_0"), val = tensor<int32, []>(-1)];
            tensor<fp16, [25, 8, 49, 196]> softmax_10_cast_fp16 = softmax(axis = softmax_10_axis_0, x = matmul_10_cast_fp16)[name = tensor<string, []>("softmax_10_cast_fp16")];
            tensor<bool, []> x_171_transpose_x_0 = const()[name = tensor<string, []>("x_171_transpose_x_0"), val = tensor<bool, []>(false)];
            tensor<bool, []> x_171_transpose_y_0 = const()[name = tensor<string, []>("x_171_transpose_y_0"), val = tensor<bool, []>(false)];
            tensor<fp16, [25, 8, 196, 96]> var_2035_cast_fp16 = transpose(perm = var_2035_perm_0, x = squeeze_32_cast_fp16)[name = tensor<string, []>("transpose_101")];
            tensor<fp16, [25, 8, 49, 96]> x_171_cast_fp16 = matmul(transpose_x = x_171_transpose_x_0, transpose_y = x_171_transpose_y_0, x = softmax_10_cast_fp16, y = var_2035_cast_fp16)[name = tensor<string, []>("x_171_cast_fp16")];
            tensor<int32, [4]> x_173_perm_0 = const()[name = tensor<string, []>("x_173_perm_0"), val = tensor<int32, [4]>([0, 2, 1, 3])];
            tensor<int32, [4]> var_2045 = const()[name = tensor<string, []>("op_2045"), val = tensor<int32, [4]>([25, 7, 7, -1])];
            tensor<fp16, [25, 49, 8, 96]> x_173_cast_fp16 = transpose(perm = x_173_perm_0, x = x_171_cast_fp16)[name = tensor<string, []>("transpose_98")];
            tensor<fp16, [25, 7, 7, 768]> input_135_cast_fp16 = reshape(shape = var_2045, x = x_173_cast_fp16)[name = tensor<string, []>("input_135_cast_fp16")];
            tensor<fp16, [768, 768]> var_2047_to_fp16 = const()[name = tensor<string, []>("op_2047_to_fp16"), val = tensor<fp16, [768, 768]>(BLOBFILE(path = tensor<string, []>("@model_path/weights/weight.bin"), offset = tensor<uint64, []>(41473344)))];
            tensor<fp16, [768]> var_2048_to_fp16 = const()[name = tensor<string, []>("op_2048_to_fp16"), val = tensor<fp16, [768]>(BLOBFILE(path = tensor<string, []>("@model_path/weights/weight.bin"), offset = tensor<uint64, []>(42653056)))];
            tensor<fp16, [25, 7, 7, 768]> linear_44_cast_fp16 = linear(bias = var_2048_to_fp16, weight = var_2047_to_fp16, x = input_135_cast_fp16)[name = tensor<string, []>("linear_44_cast_fp16")];
            tensor<int32, [4]> reshape_30_shape_0 = const()[name = tensor<string, []>("reshape_30_shape_0"), val = tensor<int32, [4]>([5, 5, 7, 5376])];
            tensor<fp16, [5, 5, 7, 5376]> reshape_30_cast_fp16 = reshape(shape = reshape_30_shape_0, x = linear_44_cast_fp16)[name = tensor<string, []>("reshape_30_cast_fp16")];
            tensor<int32, [4]> transpose_39_perm_0 = const()[name = tensor<string, []>("transpose_39_perm_0"), val = tensor<int32, [4]>([0, 2, 1, 3])];
            tensor<int32, [4]> reshape_31_shape_0 = const()[name = tensor<string, []>("reshape_31_shape_0"), val = tensor<int32, [4]>([1, 35, 35, -1])];
            tensor<fp16, [5, 7, 5, 5376]> transpose_39_cast_fp16 = transpose(perm = transpose_39_perm_0, x = reshape_30_cast_fp16)[name = tensor<string, []>("transpose_97")];
            tensor<fp16, [1, 35, 35, 768]> reshape_31_cast_fp16 = reshape(shape = reshape_31_shape_0, x = transpose_39_cast_fp16)[name = tensor<string, []>("reshape_31_cast_fp16")];
            tensor<int32, [4]> var_2121_begin_0 = const()[name = tensor<string, []>("op_2121_begin_0"), val = tensor<int32, [4]>([0, 0, 0, 0])];
            tensor<int32, [4]> var_2121_end_0 = const()[name = tensor<string, []>("op_2121_end_0"), val = tensor<int32, [4]>([1, 32, 35, 768])];
            tensor<bool, [4]> var_2121_end_mask_0 = const()[name = tensor<string, []>("op_2121_end_mask_0"), val = tensor<bool, [4]>([true, false, true, true])];
            tensor<fp16, [1, 32, 35, 768]> var_2121_cast_fp16 = slice_by_index(begin = var_2121_begin_0, end = var_2121_end_0, end_mask = var_2121_end_mask_0, x = reshape_31_cast_fp16)[name = tensor<string, []>("op_2121_cast_fp16")];
            tensor<int32, [4]> var_2125_begin_0 = const()[name = tensor<string, []>("op_2125_begin_0"), val = tensor<int32, [4]>([0, 0, 0, 0])];
            tensor<int32, [4]> var_2125_end_0 = const()[name = tensor<string, []>("op_2125_end_0"), val = tensor<int32, [4]>([1, 32, 32, 768])];
            tensor<bool, [4]> var_2125_end_mask_0 = const()[name = tensor<string, []>("op_2125_end_mask_0"), val = tensor<bool, [4]>([true, true, false, true])];
            tensor<fp16, [1, 32, 32, 768]> var_2125_cast_fp16 = slice_by_index(begin = var_2125_begin_0, end = var_2125_end_0, end_mask = var_2125_end_mask_0, x = var_2121_cast_fp16)[name = tensor<string, []>("op_2125_cast_fp16")];
            tensor<fp16, [1, 32, 32, 768]> shortcut_cast_fp16 = transpose(perm = var_1884, x = x_159_cast_fp16)[name = tensor<string, []>("transpose_105")];
            tensor<fp16, [1, 32, 32, 768]> input_137_cast_fp16 = add(x = shortcut_cast_fp16, y = var_2125_cast_fp16)[name = tensor<string, []>("input_137_cast_fp16")];
            tensor<int32, [1]> input_139_axes_0 = const()[name = tensor<string, []>("input_139_axes_0"), val = tensor<int32, [1]>([-1])];
            tensor<fp16, [768]> var_2137_to_fp16 = const()[name = tensor<string, []>("op_2137_to_fp16"), val = tensor<fp16, [768]>(BLOBFILE(path = tensor<string, []>("@model_path/weights/weight.bin"), offset = tensor<uint64, []>(42654656)))];
            tensor<fp16, [768]> var_2138_to_fp16 = const()[name = tensor<string, []>("op_2138_to_fp16"), val = tensor<fp16, [768]>(BLOBFILE(path = tensor<string, []>("@model_path/weights/weight.bin"), offset = tensor<uint64, []>(42656256)))];
            tensor<fp16, []> var_2139_to_fp16 = const()[name = tensor<string, []>("op_2139_to_fp16"), val = tensor<fp16, []>(0x1.1p-20)];
            tensor<fp16, [1, 32, 32, 768]> input_139_cast_fp16 = layer_norm(axes = input_139_axes_0, beta = var_2138_to_fp16, epsilon = var_2139_to_fp16, gamma = var_2137_to_fp16, x = input_137_cast_fp16)[name = tensor<string, []>("input_139_cast_fp16")];
            tensor<fp16, [3072, 768]> var_2142_to_fp16 = const()[name = tensor<string, []>("op_2142_to_fp16"), val = tensor<fp16, [3072, 768]>(BLOBFILE(path = tensor<string, []>("@model_path/weights/weight.bin"), offset = tensor<uint64, []>(42657856)))];
            tensor<fp16, [3072]> var_2143_to_fp16 = const()[name = tensor<string, []>("op_2143_to_fp16"), val = tensor<fp16, [3072]>(BLOBFILE(path = tensor<string, []>("@model_path/weights/weight.bin"), offset = tensor<uint64, []>(47376512)))];
            tensor<fp16, [1, 32, 32, 3072]> linear_45_cast_fp16 = linear(bias = var_2143_to_fp16, weight = var_2142_to_fp16, x = input_139_cast_fp16)[name = tensor<string, []>("linear_45_cast_fp16")];
            tensor<string, []> input_143_mode_0 = const()[name = tensor<string, []>("input_143_mode_0"), val = tensor<string, []>("EXACT")];
            tensor<fp16, [1, 32, 32, 3072]> input_143_cast_fp16 = gelu(mode = input_143_mode_0, x = linear_45_cast_fp16)[name = tensor<string, []>("input_143_cast_fp16")];
            tensor<fp16, [768, 3072]> var_2147_to_fp16 = const()[name = tensor<string, []>("op_2147_to_fp16"), val = tensor<fp16, [768, 3072]>(BLOBFILE(path = tensor<string, []>("@model_path/weights/weight.bin"), offset = tensor<uint64, []>(47382720)))];
            tensor<fp16, [768]> var_2148_to_fp16 = const()[name = tensor<string, []>("op_2148_to_fp16"), val = tensor<fp16, [768]>(BLOBFILE(path = tensor<string, []>("@model_path/weights/weight.bin"), offset = tensor<uint64, []>(52101376)))];
            tensor<fp16, [1, 32, 32, 768]> linear_46_cast_fp16 = linear(bias = var_2148_to_fp16, weight = var_2147_to_fp16, x = input_143_cast_fp16)[name = tensor<string, []>("linear_46_cast_fp16")];
            tensor<fp16, [1, 32, 32, 768]> input_145_cast_fp16 = add(x = input_137_cast_fp16, y = linear_46_cast_fp16)[name = tensor<string, []>("input_145_cast_fp16")];
            tensor<int32, [1]> x_181_axes_0 = const()[name = tensor<string, []>("x_181_axes_0"), val = tensor<int32, [1]>([-1])];
            tensor<fp16, [768]> var_2154_to_fp16 = const()[name = tensor<string, []>("op_2154_to_fp16"), val = tensor<fp16, [768]>(BLOBFILE(path = tensor<string, []>("@model_path/weights/weight.bin"), offset = tensor<uint64, []>(52102976)))];
            tensor<fp16, [768]> var_2155_to_fp16 = const()[name = tensor<string, []>("op_2155_to_fp16"), val = tensor<fp16, [768]>(BLOBFILE(path = tensor<string, []>("@model_path/weights/weight.bin"), offset = tensor<uint64, []>(52104576)))];
            tensor<fp16, []> var_2156_to_fp16 = const()[name = tensor<string, []>("op_2156_to_fp16"), val = tensor<fp16, []>(0x1.1p-20)];
            tensor<fp16, [1, 32, 32, 768]> x_181_cast_fp16 = layer_norm(axes = x_181_axes_0, beta = var_2155_to_fp16, epsilon = var_2156_to_fp16, gamma = var_2154_to_fp16, x = input_145_cast_fp16)[name = tensor<string, []>("x_181_cast_fp16")];
            tensor<int32, [8]> x_183_pad_0 = const()[name = tensor<string, []>("x_183_pad_0"), val = tensor<int32, [8]>([0, 0, 0, 3, 0, 3, 0, 0])];
            tensor<string, []> x_183_mode_0 = const()[name = tensor<string, []>("x_183_mode_0"), val = tensor<string, []>("constant")];
            tensor<fp16, []> const_111_to_fp16 = const()[name = tensor<string, []>("const_111_to_fp16"), val = tensor<fp16, []>(0x0p+0)];
            tensor<fp16, [1, 35, 35, 768]> x_183_cast_fp16 = pad(constant_val = const_111_to_fp16, mode = x_183_mode_0, pad = x_183_pad_0, x = x_181_cast_fp16)[name = tensor<string, []>("x_183_cast_fp16")];
            tensor<int32, [4]> reshape_32_shape_0 = const()[name = tensor<string, []>("reshape_32_shape_0"), val = tensor<int32, [4]>([5, 7, 5, 5376])];
            tensor<fp16, [5, 7, 5, 5376]> reshape_32_cast_fp16 = reshape(shape = reshape_32_shape_0, x = x_183_cast_fp16)[name = tensor<string, []>("reshape_32_cast_fp16")];
            tensor<int32, [4]> transpose_40_perm_0 = const()[name = tensor<string, []>("transpose_40_perm_0"), val = tensor<int32, [4]>([0, 2, 1, 3])];
            tensor<int32, [4]> reshape_33_shape_0 = const()[name = tensor<string, []>("reshape_33_shape_0"), val = tensor<int32, [4]>([-1, 7, 7, 768])];
            tensor<fp16, [5, 5, 7, 5376]> transpose_40_cast_fp16 = transpose(perm = transpose_40_perm_0, x = reshape_32_cast_fp16)[name = tensor<string, []>("transpose_96")];
            tensor<fp16, [25, 7, 7, 768]> reshape_33_cast_fp16 = reshape(shape = reshape_33_shape_0, x = transpose_40_cast_fp16)[name = tensor<string, []>("reshape_33_cast_fp16")];
            tensor<fp16, [2304, 768]> var_2250_to_fp16 = const()[name = tensor<string, []>("op_2250_to_fp16"), val = tensor<fp16, [2304, 768]>(BLOBFILE(path = tensor<string, []>("@model_path/weights/weight.bin"), offset = tensor<uint64, []>(52106176)))];
            tensor<fp16, [2304]> var_2251_to_fp16 = const()[name = tensor<string, []>("op_2251_to_fp16"), val = tensor<fp16, [2304]>(BLOBFILE(path = tensor<string, []>("@model_path/weights/weight.bin"), offset = tensor<uint64, []>(55645184)))];
            tensor<fp16, [25, 7, 7, 2304]> linear_47_cast_fp16 = linear(bias = var_2251_to_fp16, weight = var_2250_to_fp16, x = reshape_33_cast_fp16)[name = tensor<string, []>("linear_47_cast_fp16")];
            tensor<int32, [5]> var_2258 = const()[name = tensor<string, []>("op_2258"), val = tensor<int32, [5]>([25, 49, 3, 8, -1])];
            tensor<fp16, [25, 49, 3, 8, 96]> qkv_cast_fp16 = reshape(shape = var_2258, x = linear_47_cast_fp16)[name = tensor<string, []>("qkv_cast_fp16")];
            tensor<int32, [3]> var_2261_split_sizes_0 = const()[name = tensor<string, []>("op_2261_split_sizes_0"), val = tensor<int32, [3]>([1, 1, 1])];
            tensor<int32, []> var_2261_axis_0 = const()[name = tensor<string, []>("op_2261_axis_0"), val = tensor<int32, []>(2)];
            tensor<fp16, [25, 49, 1, 8, 96]> var_2261_cast_fp16_0, tensor<fp16, [25, 49, 1, 8, 96]> var_2261_cast_fp16_1, tensor<fp16, [25, 49, 1, 8, 96]> var_2261_cast_fp16_2 = split(axis = var_2261_axis_0, split_sizes = var_2261_split_sizes_0, x = qkv_cast_fp16)[name = tensor<string, []>("op_2261_cast_fp16")];
            tensor<int32, [1]> squeeze_33_axes_0 = const()[name = tensor<string, []>("squeeze_33_axes_0"), val = tensor<int32, [1]>([2])];
            tensor<fp16, [25, 49, 8, 96]> squeeze_33_cast_fp16 = squeeze(axes = squeeze_33_axes_0, x = var_2261_cast_fp16_0)[name = tensor<string, []>("squeeze_33_cast_fp16")];
            tensor<int32, [1]> squeeze_34_axes_0 = const()[name = tensor<string, []>("squeeze_34_axes_0"), val = tensor<int32, [1]>([2])];
            tensor<fp16, [25, 49, 8, 96]> squeeze_34_cast_fp16 = squeeze(axes = squeeze_34_axes_0, x = var_2261_cast_fp16_1)[name = tensor<string, []>("squeeze_34_cast_fp16")];
            tensor<int32, [1]> squeeze_35_axes_0 = const()[name = tensor<string, []>("squeeze_35_axes_0"), val = tensor<int32, [1]>([2])];
            tensor<fp16, [25, 49, 8, 96]> squeeze_35_cast_fp16 = squeeze(axes = squeeze_35_axes_0, x = var_2261_cast_fp16_2)[name = tensor<string, []>("squeeze_35_cast_fp16")];
            tensor<int32, [4]> var_2273_perm_0 = const()[name = tensor<string, []>("op_2273_perm_0"), val = tensor<int32, [4]>([0, 2, 1, 3])];
            tensor<fp16, []> mul_11_y_0_to_fp16 = const()[name = tensor<string, []>("mul_11_y_0_to_fp16"), val = tensor<fp16, []>(0x1.a2p-4)];
            tensor<fp16, [25, 49, 8, 96]> mul_11_cast_fp16 = mul(x = squeeze_33_cast_fp16, y = mul_11_y_0_to_fp16)[name = tensor<string, []>("mul_11_cast_fp16")];
            tensor<bool, []> matmul_11_transpose_y_0 = const()[name = tensor<string, []>("matmul_11_transpose_y_0"), val = tensor<bool, []>(true)];
            tensor<bool, []> matmul_11_transpose_x_0 = const()[name = tensor<string, []>("matmul_11_transpose_x_0"), val = tensor<bool, []>(false)];
            tensor<int32, [4]> transpose_88_perm_0 = const()[name = tensor<string, []>("transpose_88_perm_0"), val = tensor<int32, [4]>([0, 2, -3, -1])];
            tensor<int32, [4]> transpose_89_perm_0 = const()[name = tensor<string, []>("transpose_89_perm_0"), val = tensor<int32, [4]>([0, 2, -3, -1])];
            tensor<fp16, [25, 8, 49, 96]> transpose_89 = transpose(perm = transpose_89_perm_0, x = squeeze_34_cast_fp16)[name = tensor<string, []>("transpose_93")];
            tensor<fp16, [25, 8, 49, 96]> transpose_88 = transpose(perm = transpose_88_perm_0, x = mul_11_cast_fp16)[name = tensor<string, []>("transpose_94")];
            tensor<fp16, [25, 8, 49, 49]> matmul_11_cast_fp16 = matmul(transpose_x = matmul_11_transpose_x_0, transpose_y = matmul_11_transpose_y_0, x = transpose_88, y = transpose_89)[name = tensor<string, []>("matmul_11_cast_fp16")];
            tensor<int32, []> softmax_11_axis_0 = const()[name = tensor<string, []>("softmax_11_axis_0"), val = tensor<int32, []>(-1)];
            tensor<fp16, [25, 8, 49, 49]> softmax_11_cast_fp16 = softmax(axis = softmax_11_axis_0, x = matmul_11_cast_fp16)[name = tensor<string, []>("softmax_11_cast_fp16")];
            tensor<bool, []> x_189_transpose_x_0 = const()[name = tensor<string, []>("x_189_transpose_x_0"), val = tensor<bool, []>(false)];
            tensor<bool, []> x_189_transpose_y_0 = const()[name = tensor<string, []>("x_189_transpose_y_0"), val = tensor<bool, []>(false)];
            tensor<fp16, [25, 8, 49, 96]> var_2273_cast_fp16 = transpose(perm = var_2273_perm_0, x = squeeze_35_cast_fp16)[name = tensor<string, []>("transpose_95")];
            tensor<fp16, [25, 8, 49, 96]> x_189_cast_fp16 = matmul(transpose_x = x_189_transpose_x_0, transpose_y = x_189_transpose_y_0, x = softmax_11_cast_fp16, y = var_2273_cast_fp16)[name = tensor<string, []>("x_189_cast_fp16")];
            tensor<int32, [4]> x_191_perm_0 = const()[name = tensor<string, []>("x_191_perm_0"), val = tensor<int32, [4]>([0, 2, 1, 3])];
            tensor<int32, [4]> var_2283 = const()[name = tensor<string, []>("op_2283"), val = tensor<int32, [4]>([25, 7, 7, -1])];
            tensor<fp16, [25, 49, 8, 96]> x_191_cast_fp16 = transpose(perm = x_191_perm_0, x = x_189_cast_fp16)[name = tensor<string, []>("transpose_92")];
            tensor<fp16, [25, 7, 7, 768]> input_147_cast_fp16 = reshape(shape = var_2283, x = x_191_cast_fp16)[name = tensor<string, []>("input_147_cast_fp16")];
            tensor<fp16, [768, 768]> var_2285_to_fp16 = const()[name = tensor<string, []>("op_2285_to_fp16"), val = tensor<fp16, [768, 768]>(BLOBFILE(path = tensor<string, []>("@model_path/weights/weight.bin"), offset = tensor<uint64, []>(55649856)))];
            tensor<fp16, [768]> var_2286_to_fp16 = const()[name = tensor<string, []>("op_2286_to_fp16"), val = tensor<fp16, [768]>(BLOBFILE(path = tensor<string, []>("@model_path/weights/weight.bin"), offset = tensor<uint64, []>(56829568)))];
            tensor<fp16, [25, 7, 7, 768]> linear_48_cast_fp16 = linear(bias = var_2286_to_fp16, weight = var_2285_to_fp16, x = input_147_cast_fp16)[name = tensor<string, []>("linear_48_cast_fp16")];
            tensor<int32, [4]> reshape_34_shape_0 = const()[name = tensor<string, []>("reshape_34_shape_0"), val = tensor<int32, [4]>([5, 5, 7, 5376])];
            tensor<fp16, [5, 5, 7, 5376]> reshape_34_cast_fp16 = reshape(shape = reshape_34_shape_0, x = linear_48_cast_fp16)[name = tensor<string, []>("reshape_34_cast_fp16")];
            tensor<int32, [4]> transpose_41_perm_0 = const()[name = tensor<string, []>("transpose_41_perm_0"), val = tensor<int32, [4]>([0, 2, 1, 3])];
            tensor<int32, [4]> reshape_35_shape_0 = const()[name = tensor<string, []>("reshape_35_shape_0"), val = tensor<int32, [4]>([1, 35, 35, -1])];
            tensor<fp16, [5, 7, 5, 5376]> transpose_41_cast_fp16 = transpose(perm = transpose_41_perm_0, x = reshape_34_cast_fp16)[name = tensor<string, []>("transpose_91")];
            tensor<fp16, [1, 35, 35, 768]> reshape_35_cast_fp16 = reshape(shape = reshape_35_shape_0, x = transpose_41_cast_fp16)[name = tensor<string, []>("reshape_35_cast_fp16")];
            tensor<int32, [4]> var_2331_begin_0 = const()[name = tensor<string, []>("op_2331_begin_0"), val = tensor<int32, [4]>([0, 0, 0, 0])];
            tensor<int32, [4]> var_2331_end_0 = const()[name = tensor<string, []>("op_2331_end_0"), val = tensor<int32, [4]>([1, 32, 35, 768])];
            tensor<bool, [4]> var_2331_end_mask_0 = const()[name = tensor<string, []>("op_2331_end_mask_0"), val = tensor<bool, [4]>([true, false, true, true])];
            tensor<fp16, [1, 32, 35, 768]> var_2331_cast_fp16 = slice_by_index(begin = var_2331_begin_0, end = var_2331_end_0, end_mask = var_2331_end_mask_0, x = reshape_35_cast_fp16)[name = tensor<string, []>("op_2331_cast_fp16")];
            tensor<int32, [4]> var_2335_begin_0 = const()[name = tensor<string, []>("op_2335_begin_0"), val = tensor<int32, [4]>([0, 0, 0, 0])];
            tensor<int32, [4]> var_2335_end_0 = const()[name = tensor<string, []>("op_2335_end_0"), val = tensor<int32, [4]>([1, 32, 32, 768])];
            tensor<bool, [4]> var_2335_end_mask_0 = const()[name = tensor<string, []>("op_2335_end_mask_0"), val = tensor<bool, [4]>([true, true, false, true])];
            tensor<fp16, [1, 32, 32, 768]> var_2335_cast_fp16 = slice_by_index(begin = var_2335_begin_0, end = var_2335_end_0, end_mask = var_2335_end_mask_0, x = var_2331_cast_fp16)[name = tensor<string, []>("op_2335_cast_fp16")];
            tensor<fp16, [1, 32, 32, 768]> input_149_cast_fp16 = add(x = input_145_cast_fp16, y = var_2335_cast_fp16)[name = tensor<string, []>("input_149_cast_fp16")];
            tensor<int32, [1]> input_151_axes_0 = const()[name = tensor<string, []>("input_151_axes_0"), val = tensor<int32, [1]>([-1])];
            tensor<fp16, [768]> var_2347_to_fp16 = const()[name = tensor<string, []>("op_2347_to_fp16"), val = tensor<fp16, [768]>(BLOBFILE(path = tensor<string, []>("@model_path/weights/weight.bin"), offset = tensor<uint64, []>(56831168)))];
            tensor<fp16, [768]> var_2348_to_fp16 = const()[name = tensor<string, []>("op_2348_to_fp16"), val = tensor<fp16, [768]>(BLOBFILE(path = tensor<string, []>("@model_path/weights/weight.bin"), offset = tensor<uint64, []>(56832768)))];
            tensor<fp16, []> var_2349_to_fp16 = const()[name = tensor<string, []>("op_2349_to_fp16"), val = tensor<fp16, []>(0x1.1p-20)];
            tensor<fp16, [1, 32, 32, 768]> input_151_cast_fp16 = layer_norm(axes = input_151_axes_0, beta = var_2348_to_fp16, epsilon = var_2349_to_fp16, gamma = var_2347_to_fp16, x = input_149_cast_fp16)[name = tensor<string, []>("input_151_cast_fp16")];
            tensor<fp16, [3072, 768]> var_2352_to_fp16 = const()[name = tensor<string, []>("op_2352_to_fp16"), val = tensor<fp16, [3072, 768]>(BLOBFILE(path = tensor<string, []>("@model_path/weights/weight.bin"), offset = tensor<uint64, []>(56834368)))];
            tensor<fp16, [3072]> var_2353_to_fp16 = const()[name = tensor<string, []>("op_2353_to_fp16"), val = tensor<fp16, [3072]>(BLOBFILE(path = tensor<string, []>("@model_path/weights/weight.bin"), offset = tensor<uint64, []>(61553024)))];
            tensor<fp16, [1, 32, 32, 3072]> linear_49_cast_fp16 = linear(bias = var_2353_to_fp16, weight = var_2352_to_fp16, x = input_151_cast_fp16)[name = tensor<string, []>("linear_49_cast_fp16")];
            tensor<string, []> input_155_mode_0 = const()[name = tensor<string, []>("input_155_mode_0"), val = tensor<string, []>("EXACT")];
            tensor<fp16, [1, 32, 32, 3072]> input_155_cast_fp16 = gelu(mode = input_155_mode_0, x = linear_49_cast_fp16)[name = tensor<string, []>("input_155_cast_fp16")];
            tensor<fp16, [768, 3072]> var_2357_to_fp16 = const()[name = tensor<string, []>("op_2357_to_fp16"), val = tensor<fp16, [768, 3072]>(BLOBFILE(path = tensor<string, []>("@model_path/weights/weight.bin"), offset = tensor<uint64, []>(61559232)))];
            tensor<fp16, [768]> var_2358_to_fp16 = const()[name = tensor<string, []>("op_2358_to_fp16"), val = tensor<fp16, [768]>(BLOBFILE(path = tensor<string, []>("@model_path/weights/weight.bin"), offset = tensor<uint64, []>(66277888)))];
            tensor<fp16, [1, 32, 32, 768]> linear_50_cast_fp16 = linear(bias = var_2358_to_fp16, weight = var_2357_to_fp16, x = input_155_cast_fp16)[name = tensor<string, []>("linear_50_cast_fp16")];
            tensor<fp16, [1, 32, 32, 768]> x_199_cast_fp16 = add(x = input_149_cast_fp16, y = linear_50_cast_fp16)[name = tensor<string, []>("x_199_cast_fp16")];
            tensor<int32, [4]> var_2366 = const()[name = tensor<string, []>("op_2366"), val = tensor<int32, [4]>([0, 3, 1, 2])];
            tensor<int32, [2]> var_2372 = const()[name = tensor<string, []>("op_2372"), val = tensor<int32, [2]>([1, 1])];
            tensor<int32, [2]> var_2378 = const()[name = tensor<string, []>("op_2378"), val = tensor<int32, [2]>([1, 1])];
            tensor<int32, []> var_2383 = const()[name = tensor<string, []>("op_2383"), val = tensor<int32, []>(1)];
            tensor<string, []> x_201_pad_type_0 = const()[name = tensor<string, []>("x_201_pad_type_0"), val = tensor<string, []>("custom")];
            tensor<int32, [4]> x_201_pad_0 = const()[name = tensor<string, []>("x_201_pad_0"), val = tensor<int32, [4]>([0, 0, 0, 0])];
            tensor<fp16, [256, 768, 1, 1]> var_2368_to_fp16 = const()[name = tensor<string, []>("op_2368_to_fp16"), val = tensor<fp16, [256, 768, 1, 1]>(BLOBFILE(path = tensor<string, []>("@model_path/weights/weight.bin"), offset = tensor<uint64, []>(66279488)))];
            tensor<fp16, [256]> var_2369_to_fp16 = const()[name = tensor<string, []>("op_2369_to_fp16"), val = tensor<fp16, [256]>(BLOBFILE(path = tensor<string, []>("@model_path/weights/weight.bin"), offset = tensor<uint64, []>(66672768)))];
            tensor<fp16, [1, 768, 32, 32]> input_157_cast_fp16 = transpose(perm = var_2366, x = x_199_cast_fp16)[name = tensor<string, []>("transpose_90")];
            tensor<fp16, [1, 256, 32, 32]> x_201_cast_fp16 = conv(bias = var_2369_to_fp16, dilations = var_2378, groups = var_2383, pad = x_201_pad_0, pad_type = x_201_pad_type_0, strides = var_2372, weight = var_2368_to_fp16, x = input_157_cast_fp16)[name = tensor<string, []>("x_201_cast_fp16")];
            tensor<int32, [2]> var_2393 = const()[name = tensor<string, []>("op_2393"), val = tensor<int32, [2]>([1, 1])];
            tensor<int32, [2]> var_2399 = const()[name = tensor<string, []>("op_2399"), val = tensor<int32, [2]>([1, 1])];
            tensor<int32, []> var_2404 = const()[name = tensor<string, []>("op_2404"), val = tensor<int32, []>(1)];
            tensor<string, []> lateral_features_pad_type_0 = const()[name = tensor<string, []>("lateral_features_pad_type_0"), val = tensor<string, []>("custom")];
            tensor<int32, [4]> lateral_features_pad_0 = const()[name = tensor<string, []>("lateral_features_pad_0"), val = tensor<int32, [4]>([0, 0, 0, 0])];
            tensor<fp16, [256, 384, 1, 1]> var_2389_to_fp16 = const()[name = tensor<string, []>("op_2389_to_fp16"), val = tensor<fp16, [256, 384, 1, 1]>(BLOBFILE(path = tensor<string, []>("@model_path/weights/weight.bin"), offset = tensor<uint64, []>(66673344)))];
            tensor<fp16, [256]> var_2390_to_fp16 = const()[name = tensor<string, []>("op_2390_to_fp16"), val = tensor<fp16, [256]>(BLOBFILE(path = tensor<string, []>("@model_path/weights/weight.bin"), offset = tensor<uint64, []>(66870016)))];
            tensor<fp16, [1, 384, 64, 64]> input_159_cast_fp16 = transpose(perm = var_1848, x = x_155_cast_fp16)[name = tensor<string, []>("transpose_107")];
            tensor<fp16, [1, 256, 64, 64]> lateral_features_cast_fp16 = conv(bias = var_2390_to_fp16, dilations = var_2399, groups = var_2404, pad = lateral_features_pad_0, pad_type = lateral_features_pad_type_0, strides = var_2393, weight = var_2389_to_fp16, x = input_159_cast_fp16)[name = tensor<string, []>("lateral_features_cast_fp16")];
            tensor<fp32, []> top_down_features_scale_factor_height_0 = const()[name = tensor<string, []>("top_down_features_scale_factor_height_0"), val = tensor<fp32, []>(0x1p+1)];
            tensor<fp32, []> top_down_features_scale_factor_width_0 = const()[name = tensor<string, []>("top_down_features_scale_factor_width_0"), val = tensor<fp32, []>(0x1p+1)];
            tensor<fp16, [1, 256, 64, 64]> top_down_features_cast_fp16 = upsample_nearest_neighbor(scale_factor_height = top_down_features_scale_factor_height_0, scale_factor_width = top_down_features_scale_factor_width_0, x = x_201_cast_fp16)[name = tensor<string, []>("top_down_features_cast_fp16")];
            tensor<fp16, [1, 256, 64, 64]> x_203_cast_fp16 = add(x = lateral_features_cast_fp16, y = top_down_features_cast_fp16)[name = tensor<string, []>("x_203_cast_fp16")];
            tensor<int32, [2]> var_2426 = const()[name = tensor<string, []>("op_2426"), val = tensor<int32, [2]>([1, 1])];
            tensor<int32, [2]> var_2432 = const()[name = tensor<string, []>("op_2432"), val = tensor<int32, [2]>([1, 1])];
            tensor<int32, []> var_2437 = const()[name = tensor<string, []>("op_2437"), val = tensor<int32, []>(1)];
            tensor<string, []> x_205_pad_type_0 = const()[name = tensor<string, []>("x_205_pad_type_0"), val = tensor<string, []>("custom")];
            tensor<int32, [4]> x_205_pad_0 = const()[name = tensor<string, []>("x_205_pad_0"), val = tensor<int32, [4]>([0, 0, 0, 0])];
            tensor<fp16, [256, 192, 1, 1]> var_2422_to_fp16 = const()[name = tensor<string, []>("op_2422_to_fp16"), val = tensor<fp16, [256, 192, 1, 1]>(BLOBFILE(path = tensor<string, []>("@model_path/weights/weight.bin"), offset = tensor<uint64, []>(66870592)))];
            tensor<fp16, [256]> var_2423_to_fp16 = const()[name = tensor<string, []>("op_2423_to_fp16"), val = tensor<fp16, [256]>(BLOBFILE(path = tensor<string, []>("@model_path/weights/weight.bin"), offset = tensor<uint64, []>(66968960)))];
            tensor<fp16, [1, 192, 128, 128]> input_163_cast_fp16 = transpose(perm = var_711, x = x_55_cast_fp16)[name = tensor<string, []>("transpose_148")];
            tensor<fp16, [1, 256, 128, 128]> x_205_cast_fp16 = conv(bias = var_2423_to_fp16, dilations = var_2432, groups = var_2437, pad = x_205_pad_0, pad_type = x_205_pad_type_0, strides = var_2426, weight = var_2422_to_fp16, x = input_163_cast_fp16)[name = tensor<string, []>("x_205_cast_fp16")];
            tensor<int32, [2]> var_2447 = const()[name = tensor<string, []>("op_2447"), val = tensor<int32, [2]>([1, 1])];
            tensor<int32, [2]> var_2453 = const()[name = tensor<string, []>("op_2453"), val = tensor<int32, [2]>([1, 1])];
            tensor<int32, []> var_2458 = const()[name = tensor<string, []>("op_2458"), val = tensor<int32, []>(1)];
            tensor<string, []> x_207_pad_type_0 = const()[name = tensor<string, []>("x_207_pad_type_0"), val = tensor<string, []>("custom")];
            tensor<int32, [4]> x_207_pad_0 = const()[name = tensor<string, []>("x_207_pad_0"), val = tensor<int32, [4]>([0, 0, 0, 0])];
            tensor<fp16, [256, 96, 1, 1]> var_2443_to_fp16 = const()[name = tensor<string, []>("op_2443_to_fp16"), val = tensor<fp16, [256, 96, 1, 1]>(BLOBFILE(path = tensor<string, []>("@model_path/weights/weight.bin"), offset = tensor<uint64, []>(66969536)))];
            tensor<fp16, [256]> var_2444_to_fp16 = const()[name = tensor<string, []>("op_2444_to_fp16"), val = tensor<fp16, [256]>(BLOBFILE(path = tensor<string, []>("@model_path/weights/weight.bin"), offset = tensor<uint64, []>(67018752)))];
            tensor<fp16, [1, 96, 256, 256]> input_cast_fp16 = transpose(perm = var_263, x = x_19_cast_fp16)[name = tensor<string, []>("transpose_165")];
            tensor<fp16, [1, 256, 256, 256]> x_207_cast_fp16 = conv(bias = var_2444_to_fp16, dilations = var_2453, groups = var_2458, pad = x_207_pad_0, pad_type = x_207_pad_type_0, strides = var_2447, weight = var_2443_to_fp16, x = input_cast_fp16)[name = tensor<string, []>("x_207_cast_fp16")];
            tensor<int32, [2]> var_2468 = const()[name = tensor<string, []>("op_2468"), val = tensor<int32, [2]>([1, 1])];
            tensor<int32, [2]> var_2474 = const()[name = tensor<string, []>("op_2474"), val = tensor<int32, [2]>([1, 1])];
            tensor<int32, []> var_2479 = const()[name = tensor<string, []>("op_2479"), val = tensor<int32, []>(1)];
            tensor<string, []> x_215_pad_type_0 = const()[name = tensor<string, []>("x_215_pad_type_0"), val = tensor<string, []>("custom")];
            tensor<int32, [4]> x_215_pad_0 = const()[name = tensor<string, []>("x_215_pad_0"), val = tensor<int32, [4]>([0, 0, 0, 0])];
            tensor<fp16, [32, 256, 1, 1]> var_2464_to_fp16 = const()[name = tensor<string, []>("op_2464_to_fp16"), val = tensor<fp16, [32, 256, 1, 1]>(BLOBFILE(path = tensor<string, []>("@model_path/weights/weight.bin"), offset = tensor<uint64, []>(67019328)))];
            tensor<fp16, [32]> var_2465_to_fp16 = const()[name = tensor<string, []>("op_2465_to_fp16"), val = tensor<fp16, [32]>(BLOBFILE(path = tensor<string, []>("@model_path/weights/weight.bin"), offset = tensor<uint64, []>(67035776)))];
            tensor<fp16, [1, 32, 256, 256]> x_215_cast_fp16 = conv(bias = var_2465_to_fp16, dilations = var_2474, groups = var_2479, pad = x_215_pad_0, pad_type = x_215_pad_type_0, strides = var_2468, weight = var_2464_to_fp16, x = x_207_cast_fp16)[name = tensor<string, []>("x_215_cast_fp16")];
            tensor<int32, [2]> var_2489 = const()[name = tensor<string, []>("op_2489"), val = tensor<int32, [2]>([1, 1])];
            tensor<int32, [2]> var_2495 = const()[name = tensor<string, []>("op_2495"), val = tensor<int32, [2]>([1, 1])];
            tensor<int32, []> var_2500 = const()[name = tensor<string, []>("op_2500"), val = tensor<int32, []>(1)];
            tensor<string, []> x_pad_type_0 = const()[name = tensor<string, []>("x_pad_type_0"), val = tensor<string, []>("custom")];
            tensor<int32, [4]> x_pad_0 = const()[name = tensor<string, []>("x_pad_0"), val = tensor<int32, [4]>([0, 0, 0, 0])];
            tensor<fp16, [64, 256, 1, 1]> var_2485_to_fp16 = const()[name = tensor<string, []>("op_2485_to_fp16"), val = tensor<fp16, [64, 256, 1, 1]>(BLOBFILE(path = tensor<string, []>("@model_path/weights/weight.bin"), offset = tensor<uint64, []>(67035904)))];
            tensor<fp16, [64]> var_2486_to_fp16 = const()[name = tensor<string, []>("op_2486_to_fp16"), val = tensor<fp16, [64]>(BLOBFILE(path = tensor<string, []>("@model_path/weights/weight.bin"), offset = tensor<uint64, []>(67068736)))];
            tensor<fp16, [1, 64, 128, 128]> x_cast_fp16 = conv(bias = var_2486_to_fp16, dilations = var_2495, groups = var_2500, pad = x_pad_0, pad_type = x_pad_type_0, strides = var_2489, weight = var_2485_to_fp16, x = x_205_cast_fp16)[name = tensor<string, []>("x_cast_fp16")];
            tensor<int32, [3]> concat_2 = const()[name = tensor<string, []>("concat_2"), val = tensor<int32, [3]>([1, 256, 4096])];
            tensor<fp16, [1, 256, 4096]> var_2524_cast_fp16 = reshape(shape = concat_2, x = x_203_cast_fp16)[name = tensor<string, []>("op_2524_cast_fp16")];
            tensor<fp16, [1, 256, 1]> const_116_to_fp16 = const()[name = tensor<string, []>("const_116_to_fp16"), val = tensor<fp16, [1, 256, 1]>(BLOBFILE(path = tensor<string, []>("@model_path/weights/weight.bin"), offset = tensor<uint64, []>(67068928)))];
            tensor<fp16, [1, 256, 4096]> feat_1_cast_fp16 = add(x = var_2524_cast_fp16, y = const_116_to_fp16)[name = tensor<string, []>("feat_1_cast_fp16")];
            tensor<int32, [4]> var_2542 = const()[name = tensor<string, []>("op_2542"), val = tensor<int32, [4]>([1, -1, 64, 64])];
            tensor<fp16, [1, 256, 64, 64]> image_embedding = reshape(shape = var_2542, x = feat_1_cast_fp16)[name = tensor<string, []>("op_2543_cast_fp16")];
            tensor<int32, [4]> var_2553 = const()[name = tensor<string, []>("op_2553"), val = tensor<int32, [4]>([1, -1, 128, 128])];
            tensor<fp16, [1, 64, 128, 128]> feats_s1 = reshape(shape = var_2553, x = x_cast_fp16)[name = tensor<string, []>("feats_s1_type_fp32_cast_fp16")];
            tensor<int32, [4]> var_2564 = const()[name = tensor<string, []>("op_2564"), val = tensor<int32, [4]>([1, -1, 256, 256])];
            tensor<fp16, [1, 32, 256, 256]> feats_s0 = reshape(shape = var_2564, x = x_215_cast_fp16)[name = tensor<string, []>("feats_s0_type_fp32_cast_fp16")];
        } -> (image_embedding, feats_s0, feats_s1);
}