program(1.0)
[buildInfo = dict<tensor<string, []>, tensor<string, []>>({{"coremlc-component-MIL", "3520.4.1"}, {"coremlc-version", "3520.5.1"}, {"coremltools-component-torch", "2.7.0"}, {"coremltools-source-dialect", "TorchScript"}, {"coremltools-version", "9.0"}})]
{
    func main<ios15>(tensor<fp32, [1, 3, 640, 640]> image) {
            tensor<fp32, []> image__scaled___y_0 = const()[name = tensor<string, []>("image__scaled___y_0"), val = tensor<fp32, []>(0x1.010102p-8)];
            tensor<fp32, [1, 3, 640, 640]> image__scaled__ = mul(x = image, y = image__scaled___y_0)[name = tensor<string, []>("image__scaled__")];
            tensor<string, []> input_1_pad_type_0 = const()[name = tensor<string, []>("input_1_pad_type_0"), val = tensor<string, []>("custom")];
            tensor<int32, [4]> input_1_pad_0 = const()[name = tensor<string, []>("input_1_pad_0"), val = tensor<int32, [4]>([1, 1, 1, 1])];
            tensor<int32, [2]> input_1_strides_0 = const()[name = tensor<string, []>("input_1_strides_0"), val = tensor<int32, [2]>([2, 2])];
            tensor<int32, [2]> input_1_dilations_0 = const()[name = tensor<string, []>("input_1_dilations_0"), val = tensor<int32, [2]>([1, 1])];
            tensor<int32, []> input_1_groups_0 = const()[name = tensor<string, []>("input_1_groups_0"), val = tensor<int32, []>(1)];
            tensor<string, []> image_to_fp16_dtype_0 = const()[name = tensor<string, []>("image_to_fp16_dtype_0"), val = tensor<string, []>("fp16")];
            tensor<fp16, [16, 3, 3, 3]> model_0_conv_weight_to_fp16 = const()[name = tensor<string, []>("model_0_conv_weight_to_fp16"), val = tensor<fp16, [16, 3, 3, 3]>(BLOBFILE(path = tensor<string, []>("@model_path/weights/weight.bin"), offset = tensor<uint64, []>(64)))];
            tensor<fp16, [16]> model_0_conv_bias_to_fp16 = const()[name = tensor<string, []>("model_0_conv_bias_to_fp16"), val = tensor<fp16, [16]>(BLOBFILE(path = tensor<string, []>("@model_path/weights/weight.bin"), offset = tensor<uint64, []>(1024)))];
            tensor<fp16, [1, 3, 640, 640]> image_to_fp16 = cast(dtype = image_to_fp16_dtype_0, x = image__scaled__)[name = tensor<string, []>("cast_16")];
            tensor<fp16, [1, 16, 320, 320]> input_1_cast_fp16 = conv(bias = model_0_conv_bias_to_fp16, dilations = input_1_dilations_0, groups = input_1_groups_0, pad = input_1_pad_0, pad_type = input_1_pad_type_0, strides = input_1_strides_0, weight = model_0_conv_weight_to_fp16, x = image_to_fp16)[name = tensor<string, []>("input_1_cast_fp16")];
            tensor<fp16, [1, 16, 320, 320]> input_3_cast_fp16 = silu(x = input_1_cast_fp16)[name = tensor<string, []>("input_3_cast_fp16")];
            tensor<string, []> input_5_pad_type_0 = const()[name = tensor<string, []>("input_5_pad_type_0"), val = tensor<string, []>("custom")];
            tensor<int32, [4]> input_5_pad_0 = const()[name = tensor<string, []>("input_5_pad_0"), val = tensor<int32, [4]>([1, 1, 1, 1])];
            tensor<int32, [2]> input_5_strides_0 = const()[name = tensor<string, []>("input_5_strides_0"), val = tensor<int32, [2]>([2, 2])];
            tensor<int32, [2]> input_5_dilations_0 = const()[name = tensor<string, []>("input_5_dilations_0"), val = tensor<int32, [2]>([1, 1])];
            tensor<int32, []> input_5_groups_0 = const()[name = tensor<string, []>("input_5_groups_0"), val = tensor<int32, []>(1)];
            tensor<fp16, [32, 16, 3, 3]> model_1_conv_weight_to_fp16 = const()[name = tensor<string, []>("model_1_conv_weight_to_fp16"), val = tensor<fp16, [32, 16, 3, 3]>(BLOBFILE(path = tensor<string, []>("@model_path/weights/weight.bin"), offset = tensor<uint64, []>(1152)))];
            tensor<fp16, [32]> model_1_conv_bias_to_fp16 = const()[name = tensor<string, []>("model_1_conv_bias_to_fp16"), val = tensor<fp16, [32]>(BLOBFILE(path = tensor<string, []>("@model_path/weights/weight.bin"), offset = tensor<uint64, []>(10432)))];
            tensor<fp16, [1, 32, 160, 160]> input_5_cast_fp16 = conv(bias = model_1_conv_bias_to_fp16, dilations = input_5_dilations_0, groups = input_5_groups_0, pad = input_5_pad_0, pad_type = input_5_pad_type_0, strides = input_5_strides_0, weight = model_1_conv_weight_to_fp16, x = input_3_cast_fp16)[name = tensor<string, []>("input_5_cast_fp16")];
            tensor<fp16, [1, 32, 160, 160]> input_7_cast_fp16 = silu(x = input_5_cast_fp16)[name = tensor<string, []>("input_7_cast_fp16")];
            tensor<int32, []> var_70 = const()[name = tensor<string, []>("op_70"), val = tensor<int32, []>(1)];
            tensor<string, []> input_9_pad_type_0 = const()[name = tensor<string, []>("input_9_pad_type_0"), val = tensor<string, []>("valid")];
            tensor<int32, [2]> input_9_strides_0 = const()[name = tensor<string, []>("input_9_strides_0"), val = tensor<int32, [2]>([1, 1])];
            tensor<int32, [4]> input_9_pad_0 = const()[name = tensor<string, []>("input_9_pad_0"), val = tensor<int32, [4]>([0, 0, 0, 0])];
            tensor<int32, [2]> input_9_dilations_0 = const()[name = tensor<string, []>("input_9_dilations_0"), val = tensor<int32, [2]>([1, 1])];
            tensor<int32, []> input_9_groups_0 = const()[name = tensor<string, []>("input_9_groups_0"), val = tensor<int32, []>(1)];
            tensor<fp16, [32, 32, 1, 1]> model_2_cv1_conv_weight_to_fp16 = const()[name = tensor<string, []>("model_2_cv1_conv_weight_to_fp16"), val = tensor<fp16, [32, 32, 1, 1]>(BLOBFILE(path = tensor<string, []>("@model_path/weights/weight.bin"), offset = tensor<uint64, []>(10560)))];
            tensor<fp16, [32]> model_2_cv1_conv_bias_to_fp16 = const()[name = tensor<string, []>("model_2_cv1_conv_bias_to_fp16"), val = tensor<fp16, [32]>(BLOBFILE(path = tensor<string, []>("@model_path/weights/weight.bin"), offset = tensor<uint64, []>(12672)))];
            tensor<fp16, [1, 32, 160, 160]> input_9_cast_fp16 = conv(bias = model_2_cv1_conv_bias_to_fp16, dilations = input_9_dilations_0, groups = input_9_groups_0, pad = input_9_pad_0, pad_type = input_9_pad_type_0, strides = input_9_strides_0, weight = model_2_cv1_conv_weight_to_fp16, x = input_7_cast_fp16)[name = tensor<string, []>("input_9_cast_fp16")];
            tensor<fp16, [1, 32, 160, 160]> var_83_cast_fp16 = silu(x = input_9_cast_fp16)[name = tensor<string, []>("op_83_cast_fp16")];
            tensor<int32, [2]> var_84 = const()[name = tensor<string, []>("op_84"), val = tensor<int32, [2]>([16, 16])];
            tensor<int32, []> var_85_axis_0 = const()[name = tensor<string, []>("op_85_axis_0"), val = tensor<int32, []>(1)];
            tensor<fp16, [1, 16, 160, 160]> var_85_cast_fp16_0, tensor<fp16, [1, 16, 160, 160]> var_85_cast_fp16_1 = split(axis = var_85_axis_0, split_sizes = var_84, x = var_83_cast_fp16)[name = tensor<string, []>("op_85_cast_fp16")];
            tensor<string, []> input_13_pad_type_0 = const()[name = tensor<string, []>("input_13_pad_type_0"), val = tensor<string, []>("custom")];
            tensor<int32, [4]> input_13_pad_0 = const()[name = tensor<string, []>("input_13_pad_0"), val = tensor<int32, [4]>([1, 1, 1, 1])];
            tensor<int32, [2]> input_13_strides_0 = const()[name = tensor<string, []>("input_13_strides_0"), val = tensor<int32, [2]>([1, 1])];
            tensor<int32, [2]> input_13_dilations_0 = const()[name = tensor<string, []>("input_13_dilations_0"), val = tensor<int32, [2]>([1, 1])];
            tensor<int32, []> input_13_groups_0 = const()[name = tensor<string, []>("input_13_groups_0"), val = tensor<int32, []>(1)];
            tensor<fp16, [8, 16, 3, 3]> model_2_m_0_cv1_conv_weight_to_fp16 = const()[name = tensor<string, []>("model_2_m_0_cv1_conv_weight_to_fp16"), val = tensor<fp16, [8, 16, 3, 3]>(BLOBFILE(path = tensor<string, []>("@model_path/weights/weight.bin"), offset = tensor<uint64, []>(12800)))];
            tensor<fp16, [8]> model_2_m_0_cv1_conv_bias_to_fp16 = const()[name = tensor<string, []>("model_2_m_0_cv1_conv_bias_to_fp16"), val = tensor<fp16, [8]>([-0x1.038p-2, 0x1.834p-4, 0x1.6bcp-9, -0x1.984p-4, 0x1.ebp-2, 0x1.88cp-2, 0x1.82cp-1, 0x1.ee8p-1])];
            tensor<fp16, [1, 8, 160, 160]> input_13_cast_fp16 = conv(bias = model_2_m_0_cv1_conv_bias_to_fp16, dilations = input_13_dilations_0, groups = input_13_groups_0, pad = input_13_pad_0, pad_type = input_13_pad_type_0, strides = input_13_strides_0, weight = model_2_m_0_cv1_conv_weight_to_fp16, x = var_85_cast_fp16_1)[name = tensor<string, []>("input_13_cast_fp16")];
            tensor<fp16, [1, 8, 160, 160]> input_15_cast_fp16 = silu(x = input_13_cast_fp16)[name = tensor<string, []>("input_15_cast_fp16")];
            tensor<string, []> input_17_pad_type_0 = const()[name = tensor<string, []>("input_17_pad_type_0"), val = tensor<string, []>("custom")];
            tensor<int32, [4]> input_17_pad_0 = const()[name = tensor<string, []>("input_17_pad_0"), val = tensor<int32, [4]>([1, 1, 1, 1])];
            tensor<int32, [2]> input_17_strides_0 = const()[name = tensor<string, []>("input_17_strides_0"), val = tensor<int32, [2]>([1, 1])];
            tensor<int32, [2]> input_17_dilations_0 = const()[name = tensor<string, []>("input_17_dilations_0"), val = tensor<int32, [2]>([1, 1])];
            tensor<int32, []> input_17_groups_0 = const()[name = tensor<string, []>("input_17_groups_0"), val = tensor<int32, []>(1)];
            tensor<fp16, [16, 8, 3, 3]> model_2_m_0_cv2_conv_weight_to_fp16 = const()[name = tensor<string, []>("model_2_m_0_cv2_conv_weight_to_fp16"), val = tensor<fp16, [16, 8, 3, 3]>(BLOBFILE(path = tensor<string, []>("@model_path/weights/weight.bin"), offset = tensor<uint64, []>(15168)))];
            tensor<fp16, [16]> model_2_m_0_cv2_conv_bias_to_fp16 = const()[name = tensor<string, []>("model_2_m_0_cv2_conv_bias_to_fp16"), val = tensor<fp16, [16]>(BLOBFILE(path = tensor<string, []>("@model_path/weights/weight.bin"), offset = tensor<uint64, []>(17536)))];
            tensor<fp16, [1, 16, 160, 160]> input_17_cast_fp16 = conv(bias = model_2_m_0_cv2_conv_bias_to_fp16, dilations = input_17_dilations_0, groups = input_17_groups_0, pad = input_17_pad_0, pad_type = input_17_pad_type_0, strides = input_17_strides_0, weight = model_2_m_0_cv2_conv_weight_to_fp16, x = input_15_cast_fp16)[name = tensor<string, []>("input_17_cast_fp16")];
            tensor<fp16, [1, 16, 160, 160]> var_107_cast_fp16 = silu(x = input_17_cast_fp16)[name = tensor<string, []>("op_107_cast_fp16")];
            tensor<fp16, [1, 16, 160, 160]> var_108_cast_fp16 = add(x = var_85_cast_fp16_1, y = var_107_cast_fp16)[name = tensor<string, []>("op_108_cast_fp16")];
            tensor<bool, []> input_19_interleave_0 = const()[name = tensor<string, []>("input_19_interleave_0"), val = tensor<bool, []>(false)];
            tensor<fp16, [1, 48, 160, 160]> input_19_cast_fp16 = concat(axis = var_70, interleave = input_19_interleave_0, values = (var_85_cast_fp16_0, var_85_cast_fp16_1, var_108_cast_fp16))[name = tensor<string, []>("input_19_cast_fp16")];
            tensor<string, []> input_21_pad_type_0 = const()[name = tensor<string, []>("input_21_pad_type_0"), val = tensor<string, []>("valid")];
            tensor<int32, [2]> input_21_strides_0 = const()[name = tensor<string, []>("input_21_strides_0"), val = tensor<int32, [2]>([1, 1])];
            tensor<int32, [4]> input_21_pad_0 = const()[name = tensor<string, []>("input_21_pad_0"), val = tensor<int32, [4]>([0, 0, 0, 0])];
            tensor<int32, [2]> input_21_dilations_0 = const()[name = tensor<string, []>("input_21_dilations_0"), val = tensor<int32, [2]>([1, 1])];
            tensor<int32, []> input_21_groups_0 = const()[name = tensor<string, []>("input_21_groups_0"), val = tensor<int32, []>(1)];
            tensor<fp16, [64, 48, 1, 1]> model_2_cv2_conv_weight_to_fp16 = const()[name = tensor<string, []>("model_2_cv2_conv_weight_to_fp16"), val = tensor<fp16, [64, 48, 1, 1]>(BLOBFILE(path = tensor<string, []>("@model_path/weights/weight.bin"), offset = tensor<uint64, []>(17664)))];
            tensor<fp16, [64]> model_2_cv2_conv_bias_to_fp16 = const()[name = tensor<string, []>("model_2_cv2_conv_bias_to_fp16"), val = tensor<fp16, [64]>(BLOBFILE(path = tensor<string, []>("@model_path/weights/weight.bin"), offset = tensor<uint64, []>(23872)))];
            tensor<fp16, [1, 64, 160, 160]> input_21_cast_fp16 = conv(bias = model_2_cv2_conv_bias_to_fp16, dilations = input_21_dilations_0, groups = input_21_groups_0, pad = input_21_pad_0, pad_type = input_21_pad_type_0, strides = input_21_strides_0, weight = model_2_cv2_conv_weight_to_fp16, x = input_19_cast_fp16)[name = tensor<string, []>("input_21_cast_fp16")];
            tensor<fp16, [1, 64, 160, 160]> input_23_cast_fp16 = silu(x = input_21_cast_fp16)[name = tensor<string, []>("input_23_cast_fp16")];
            tensor<string, []> input_25_pad_type_0 = const()[name = tensor<string, []>("input_25_pad_type_0"), val = tensor<string, []>("custom")];
            tensor<int32, [4]> input_25_pad_0 = const()[name = tensor<string, []>("input_25_pad_0"), val = tensor<int32, [4]>([1, 1, 1, 1])];
            tensor<int32, [2]> input_25_strides_0 = const()[name = tensor<string, []>("input_25_strides_0"), val = tensor<int32, [2]>([2, 2])];
            tensor<int32, [2]> input_25_dilations_0 = const()[name = tensor<string, []>("input_25_dilations_0"), val = tensor<int32, [2]>([1, 1])];
            tensor<int32, []> input_25_groups_0 = const()[name = tensor<string, []>("input_25_groups_0"), val = tensor<int32, []>(1)];
            tensor<fp16, [64, 64, 3, 3]> model_3_conv_weight_to_fp16 = const()[name = tensor<string, []>("model_3_conv_weight_to_fp16"), val = tensor<fp16, [64, 64, 3, 3]>(BLOBFILE(path = tensor<string, []>("@model_path/weights/weight.bin"), offset = tensor<uint64, []>(24064)))];
            tensor<fp16, [64]> model_3_conv_bias_to_fp16 = const()[name = tensor<string, []>("model_3_conv_bias_to_fp16"), val = tensor<fp16, [64]>(BLOBFILE(path = tensor<string, []>("@model_path/weights/weight.bin"), offset = tensor<uint64, []>(97856)))];
            tensor<fp16, [1, 64, 80, 80]> input_25_cast_fp16 = conv(bias = model_3_conv_bias_to_fp16, dilations = input_25_dilations_0, groups = input_25_groups_0, pad = input_25_pad_0, pad_type = input_25_pad_type_0, strides = input_25_strides_0, weight = model_3_conv_weight_to_fp16, x = input_23_cast_fp16)[name = tensor<string, []>("input_25_cast_fp16")];
            tensor<fp16, [1, 64, 80, 80]> input_27_cast_fp16 = silu(x = input_25_cast_fp16)[name = tensor<string, []>("input_27_cast_fp16")];
            tensor<int32, []> var_138 = const()[name = tensor<string, []>("op_138"), val = tensor<int32, []>(1)];
            tensor<string, []> input_29_pad_type_0 = const()[name = tensor<string, []>("input_29_pad_type_0"), val = tensor<string, []>("valid")];
            tensor<int32, [2]> input_29_strides_0 = const()[name = tensor<string, []>("input_29_strides_0"), val = tensor<int32, [2]>([1, 1])];
            tensor<int32, [4]> input_29_pad_0 = const()[name = tensor<string, []>("input_29_pad_0"), val = tensor<int32, [4]>([0, 0, 0, 0])];
            tensor<int32, [2]> input_29_dilations_0 = const()[name = tensor<string, []>("input_29_dilations_0"), val = tensor<int32, [2]>([1, 1])];
            tensor<int32, []> input_29_groups_0 = const()[name = tensor<string, []>("input_29_groups_0"), val = tensor<int32, []>(1)];
            tensor<fp16, [64, 64, 1, 1]> model_4_cv1_conv_weight_to_fp16 = const()[name = tensor<string, []>("model_4_cv1_conv_weight_to_fp16"), val = tensor<fp16, [64, 64, 1, 1]>(BLOBFILE(path = tensor<string, []>("@model_path/weights/weight.bin"), offset = tensor<uint64, []>(98048)))];
            tensor<fp16, [64]> model_4_cv1_conv_bias_to_fp16 = const()[name = tensor<string, []>("model_4_cv1_conv_bias_to_fp16"), val = tensor<fp16, [64]>(BLOBFILE(path = tensor<string, []>("@model_path/weights/weight.bin"), offset = tensor<uint64, []>(106304)))];
            tensor<fp16, [1, 64, 80, 80]> input_29_cast_fp16 = conv(bias = model_4_cv1_conv_bias_to_fp16, dilations = input_29_dilations_0, groups = input_29_groups_0, pad = input_29_pad_0, pad_type = input_29_pad_type_0, strides = input_29_strides_0, weight = model_4_cv1_conv_weight_to_fp16, x = input_27_cast_fp16)[name = tensor<string, []>("input_29_cast_fp16")];
            tensor<fp16, [1, 64, 80, 80]> var_151_cast_fp16 = silu(x = input_29_cast_fp16)[name = tensor<string, []>("op_151_cast_fp16")];
            tensor<int32, [2]> var_152 = const()[name = tensor<string, []>("op_152"), val = tensor<int32, [2]>([32, 32])];
            tensor<int32, []> var_153_axis_0 = const()[name = tensor<string, []>("op_153_axis_0"), val = tensor<int32, []>(1)];
            tensor<fp16, [1, 32, 80, 80]> var_153_cast_fp16_0, tensor<fp16, [1, 32, 80, 80]> var_153_cast_fp16_1 = split(axis = var_153_axis_0, split_sizes = var_152, x = var_151_cast_fp16)[name = tensor<string, []>("op_153_cast_fp16")];
            tensor<string, []> input_33_pad_type_0 = const()[name = tensor<string, []>("input_33_pad_type_0"), val = tensor<string, []>("custom")];
            tensor<int32, [4]> input_33_pad_0 = const()[name = tensor<string, []>("input_33_pad_0"), val = tensor<int32, [4]>([1, 1, 1, 1])];
            tensor<int32, [2]> input_33_strides_0 = const()[name = tensor<string, []>("input_33_strides_0"), val = tensor<int32, [2]>([1, 1])];
            tensor<int32, [2]> input_33_dilations_0 = const()[name = tensor<string, []>("input_33_dilations_0"), val = tensor<int32, [2]>([1, 1])];
            tensor<int32, []> input_33_groups_0 = const()[name = tensor<string, []>("input_33_groups_0"), val = tensor<int32, []>(1)];
            tensor<fp16, [16, 32, 3, 3]> model_4_m_0_cv1_conv_weight_to_fp16 = const()[name = tensor<string, []>("model_4_m_0_cv1_conv_weight_to_fp16"), val = tensor<fp16, [16, 32, 3, 3]>(BLOBFILE(path = tensor<string, []>("@model_path/weights/weight.bin"), offset = tensor<uint64, []>(106496)))];
            tensor<fp16, [16]> model_4_m_0_cv1_conv_bias_to_fp16 = const()[name = tensor<string, []>("model_4_m_0_cv1_conv_bias_to_fp16"), val = tensor<fp16, [16]>(BLOBFILE(path = tensor<string, []>("@model_path/weights/weight.bin"), offset = tensor<uint64, []>(115776)))];
            tensor<fp16, [1, 16, 80, 80]> input_33_cast_fp16 = conv(bias = model_4_m_0_cv1_conv_bias_to_fp16, dilations = input_33_dilations_0, groups = input_33_groups_0, pad = input_33_pad_0, pad_type = input_33_pad_type_0, strides = input_33_strides_0, weight = model_4_m_0_cv1_conv_weight_to_fp16, x = var_153_cast_fp16_1)[name = tensor<string, []>("input_33_cast_fp16")];
            tensor<fp16, [1, 16, 80, 80]> input_35_cast_fp16 = silu(x = input_33_cast_fp16)[name = tensor<string, []>("input_35_cast_fp16")];
            tensor<string, []> input_37_pad_type_0 = const()[name = tensor<string, []>("input_37_pad_type_0"), val = tensor<string, []>("custom")];
            tensor<int32, [4]> input_37_pad_0 = const()[name = tensor<string, []>("input_37_pad_0"), val = tensor<int32, [4]>([1, 1, 1, 1])];
            tensor<int32, [2]> input_37_strides_0 = const()[name = tensor<string, []>("input_37_strides_0"), val = tensor<int32, [2]>([1, 1])];
            tensor<int32, [2]> input_37_dilations_0 = const()[name = tensor<string, []>("input_37_dilations_0"), val = tensor<int32, [2]>([1, 1])];
            tensor<int32, []> input_37_groups_0 = const()[name = tensor<string, []>("input_37_groups_0"), val = tensor<int32, []>(1)];
            tensor<fp16, [32, 16, 3, 3]> model_4_m_0_cv2_conv_weight_to_fp16 = const()[name = tensor<string, []>("model_4_m_0_cv2_conv_weight_to_fp16"), val = tensor<fp16, [32, 16, 3, 3]>(BLOBFILE(path = tensor<string, []>("@model_path/weights/weight.bin"), offset = tensor<uint64, []>(115904)))];
            tensor<fp16, [32]> model_4_m_0_cv2_conv_bias_to_fp16 = const()[name = tensor<string, []>("model_4_m_0_cv2_conv_bias_to_fp16"), val = tensor<fp16, [32]>(BLOBFILE(path = tensor<string, []>("@model_path/weights/weight.bin"), offset = tensor<uint64, []>(125184)))];
            tensor<fp16, [1, 32, 80, 80]> input_37_cast_fp16 = conv(bias = model_4_m_0_cv2_conv_bias_to_fp16, dilations = input_37_dilations_0, groups = input_37_groups_0, pad = input_37_pad_0, pad_type = input_37_pad_type_0, strides = input_37_strides_0, weight = model_4_m_0_cv2_conv_weight_to_fp16, x = input_35_cast_fp16)[name = tensor<string, []>("input_37_cast_fp16")];
            tensor<fp16, [1, 32, 80, 80]> var_175_cast_fp16 = silu(x = input_37_cast_fp16)[name = tensor<string, []>("op_175_cast_fp16")];
            tensor<fp16, [1, 32, 80, 80]> var_176_cast_fp16 = add(x = var_153_cast_fp16_1, y = var_175_cast_fp16)[name = tensor<string, []>("op_176_cast_fp16")];
            tensor<bool, []> input_39_interleave_0 = const()[name = tensor<string, []>("input_39_interleave_0"), val = tensor<bool, []>(false)];
            tensor<fp16, [1, 96, 80, 80]> input_39_cast_fp16 = concat(axis = var_138, interleave = input_39_interleave_0, values = (var_153_cast_fp16_0, var_153_cast_fp16_1, var_176_cast_fp16))[name = tensor<string, []>("input_39_cast_fp16")];
            tensor<string, []> input_41_pad_type_0 = const()[name = tensor<string, []>("input_41_pad_type_0"), val = tensor<string, []>("valid")];
            tensor<int32, [2]> input_41_strides_0 = const()[name = tensor<string, []>("input_41_strides_0"), val = tensor<int32, [2]>([1, 1])];
            tensor<int32, [4]> input_41_pad_0 = const()[name = tensor<string, []>("input_41_pad_0"), val = tensor<int32, [4]>([0, 0, 0, 0])];
            tensor<int32, [2]> input_41_dilations_0 = const()[name = tensor<string, []>("input_41_dilations_0"), val = tensor<int32, [2]>([1, 1])];
            tensor<int32, []> input_41_groups_0 = const()[name = tensor<string, []>("input_41_groups_0"), val = tensor<int32, []>(1)];
            tensor<fp16, [128, 96, 1, 1]> model_4_cv2_conv_weight_to_fp16 = const()[name = tensor<string, []>("model_4_cv2_conv_weight_to_fp16"), val = tensor<fp16, [128, 96, 1, 1]>(BLOBFILE(path = tensor<string, []>("@model_path/weights/weight.bin"), offset = tensor<uint64, []>(125312)))];
            tensor<fp16, [128]> model_4_cv2_conv_bias_to_fp16 = const()[name = tensor<string, []>("model_4_cv2_conv_bias_to_fp16"), val = tensor<fp16, [128]>(BLOBFILE(path = tensor<string, []>("@model_path/weights/weight.bin"), offset = tensor<uint64, []>(149952)))];
            tensor<fp16, [1, 128, 80, 80]> input_41_cast_fp16 = conv(bias = model_4_cv2_conv_bias_to_fp16, dilations = input_41_dilations_0, groups = input_41_groups_0, pad = input_41_pad_0, pad_type = input_41_pad_type_0, strides = input_41_strides_0, weight = model_4_cv2_conv_weight_to_fp16, x = input_39_cast_fp16)[name = tensor<string, []>("input_41_cast_fp16")];
            tensor<fp16, [1, 128, 80, 80]> input_43_cast_fp16 = silu(x = input_41_cast_fp16)[name = tensor<string, []>("input_43_cast_fp16")];
            tensor<string, []> input_45_pad_type_0 = const()[name = tensor<string, []>("input_45_pad_type_0"), val = tensor<string, []>("custom")];
            tensor<int32, [4]> input_45_pad_0 = const()[name = tensor<string, []>("input_45_pad_0"), val = tensor<int32, [4]>([1, 1, 1, 1])];
            tensor<int32, [2]> input_45_strides_0 = const()[name = tensor<string, []>("input_45_strides_0"), val = tensor<int32, [2]>([2, 2])];
            tensor<int32, [2]> input_45_dilations_0 = const()[name = tensor<string, []>("input_45_dilations_0"), val = tensor<int32, [2]>([1, 1])];
            tensor<int32, []> input_45_groups_0 = const()[name = tensor<string, []>("input_45_groups_0"), val = tensor<int32, []>(1)];
            tensor<fp16, [128, 128, 3, 3]> model_5_conv_weight_to_fp16 = const()[name = tensor<string, []>("model_5_conv_weight_to_fp16"), val = tensor<fp16, [128, 128, 3, 3]>(BLOBFILE(path = tensor<string, []>("@model_path/weights/weight.bin"), offset = tensor<uint64, []>(150272)))];
            tensor<fp16, [128]> model_5_conv_bias_to_fp16 = const()[name = tensor<string, []>("model_5_conv_bias_to_fp16"), val = tensor<fp16, [128]>(BLOBFILE(path = tensor<string, []>("@model_path/weights/weight.bin"), offset = tensor<uint64, []>(445248)))];
            tensor<fp16, [1, 128, 40, 40]> input_45_cast_fp16 = conv(bias = model_5_conv_bias_to_fp16, dilations = input_45_dilations_0, groups = input_45_groups_0, pad = input_45_pad_0, pad_type = input_45_pad_type_0, strides = input_45_strides_0, weight = model_5_conv_weight_to_fp16, x = input_43_cast_fp16)[name = tensor<string, []>("input_45_cast_fp16")];
            tensor<fp16, [1, 128, 40, 40]> input_47_cast_fp16 = silu(x = input_45_cast_fp16)[name = tensor<string, []>("input_47_cast_fp16")];
            tensor<int32, []> var_206 = const()[name = tensor<string, []>("op_206"), val = tensor<int32, []>(1)];
            tensor<string, []> input_49_pad_type_0 = const()[name = tensor<string, []>("input_49_pad_type_0"), val = tensor<string, []>("valid")];
            tensor<int32, [2]> input_49_strides_0 = const()[name = tensor<string, []>("input_49_strides_0"), val = tensor<int32, [2]>([1, 1])];
            tensor<int32, [4]> input_49_pad_0 = const()[name = tensor<string, []>("input_49_pad_0"), val = tensor<int32, [4]>([0, 0, 0, 0])];
            tensor<int32, [2]> input_49_dilations_0 = const()[name = tensor<string, []>("input_49_dilations_0"), val = tensor<int32, [2]>([1, 1])];
            tensor<int32, []> input_49_groups_0 = const()[name = tensor<string, []>("input_49_groups_0"), val = tensor<int32, []>(1)];
            tensor<fp16, [128, 128, 1, 1]> model_6_cv1_conv_weight_to_fp16 = const()[name = tensor<string, []>("model_6_cv1_conv_weight_to_fp16"), val = tensor<fp16, [128, 128, 1, 1]>(BLOBFILE(path = tensor<string, []>("@model_path/weights/weight.bin"), offset = tensor<uint64, []>(445568)))];
            tensor<fp16, [128]> model_6_cv1_conv_bias_to_fp16 = const()[name = tensor<string, []>("model_6_cv1_conv_bias_to_fp16"), val = tensor<fp16, [128]>(BLOBFILE(path = tensor<string, []>("@model_path/weights/weight.bin"), offset = tensor<uint64, []>(478400)))];
            tensor<fp16, [1, 128, 40, 40]> input_49_cast_fp16 = conv(bias = model_6_cv1_conv_bias_to_fp16, dilations = input_49_dilations_0, groups = input_49_groups_0, pad = input_49_pad_0, pad_type = input_49_pad_type_0, strides = input_49_strides_0, weight = model_6_cv1_conv_weight_to_fp16, x = input_47_cast_fp16)[name = tensor<string, []>("input_49_cast_fp16")];
            tensor<fp16, [1, 128, 40, 40]> var_219_cast_fp16 = silu(x = input_49_cast_fp16)[name = tensor<string, []>("op_219_cast_fp16")];
            tensor<int32, [2]> var_220 = const()[name = tensor<string, []>("op_220"), val = tensor<int32, [2]>([64, 64])];
            tensor<int32, []> var_221_axis_0 = const()[name = tensor<string, []>("op_221_axis_0"), val = tensor<int32, []>(1)];
            tensor<fp16, [1, 64, 40, 40]> var_221_cast_fp16_0, tensor<fp16, [1, 64, 40, 40]> var_221_cast_fp16_1 = split(axis = var_221_axis_0, split_sizes = var_220, x = var_219_cast_fp16)[name = tensor<string, []>("op_221_cast_fp16")];
            tensor<string, []> input_53_pad_type_0 = const()[name = tensor<string, []>("input_53_pad_type_0"), val = tensor<string, []>("valid")];
            tensor<int32, [2]> input_53_strides_0 = const()[name = tensor<string, []>("input_53_strides_0"), val = tensor<int32, [2]>([1, 1])];
            tensor<int32, [4]> input_53_pad_0 = const()[name = tensor<string, []>("input_53_pad_0"), val = tensor<int32, [4]>([0, 0, 0, 0])];
            tensor<int32, [2]> input_53_dilations_0 = const()[name = tensor<string, []>("input_53_dilations_0"), val = tensor<int32, [2]>([1, 1])];
            tensor<int32, []> input_53_groups_0 = const()[name = tensor<string, []>("input_53_groups_0"), val = tensor<int32, []>(1)];
            tensor<fp16, [32, 64, 1, 1]> model_6_m_0_cv1_conv_weight_to_fp16 = const()[name = tensor<string, []>("model_6_m_0_cv1_conv_weight_to_fp16"), val = tensor<fp16, [32, 64, 1, 1]>(BLOBFILE(path = tensor<string, []>("@model_path/weights/weight.bin"), offset = tensor<uint64, []>(478720)))];
            tensor<fp16, [32]> model_6_m_0_cv1_conv_bias_to_fp16 = const()[name = tensor<string, []>("model_6_m_0_cv1_conv_bias_to_fp16"), val = tensor<fp16, [32]>(BLOBFILE(path = tensor<string, []>("@model_path/weights/weight.bin"), offset = tensor<uint64, []>(482880)))];
            tensor<fp16, [1, 32, 40, 40]> input_53_cast_fp16 = conv(bias = model_6_m_0_cv1_conv_bias_to_fp16, dilations = input_53_dilations_0, groups = input_53_groups_0, pad = input_53_pad_0, pad_type = input_53_pad_type_0, strides = input_53_strides_0, weight = model_6_m_0_cv1_conv_weight_to_fp16, x = var_221_cast_fp16_1)[name = tensor<string, []>("input_53_cast_fp16")];
            tensor<fp16, [1, 32, 40, 40]> input_55_cast_fp16 = silu(x = input_53_cast_fp16)[name = tensor<string, []>("input_55_cast_fp16")];
            tensor<string, []> input_57_pad_type_0 = const()[name = tensor<string, []>("input_57_pad_type_0"), val = tensor<string, []>("custom")];
            tensor<int32, [4]> input_57_pad_0 = const()[name = tensor<string, []>("input_57_pad_0"), val = tensor<int32, [4]>([1, 1, 1, 1])];
            tensor<int32, [2]> input_57_strides_0 = const()[name = tensor<string, []>("input_57_strides_0"), val = tensor<int32, [2]>([1, 1])];
            tensor<int32, [2]> input_57_dilations_0 = const()[name = tensor<string, []>("input_57_dilations_0"), val = tensor<int32, [2]>([1, 1])];
            tensor<int32, []> input_57_groups_0 = const()[name = tensor<string, []>("input_57_groups_0"), val = tensor<int32, []>(1)];
            tensor<fp16, [32, 32, 3, 3]> model_6_m_0_m_0_cv1_conv_weight_to_fp16 = const()[name = tensor<string, []>("model_6_m_0_m_0_cv1_conv_weight_to_fp16"), val = tensor<fp16, [32, 32, 3, 3]>(BLOBFILE(path = tensor<string, []>("@model_path/weights/weight.bin"), offset = tensor<uint64, []>(483008)))];
            tensor<fp16, [32]> model_6_m_0_m_0_cv1_conv_bias_to_fp16 = const()[name = tensor<string, []>("model_6_m_0_m_0_cv1_conv_bias_to_fp16"), val = tensor<fp16, [32]>(BLOBFILE(path = tensor<string, []>("@model_path/weights/weight.bin"), offset = tensor<uint64, []>(501504)))];
            tensor<fp16, [1, 32, 40, 40]> input_57_cast_fp16 = conv(bias = model_6_m_0_m_0_cv1_conv_bias_to_fp16, dilations = input_57_dilations_0, groups = input_57_groups_0, pad = input_57_pad_0, pad_type = input_57_pad_type_0, strides = input_57_strides_0, weight = model_6_m_0_m_0_cv1_conv_weight_to_fp16, x = input_55_cast_fp16)[name = tensor<string, []>("input_57_cast_fp16")];
            tensor<fp16, [1, 32, 40, 40]> input_59_cast_fp16 = silu(x = input_57_cast_fp16)[name = tensor<string, []>("input_59_cast_fp16")];
            tensor<string, []> input_61_pad_type_0 = const()[name = tensor<string, []>("input_61_pad_type_0"), val = tensor<string, []>("custom")];
            tensor<int32, [4]> input_61_pad_0 = const()[name = tensor<string, []>("input_61_pad_0"), val = tensor<int32, [4]>([1, 1, 1, 1])];
            tensor<int32, [2]> input_61_strides_0 = const()[name = tensor<string, []>("input_61_strides_0"), val = tensor<int32, [2]>([1, 1])];
            tensor<int32, [2]> input_61_dilations_0 = const()[name = tensor<string, []>("input_61_dilations_0"), val = tensor<int32, [2]>([1, 1])];
            tensor<int32, []> input_61_groups_0 = const()[name = tensor<string, []>("input_61_groups_0"), val = tensor<int32, []>(1)];
            tensor<fp16, [32, 32, 3, 3]> model_6_m_0_m_0_cv2_conv_weight_to_fp16 = const()[name = tensor<string, []>("model_6_m_0_m_0_cv2_conv_weight_to_fp16"), val = tensor<fp16, [32, 32, 3, 3]>(BLOBFILE(path = tensor<string, []>("@model_path/weights/weight.bin"), offset = tensor<uint64, []>(501632)))];
            tensor<fp16, [32]> model_6_m_0_m_0_cv2_conv_bias_to_fp16 = const()[name = tensor<string, []>("model_6_m_0_m_0_cv2_conv_bias_to_fp16"), val = tensor<fp16, [32]>(BLOBFILE(path = tensor<string, []>("@model_path/weights/weight.bin"), offset = tensor<uint64, []>(520128)))];
            tensor<fp16, [1, 32, 40, 40]> input_61_cast_fp16 = conv(bias = model_6_m_0_m_0_cv2_conv_bias_to_fp16, dilations = input_61_dilations_0, groups = input_61_groups_0, pad = input_61_pad_0, pad_type = input_61_pad_type_0, strides = input_61_strides_0, weight = model_6_m_0_m_0_cv2_conv_weight_to_fp16, x = input_59_cast_fp16)[name = tensor<string, []>("input_61_cast_fp16")];
            tensor<fp16, [1, 32, 40, 40]> var_258_cast_fp16 = silu(x = input_61_cast_fp16)[name = tensor<string, []>("op_258_cast_fp16")];
            tensor<fp16, [1, 32, 40, 40]> input_63_cast_fp16 = add(x = input_55_cast_fp16, y = var_258_cast_fp16)[name = tensor<string, []>("input_63_cast_fp16")];
            tensor<string, []> input_65_pad_type_0 = const()[name = tensor<string, []>("input_65_pad_type_0"), val = tensor<string, []>("custom")];
            tensor<int32, [4]> input_65_pad_0 = const()[name = tensor<string, []>("input_65_pad_0"), val = tensor<int32, [4]>([1, 1, 1, 1])];
            tensor<int32, [2]> input_65_strides_0 = const()[name = tensor<string, []>("input_65_strides_0"), val = tensor<int32, [2]>([1, 1])];
            tensor<int32, [2]> input_65_dilations_0 = const()[name = tensor<string, []>("input_65_dilations_0"), val = tensor<int32, [2]>([1, 1])];
            tensor<int32, []> input_65_groups_0 = const()[name = tensor<string, []>("input_65_groups_0"), val = tensor<int32, []>(1)];
            tensor<fp16, [32, 32, 3, 3]> model_6_m_0_m_1_cv1_conv_weight_to_fp16 = const()[name = tensor<string, []>("model_6_m_0_m_1_cv1_conv_weight_to_fp16"), val = tensor<fp16, [32, 32, 3, 3]>(BLOBFILE(path = tensor<string, []>("@model_path/weights/weight.bin"), offset = tensor<uint64, []>(520256)))];
            tensor<fp16, [32]> model_6_m_0_m_1_cv1_conv_bias_to_fp16 = const()[name = tensor<string, []>("model_6_m_0_m_1_cv1_conv_bias_to_fp16"), val = tensor<fp16, [32]>(BLOBFILE(path = tensor<string, []>("@model_path/weights/weight.bin"), offset = tensor<uint64, []>(538752)))];
            tensor<fp16, [1, 32, 40, 40]> input_65_cast_fp16 = conv(bias = model_6_m_0_m_1_cv1_conv_bias_to_fp16, dilations = input_65_dilations_0, groups = input_65_groups_0, pad = input_65_pad_0, pad_type = input_65_pad_type_0, strides = input_65_strides_0, weight = model_6_m_0_m_1_cv1_conv_weight_to_fp16, x = input_63_cast_fp16)[name = tensor<string, []>("input_65_cast_fp16")];
            tensor<fp16, [1, 32, 40, 40]> input_67_cast_fp16 = silu(x = input_65_cast_fp16)[name = tensor<string, []>("input_67_cast_fp16")];
            tensor<string, []> input_69_pad_type_0 = const()[name = tensor<string, []>("input_69_pad_type_0"), val = tensor<string, []>("custom")];
            tensor<int32, [4]> input_69_pad_0 = const()[name = tensor<string, []>("input_69_pad_0"), val = tensor<int32, [4]>([1, 1, 1, 1])];
            tensor<int32, [2]> input_69_strides_0 = const()[name = tensor<string, []>("input_69_strides_0"), val = tensor<int32, [2]>([1, 1])];
            tensor<int32, [2]> input_69_dilations_0 = const()[name = tensor<string, []>("input_69_dilations_0"), val = tensor<int32, [2]>([1, 1])];
            tensor<int32, []> input_69_groups_0 = const()[name = tensor<string, []>("input_69_groups_0"), val = tensor<int32, []>(1)];
            tensor<fp16, [32, 32, 3, 3]> model_6_m_0_m_1_cv2_conv_weight_to_fp16 = const()[name = tensor<string, []>("model_6_m_0_m_1_cv2_conv_weight_to_fp16"), val = tensor<fp16, [32, 32, 3, 3]>(BLOBFILE(path = tensor<string, []>("@model_path/weights/weight.bin"), offset = tensor<uint64, []>(538880)))];
            tensor<fp16, [32]> model_6_m_0_m_1_cv2_conv_bias_to_fp16 = const()[name = tensor<string, []>("model_6_m_0_m_1_cv2_conv_bias_to_fp16"), val = tensor<fp16, [32]>(BLOBFILE(path = tensor<string, []>("@model_path/weights/weight.bin"), offset = tensor<uint64, []>(557376)))];
            tensor<fp16, [1, 32, 40, 40]> input_69_cast_fp16 = conv(bias = model_6_m_0_m_1_cv2_conv_bias_to_fp16, dilations = input_69_dilations_0, groups = input_69_groups_0, pad = input_69_pad_0, pad_type = input_69_pad_type_0, strides = input_69_strides_0, weight = model_6_m_0_m_1_cv2_conv_weight_to_fp16, x = input_67_cast_fp16)[name = tensor<string, []>("input_69_cast_fp16")];
            tensor<fp16, [1, 32, 40, 40]> var_279_cast_fp16 = silu(x = input_69_cast_fp16)[name = tensor<string, []>("op_279_cast_fp16")];
            tensor<fp16, [1, 32, 40, 40]> var_280_cast_fp16 = add(x = input_63_cast_fp16, y = var_279_cast_fp16)[name = tensor<string, []>("op_280_cast_fp16")];
            tensor<string, []> input_71_pad_type_0 = const()[name = tensor<string, []>("input_71_pad_type_0"), val = tensor<string, []>("valid")];
            tensor<int32, [2]> input_71_strides_0 = const()[name = tensor<string, []>("input_71_strides_0"), val = tensor<int32, [2]>([1, 1])];
            tensor<int32, [4]> input_71_pad_0 = const()[name = tensor<string, []>("input_71_pad_0"), val = tensor<int32, [4]>([0, 0, 0, 0])];
            tensor<int32, [2]> input_71_dilations_0 = const()[name = tensor<string, []>("input_71_dilations_0"), val = tensor<int32, [2]>([1, 1])];
            tensor<int32, []> input_71_groups_0 = const()[name = tensor<string, []>("input_71_groups_0"), val = tensor<int32, []>(1)];
            tensor<fp16, [32, 64, 1, 1]> model_6_m_0_cv2_conv_weight_to_fp16 = const()[name = tensor<string, []>("model_6_m_0_cv2_conv_weight_to_fp16"), val = tensor<fp16, [32, 64, 1, 1]>(BLOBFILE(path = tensor<string, []>("@model_path/weights/weight.bin"), offset = tensor<uint64, []>(557504)))];
            tensor<fp16, [32]> model_6_m_0_cv2_conv_bias_to_fp16 = const()[name = tensor<string, []>("model_6_m_0_cv2_conv_bias_to_fp16"), val = tensor<fp16, [32]>(BLOBFILE(path = tensor<string, []>("@model_path/weights/weight.bin"), offset = tensor<uint64, []>(561664)))];
            tensor<fp16, [1, 32, 40, 40]> input_71_cast_fp16 = conv(bias = model_6_m_0_cv2_conv_bias_to_fp16, dilations = input_71_dilations_0, groups = input_71_groups_0, pad = input_71_pad_0, pad_type = input_71_pad_type_0, strides = input_71_strides_0, weight = model_6_m_0_cv2_conv_weight_to_fp16, x = var_221_cast_fp16_1)[name = tensor<string, []>("input_71_cast_fp16")];
            tensor<fp16, [1, 32, 40, 40]> var_289_cast_fp16 = silu(x = input_71_cast_fp16)[name = tensor<string, []>("op_289_cast_fp16")];
            tensor<bool, []> input_73_interleave_0 = const()[name = tensor<string, []>("input_73_interleave_0"), val = tensor<bool, []>(false)];
            tensor<fp16, [1, 64, 40, 40]> input_73_cast_fp16 = concat(axis = var_206, interleave = input_73_interleave_0, values = (var_280_cast_fp16, var_289_cast_fp16))[name = tensor<string, []>("input_73_cast_fp16")];
            tensor<string, []> input_75_pad_type_0 = const()[name = tensor<string, []>("input_75_pad_type_0"), val = tensor<string, []>("valid")];
            tensor<int32, [2]> input_75_strides_0 = const()[name = tensor<string, []>("input_75_strides_0"), val = tensor<int32, [2]>([1, 1])];
            tensor<int32, [4]> input_75_pad_0 = const()[name = tensor<string, []>("input_75_pad_0"), val = tensor<int32, [4]>([0, 0, 0, 0])];
            tensor<int32, [2]> input_75_dilations_0 = const()[name = tensor<string, []>("input_75_dilations_0"), val = tensor<int32, [2]>([1, 1])];
            tensor<int32, []> input_75_groups_0 = const()[name = tensor<string, []>("input_75_groups_0"), val = tensor<int32, []>(1)];
            tensor<fp16, [64, 64, 1, 1]> model_6_m_0_cv3_conv_weight_to_fp16 = const()[name = tensor<string, []>("model_6_m_0_cv3_conv_weight_to_fp16"), val = tensor<fp16, [64, 64, 1, 1]>(BLOBFILE(path = tensor<string, []>("@model_path/weights/weight.bin"), offset = tensor<uint64, []>(561792)))];
            tensor<fp16, [64]> model_6_m_0_cv3_conv_bias_to_fp16 = const()[name = tensor<string, []>("model_6_m_0_cv3_conv_bias_to_fp16"), val = tensor<fp16, [64]>(BLOBFILE(path = tensor<string, []>("@model_path/weights/weight.bin"), offset = tensor<uint64, []>(570048)))];
            tensor<fp16, [1, 64, 40, 40]> input_75_cast_fp16 = conv(bias = model_6_m_0_cv3_conv_bias_to_fp16, dilations = input_75_dilations_0, groups = input_75_groups_0, pad = input_75_pad_0, pad_type = input_75_pad_type_0, strides = input_75_strides_0, weight = model_6_m_0_cv3_conv_weight_to_fp16, x = input_73_cast_fp16)[name = tensor<string, []>("input_75_cast_fp16")];
            tensor<fp16, [1, 64, 40, 40]> var_300_cast_fp16 = silu(x = input_75_cast_fp16)[name = tensor<string, []>("op_300_cast_fp16")];
            tensor<bool, []> input_77_interleave_0 = const()[name = tensor<string, []>("input_77_interleave_0"), val = tensor<bool, []>(false)];
            tensor<fp16, [1, 192, 40, 40]> input_77_cast_fp16 = concat(axis = var_206, interleave = input_77_interleave_0, values = (var_221_cast_fp16_0, var_221_cast_fp16_1, var_300_cast_fp16))[name = tensor<string, []>("input_77_cast_fp16")];
            tensor<string, []> input_79_pad_type_0 = const()[name = tensor<string, []>("input_79_pad_type_0"), val = tensor<string, []>("valid")];
            tensor<int32, [2]> input_79_strides_0 = const()[name = tensor<string, []>("input_79_strides_0"), val = tensor<int32, [2]>([1, 1])];
            tensor<int32, [4]> input_79_pad_0 = const()[name = tensor<string, []>("input_79_pad_0"), val = tensor<int32, [4]>([0, 0, 0, 0])];
            tensor<int32, [2]> input_79_dilations_0 = const()[name = tensor<string, []>("input_79_dilations_0"), val = tensor<int32, [2]>([1, 1])];
            tensor<int32, []> input_79_groups_0 = const()[name = tensor<string, []>("input_79_groups_0"), val = tensor<int32, []>(1)];
            tensor<fp16, [128, 192, 1, 1]> model_6_cv2_conv_weight_to_fp16 = const()[name = tensor<string, []>("model_6_cv2_conv_weight_to_fp16"), val = tensor<fp16, [128, 192, 1, 1]>(BLOBFILE(path = tensor<string, []>("@model_path/weights/weight.bin"), offset = tensor<uint64, []>(570240)))];
            tensor<fp16, [128]> model_6_cv2_conv_bias_to_fp16 = const()[name = tensor<string, []>("model_6_cv2_conv_bias_to_fp16"), val = tensor<fp16, [128]>(BLOBFILE(path = tensor<string, []>("@model_path/weights/weight.bin"), offset = tensor<uint64, []>(619456)))];
            tensor<fp16, [1, 128, 40, 40]> input_79_cast_fp16 = conv(bias = model_6_cv2_conv_bias_to_fp16, dilations = input_79_dilations_0, groups = input_79_groups_0, pad = input_79_pad_0, pad_type = input_79_pad_type_0, strides = input_79_strides_0, weight = model_6_cv2_conv_weight_to_fp16, x = input_77_cast_fp16)[name = tensor<string, []>("input_79_cast_fp16")];
            tensor<fp16, [1, 128, 40, 40]> input_81_cast_fp16 = silu(x = input_79_cast_fp16)[name = tensor<string, []>("input_81_cast_fp16")];
            tensor<string, []> input_83_pad_type_0 = const()[name = tensor<string, []>("input_83_pad_type_0"), val = tensor<string, []>("custom")];
            tensor<int32, [4]> input_83_pad_0 = const()[name = tensor<string, []>("input_83_pad_0"), val = tensor<int32, [4]>([1, 1, 1, 1])];
            tensor<int32, [2]> input_83_strides_0 = const()[name = tensor<string, []>("input_83_strides_0"), val = tensor<int32, [2]>([2, 2])];
            tensor<int32, [2]> input_83_dilations_0 = const()[name = tensor<string, []>("input_83_dilations_0"), val = tensor<int32, [2]>([1, 1])];
            tensor<int32, []> input_83_groups_0 = const()[name = tensor<string, []>("input_83_groups_0"), val = tensor<int32, []>(1)];
            tensor<fp16, [256, 128, 3, 3]> model_7_conv_weight_to_fp16 = const()[name = tensor<string, []>("model_7_conv_weight_to_fp16"), val = tensor<fp16, [256, 128, 3, 3]>(BLOBFILE(path = tensor<string, []>("@model_path/weights/weight.bin"), offset = tensor<uint64, []>(619776)))];
            tensor<fp16, [256]> model_7_conv_bias_to_fp16 = const()[name = tensor<string, []>("model_7_conv_bias_to_fp16"), val = tensor<fp16, [256]>(BLOBFILE(path = tensor<string, []>("@model_path/weights/weight.bin"), offset = tensor<uint64, []>(1209664)))];
            tensor<fp16, [1, 256, 20, 20]> input_83_cast_fp16 = conv(bias = model_7_conv_bias_to_fp16, dilations = input_83_dilations_0, groups = input_83_groups_0, pad = input_83_pad_0, pad_type = input_83_pad_type_0, strides = input_83_strides_0, weight = model_7_conv_weight_to_fp16, x = input_81_cast_fp16)[name = tensor<string, []>("input_83_cast_fp16")];
            tensor<fp16, [1, 256, 20, 20]> input_85_cast_fp16 = silu(x = input_83_cast_fp16)[name = tensor<string, []>("input_85_cast_fp16")];
            tensor<int32, []> var_330 = const()[name = tensor<string, []>("op_330"), val = tensor<int32, []>(1)];
            tensor<string, []> input_87_pad_type_0 = const()[name = tensor<string, []>("input_87_pad_type_0"), val = tensor<string, []>("valid")];
            tensor<int32, [2]> input_87_strides_0 = const()[name = tensor<string, []>("input_87_strides_0"), val = tensor<int32, [2]>([1, 1])];
            tensor<int32, [4]> input_87_pad_0 = const()[name = tensor<string, []>("input_87_pad_0"), val = tensor<int32, [4]>([0, 0, 0, 0])];
            tensor<int32, [2]> input_87_dilations_0 = const()[name = tensor<string, []>("input_87_dilations_0"), val = tensor<int32, [2]>([1, 1])];
            tensor<int32, []> input_87_groups_0 = const()[name = tensor<string, []>("input_87_groups_0"), val = tensor<int32, []>(1)];
            tensor<fp16, [256, 256, 1, 1]> model_8_cv1_conv_weight_to_fp16 = const()[name = tensor<string, []>("model_8_cv1_conv_weight_to_fp16"), val = tensor<fp16, [256, 256, 1, 1]>(BLOBFILE(path = tensor<string, []>("@model_path/weights/weight.bin"), offset = tensor<uint64, []>(1210240)))];
            tensor<fp16, [256]> model_8_cv1_conv_bias_to_fp16 = const()[name = tensor<string, []>("model_8_cv1_conv_bias_to_fp16"), val = tensor<fp16, [256]>(BLOBFILE(path = tensor<string, []>("@model_path/weights/weight.bin"), offset = tensor<uint64, []>(1341376)))];
            tensor<fp16, [1, 256, 20, 20]> input_87_cast_fp16 = conv(bias = model_8_cv1_conv_bias_to_fp16, dilations = input_87_dilations_0, groups = input_87_groups_0, pad = input_87_pad_0, pad_type = input_87_pad_type_0, strides = input_87_strides_0, weight = model_8_cv1_conv_weight_to_fp16, x = input_85_cast_fp16)[name = tensor<string, []>("input_87_cast_fp16")];
            tensor<fp16, [1, 256, 20, 20]> var_343_cast_fp16 = silu(x = input_87_cast_fp16)[name = tensor<string, []>("op_343_cast_fp16")];
            tensor<int32, [2]> var_344 = const()[name = tensor<string, []>("op_344"), val = tensor<int32, [2]>([128, 128])];
            tensor<int32, []> var_345_axis_0 = const()[name = tensor<string, []>("op_345_axis_0"), val = tensor<int32, []>(1)];
            tensor<fp16, [1, 128, 20, 20]> var_345_cast_fp16_0, tensor<fp16, [1, 128, 20, 20]> var_345_cast_fp16_1 = split(axis = var_345_axis_0, split_sizes = var_344, x = var_343_cast_fp16)[name = tensor<string, []>("op_345_cast_fp16")];
            tensor<string, []> input_91_pad_type_0 = const()[name = tensor<string, []>("input_91_pad_type_0"), val = tensor<string, []>("valid")];
            tensor<int32, [2]> input_91_strides_0 = const()[name = tensor<string, []>("input_91_strides_0"), val = tensor<int32, [2]>([1, 1])];
            tensor<int32, [4]> input_91_pad_0 = const()[name = tensor<string, []>("input_91_pad_0"), val = tensor<int32, [4]>([0, 0, 0, 0])];
            tensor<int32, [2]> input_91_dilations_0 = const()[name = tensor<string, []>("input_91_dilations_0"), val = tensor<int32, [2]>([1, 1])];
            tensor<int32, []> input_91_groups_0 = const()[name = tensor<string, []>("input_91_groups_0"), val = tensor<int32, []>(1)];
            tensor<fp16, [64, 128, 1, 1]> model_8_m_0_cv1_conv_weight_to_fp16 = const()[name = tensor<string, []>("model_8_m_0_cv1_conv_weight_to_fp16"), val = tensor<fp16, [64, 128, 1, 1]>(BLOBFILE(path = tensor<string, []>("@model_path/weights/weight.bin"), offset = tensor<uint64, []>(1341952)))];
            tensor<fp16, [64]> model_8_m_0_cv1_conv_bias_to_fp16 = const()[name = tensor<string, []>("model_8_m_0_cv1_conv_bias_to_fp16"), val = tensor<fp16, [64]>(BLOBFILE(path = tensor<string, []>("@model_path/weights/weight.bin"), offset = tensor<uint64, []>(1358400)))];
            tensor<fp16, [1, 64, 20, 20]> input_91_cast_fp16 = conv(bias = model_8_m_0_cv1_conv_bias_to_fp16, dilations = input_91_dilations_0, groups = input_91_groups_0, pad = input_91_pad_0, pad_type = input_91_pad_type_0, strides = input_91_strides_0, weight = model_8_m_0_cv1_conv_weight_to_fp16, x = var_345_cast_fp16_1)[name = tensor<string, []>("input_91_cast_fp16")];
            tensor<fp16, [1, 64, 20, 20]> input_93_cast_fp16 = silu(x = input_91_cast_fp16)[name = tensor<string, []>("input_93_cast_fp16")];
            tensor<string, []> input_95_pad_type_0 = const()[name = tensor<string, []>("input_95_pad_type_0"), val = tensor<string, []>("custom")];
            tensor<int32, [4]> input_95_pad_0 = const()[name = tensor<string, []>("input_95_pad_0"), val = tensor<int32, [4]>([1, 1, 1, 1])];
            tensor<int32, [2]> input_95_strides_0 = const()[name = tensor<string, []>("input_95_strides_0"), val = tensor<int32, [2]>([1, 1])];
            tensor<int32, [2]> input_95_dilations_0 = const()[name = tensor<string, []>("input_95_dilations_0"), val = tensor<int32, [2]>([1, 1])];
            tensor<int32, []> input_95_groups_0 = const()[name = tensor<string, []>("input_95_groups_0"), val = tensor<int32, []>(1)];
            tensor<fp16, [64, 64, 3, 3]> model_8_m_0_m_0_cv1_conv_weight_to_fp16 = const()[name = tensor<string, []>("model_8_m_0_m_0_cv1_conv_weight_to_fp16"), val = tensor<fp16, [64, 64, 3, 3]>(BLOBFILE(path = tensor<string, []>("@model_path/weights/weight.bin"), offset = tensor<uint64, []>(1358592)))];
            tensor<fp16, [64]> model_8_m_0_m_0_cv1_conv_bias_to_fp16 = const()[name = tensor<string, []>("model_8_m_0_m_0_cv1_conv_bias_to_fp16"), val = tensor<fp16, [64]>(BLOBFILE(path = tensor<string, []>("@model_path/weights/weight.bin"), offset = tensor<uint64, []>(1432384)))];
            tensor<fp16, [1, 64, 20, 20]> input_95_cast_fp16 = conv(bias = model_8_m_0_m_0_cv1_conv_bias_to_fp16, dilations = input_95_dilations_0, groups = input_95_groups_0, pad = input_95_pad_0, pad_type = input_95_pad_type_0, strides = input_95_strides_0, weight = model_8_m_0_m_0_cv1_conv_weight_to_fp16, x = input_93_cast_fp16)[name = tensor<string, []>("input_95_cast_fp16")];
            tensor<fp16, [1, 64, 20, 20]> input_97_cast_fp16 = silu(x = input_95_cast_fp16)[name = tensor<string, []>("input_97_cast_fp16")];
            tensor<string, []> input_99_pad_type_0 = const()[name = tensor<string, []>("input_99_pad_type_0"), val = tensor<string, []>("custom")];
            tensor<int32, [4]> input_99_pad_0 = const()[name = tensor<string, []>("input_99_pad_0"), val = tensor<int32, [4]>([1, 1, 1, 1])];
            tensor<int32, [2]> input_99_strides_0 = const()[name = tensor<string, []>("input_99_strides_0"), val = tensor<int32, [2]>([1, 1])];
            tensor<int32, [2]> input_99_dilations_0 = const()[name = tensor<string, []>("input_99_dilations_0"), val = tensor<int32, [2]>([1, 1])];
            tensor<int32, []> input_99_groups_0 = const()[name = tensor<string, []>("input_99_groups_0"), val = tensor<int32, []>(1)];
            tensor<fp16, [64, 64, 3, 3]> model_8_m_0_m_0_cv2_conv_weight_to_fp16 = const()[name = tensor<string, []>("model_8_m_0_m_0_cv2_conv_weight_to_fp16"), val = tensor<fp16, [64, 64, 3, 3]>(BLOBFILE(path = tensor<string, []>("@model_path/weights/weight.bin"), offset = tensor<uint64, []>(1432576)))];
            tensor<fp16, [64]> model_8_m_0_m_0_cv2_conv_bias_to_fp16 = const()[name = tensor<string, []>("model_8_m_0_m_0_cv2_conv_bias_to_fp16"), val = tensor<fp16, [64]>(BLOBFILE(path = tensor<string, []>("@model_path/weights/weight.bin"), offset = tensor<uint64, []>(1506368)))];
            tensor<fp16, [1, 64, 20, 20]> input_99_cast_fp16 = conv(bias = model_8_m_0_m_0_cv2_conv_bias_to_fp16, dilations = input_99_dilations_0, groups = input_99_groups_0, pad = input_99_pad_0, pad_type = input_99_pad_type_0, strides = input_99_strides_0, weight = model_8_m_0_m_0_cv2_conv_weight_to_fp16, x = input_97_cast_fp16)[name = tensor<string, []>("input_99_cast_fp16")];
            tensor<fp16, [1, 64, 20, 20]> var_382_cast_fp16 = silu(x = input_99_cast_fp16)[name = tensor<string, []>("op_382_cast_fp16")];
            tensor<fp16, [1, 64, 20, 20]> input_101_cast_fp16 = add(x = input_93_cast_fp16, y = var_382_cast_fp16)[name = tensor<string, []>("input_101_cast_fp16")];
            tensor<string, []> input_103_pad_type_0 = const()[name = tensor<string, []>("input_103_pad_type_0"), val = tensor<string, []>("custom")];
            tensor<int32, [4]> input_103_pad_0 = const()[name = tensor<string, []>("input_103_pad_0"), val = tensor<int32, [4]>([1, 1, 1, 1])];
            tensor<int32, [2]> input_103_strides_0 = const()[name = tensor<string, []>("input_103_strides_0"), val = tensor<int32, [2]>([1, 1])];
            tensor<int32, [2]> input_103_dilations_0 = const()[name = tensor<string, []>("input_103_dilations_0"), val = tensor<int32, [2]>([1, 1])];
            tensor<int32, []> input_103_groups_0 = const()[name = tensor<string, []>("input_103_groups_0"), val = tensor<int32, []>(1)];
            tensor<fp16, [64, 64, 3, 3]> model_8_m_0_m_1_cv1_conv_weight_to_fp16 = const()[name = tensor<string, []>("model_8_m_0_m_1_cv1_conv_weight_to_fp16"), val = tensor<fp16, [64, 64, 3, 3]>(BLOBFILE(path = tensor<string, []>("@model_path/weights/weight.bin"), offset = tensor<uint64, []>(1506560)))];
            tensor<fp16, [64]> model_8_m_0_m_1_cv1_conv_bias_to_fp16 = const()[name = tensor<string, []>("model_8_m_0_m_1_cv1_conv_bias_to_fp16"), val = tensor<fp16, [64]>(BLOBFILE(path = tensor<string, []>("@model_path/weights/weight.bin"), offset = tensor<uint64, []>(1580352)))];
            tensor<fp16, [1, 64, 20, 20]> input_103_cast_fp16 = conv(bias = model_8_m_0_m_1_cv1_conv_bias_to_fp16, dilations = input_103_dilations_0, groups = input_103_groups_0, pad = input_103_pad_0, pad_type = input_103_pad_type_0, strides = input_103_strides_0, weight = model_8_m_0_m_1_cv1_conv_weight_to_fp16, x = input_101_cast_fp16)[name = tensor<string, []>("input_103_cast_fp16")];
            tensor<fp16, [1, 64, 20, 20]> input_105_cast_fp16 = silu(x = input_103_cast_fp16)[name = tensor<string, []>("input_105_cast_fp16")];
            tensor<string, []> input_107_pad_type_0 = const()[name = tensor<string, []>("input_107_pad_type_0"), val = tensor<string, []>("custom")];
            tensor<int32, [4]> input_107_pad_0 = const()[name = tensor<string, []>("input_107_pad_0"), val = tensor<int32, [4]>([1, 1, 1, 1])];
            tensor<int32, [2]> input_107_strides_0 = const()[name = tensor<string, []>("input_107_strides_0"), val = tensor<int32, [2]>([1, 1])];
            tensor<int32, [2]> input_107_dilations_0 = const()[name = tensor<string, []>("input_107_dilations_0"), val = tensor<int32, [2]>([1, 1])];
            tensor<int32, []> input_107_groups_0 = const()[name = tensor<string, []>("input_107_groups_0"), val = tensor<int32, []>(1)];
            tensor<fp16, [64, 64, 3, 3]> model_8_m_0_m_1_cv2_conv_weight_to_fp16 = const()[name = tensor<string, []>("model_8_m_0_m_1_cv2_conv_weight_to_fp16"), val = tensor<fp16, [64, 64, 3, 3]>(BLOBFILE(path = tensor<string, []>("@model_path/weights/weight.bin"), offset = tensor<uint64, []>(1580544)))];
            tensor<fp16, [64]> model_8_m_0_m_1_cv2_conv_bias_to_fp16 = const()[name = tensor<string, []>("model_8_m_0_m_1_cv2_conv_bias_to_fp16"), val = tensor<fp16, [64]>(BLOBFILE(path = tensor<string, []>("@model_path/weights/weight.bin"), offset = tensor<uint64, []>(1654336)))];
            tensor<fp16, [1, 64, 20, 20]> input_107_cast_fp16 = conv(bias = model_8_m_0_m_1_cv2_conv_bias_to_fp16, dilations = input_107_dilations_0, groups = input_107_groups_0, pad = input_107_pad_0, pad_type = input_107_pad_type_0, strides = input_107_strides_0, weight = model_8_m_0_m_1_cv2_conv_weight_to_fp16, x = input_105_cast_fp16)[name = tensor<string, []>("input_107_cast_fp16")];
            tensor<fp16, [1, 64, 20, 20]> var_403_cast_fp16 = silu(x = input_107_cast_fp16)[name = tensor<string, []>("op_403_cast_fp16")];
            tensor<fp16, [1, 64, 20, 20]> var_404_cast_fp16 = add(x = input_101_cast_fp16, y = var_403_cast_fp16)[name = tensor<string, []>("op_404_cast_fp16")];
            tensor<string, []> input_109_pad_type_0 = const()[name = tensor<string, []>("input_109_pad_type_0"), val = tensor<string, []>("valid")];
            tensor<int32, [2]> input_109_strides_0 = const()[name = tensor<string, []>("input_109_strides_0"), val = tensor<int32, [2]>([1, 1])];
            tensor<int32, [4]> input_109_pad_0 = const()[name = tensor<string, []>("input_109_pad_0"), val = tensor<int32, [4]>([0, 0, 0, 0])];
            tensor<int32, [2]> input_109_dilations_0 = const()[name = tensor<string, []>("input_109_dilations_0"), val = tensor<int32, [2]>([1, 1])];
            tensor<int32, []> input_109_groups_0 = const()[name = tensor<string, []>("input_109_groups_0"), val = tensor<int32, []>(1)];
            tensor<fp16, [64, 128, 1, 1]> model_8_m_0_cv2_conv_weight_to_fp16 = const()[name = tensor<string, []>("model_8_m_0_cv2_conv_weight_to_fp16"), val = tensor<fp16, [64, 128, 1, 1]>(BLOBFILE(path = tensor<string, []>("@model_path/weights/weight.bin"), offset = tensor<uint64, []>(1654528)))];
            tensor<fp16, [64]> model_8_m_0_cv2_conv_bias_to_fp16 = const()[name = tensor<string, []>("model_8_m_0_cv2_conv_bias_to_fp16"), val = tensor<fp16, [64]>(BLOBFILE(path = tensor<string, []>("@model_path/weights/weight.bin"), offset = tensor<uint64, []>(1670976)))];
            tensor<fp16, [1, 64, 20, 20]> input_109_cast_fp16 = conv(bias = model_8_m_0_cv2_conv_bias_to_fp16, dilations = input_109_dilations_0, groups = input_109_groups_0, pad = input_109_pad_0, pad_type = input_109_pad_type_0, strides = input_109_strides_0, weight = model_8_m_0_cv2_conv_weight_to_fp16, x = var_345_cast_fp16_1)[name = tensor<string, []>("input_109_cast_fp16")];
            tensor<fp16, [1, 64, 20, 20]> var_413_cast_fp16 = silu(x = input_109_cast_fp16)[name = tensor<string, []>("op_413_cast_fp16")];
            tensor<bool, []> input_111_interleave_0 = const()[name = tensor<string, []>("input_111_interleave_0"), val = tensor<bool, []>(false)];
            tensor<fp16, [1, 128, 20, 20]> input_111_cast_fp16 = concat(axis = var_330, interleave = input_111_interleave_0, values = (var_404_cast_fp16, var_413_cast_fp16))[name = tensor<string, []>("input_111_cast_fp16")];
            tensor<string, []> input_113_pad_type_0 = const()[name = tensor<string, []>("input_113_pad_type_0"), val = tensor<string, []>("valid")];
            tensor<int32, [2]> input_113_strides_0 = const()[name = tensor<string, []>("input_113_strides_0"), val = tensor<int32, [2]>([1, 1])];
            tensor<int32, [4]> input_113_pad_0 = const()[name = tensor<string, []>("input_113_pad_0"), val = tensor<int32, [4]>([0, 0, 0, 0])];
            tensor<int32, [2]> input_113_dilations_0 = const()[name = tensor<string, []>("input_113_dilations_0"), val = tensor<int32, [2]>([1, 1])];
            tensor<int32, []> input_113_groups_0 = const()[name = tensor<string, []>("input_113_groups_0"), val = tensor<int32, []>(1)];
            tensor<fp16, [128, 128, 1, 1]> model_8_m_0_cv3_conv_weight_to_fp16 = const()[name = tensor<string, []>("model_8_m_0_cv3_conv_weight_to_fp16"), val = tensor<fp16, [128, 128, 1, 1]>(BLOBFILE(path = tensor<string, []>("@model_path/weights/weight.bin"), offset = tensor<uint64, []>(1671168)))];
            tensor<fp16, [128]> model_8_m_0_cv3_conv_bias_to_fp16 = const()[name = tensor<string, []>("model_8_m_0_cv3_conv_bias_to_fp16"), val = tensor<fp16, [128]>(BLOBFILE(path = tensor<string, []>("@model_path/weights/weight.bin"), offset = tensor<uint64, []>(1704000)))];
            tensor<fp16, [1, 128, 20, 20]> input_113_cast_fp16 = conv(bias = model_8_m_0_cv3_conv_bias_to_fp16, dilations = input_113_dilations_0, groups = input_113_groups_0, pad = input_113_pad_0, pad_type = input_113_pad_type_0, strides = input_113_strides_0, weight = model_8_m_0_cv3_conv_weight_to_fp16, x = input_111_cast_fp16)[name = tensor<string, []>("input_113_cast_fp16")];
            tensor<fp16, [1, 128, 20, 20]> var_424_cast_fp16 = silu(x = input_113_cast_fp16)[name = tensor<string, []>("op_424_cast_fp16")];
            tensor<bool, []> input_115_interleave_0 = const()[name = tensor<string, []>("input_115_interleave_0"), val = tensor<bool, []>(false)];
            tensor<fp16, [1, 384, 20, 20]> input_115_cast_fp16 = concat(axis = var_330, interleave = input_115_interleave_0, values = (var_345_cast_fp16_0, var_345_cast_fp16_1, var_424_cast_fp16))[name = tensor<string, []>("input_115_cast_fp16")];
            tensor<string, []> input_117_pad_type_0 = const()[name = tensor<string, []>("input_117_pad_type_0"), val = tensor<string, []>("valid")];
            tensor<int32, [2]> input_117_strides_0 = const()[name = tensor<string, []>("input_117_strides_0"), val = tensor<int32, [2]>([1, 1])];
            tensor<int32, [4]> input_117_pad_0 = const()[name = tensor<string, []>("input_117_pad_0"), val = tensor<int32, [4]>([0, 0, 0, 0])];
            tensor<int32, [2]> input_117_dilations_0 = const()[name = tensor<string, []>("input_117_dilations_0"), val = tensor<int32, [2]>([1, 1])];
            tensor<int32, []> input_117_groups_0 = const()[name = tensor<string, []>("input_117_groups_0"), val = tensor<int32, []>(1)];
            tensor<fp16, [256, 384, 1, 1]> model_8_cv2_conv_weight_to_fp16 = const()[name = tensor<string, []>("model_8_cv2_conv_weight_to_fp16"), val = tensor<fp16, [256, 384, 1, 1]>(BLOBFILE(path = tensor<string, []>("@model_path/weights/weight.bin"), offset = tensor<uint64, []>(1704320)))];
            tensor<fp16, [256]> model_8_cv2_conv_bias_to_fp16 = const()[name = tensor<string, []>("model_8_cv2_conv_bias_to_fp16"), val = tensor<fp16, [256]>(BLOBFILE(path = tensor<string, []>("@model_path/weights/weight.bin"), offset = tensor<uint64, []>(1900992)))];
            tensor<fp16, [1, 256, 20, 20]> input_117_cast_fp16 = conv(bias = model_8_cv2_conv_bias_to_fp16, dilations = input_117_dilations_0, groups = input_117_groups_0, pad = input_117_pad_0, pad_type = input_117_pad_type_0, strides = input_117_strides_0, weight = model_8_cv2_conv_weight_to_fp16, x = input_115_cast_fp16)[name = tensor<string, []>("input_117_cast_fp16")];
            tensor<fp16, [1, 256, 20, 20]> input_119_cast_fp16 = silu(x = input_117_cast_fp16)[name = tensor<string, []>("input_119_cast_fp16")];
            tensor<int32, []> var_441 = const()[name = tensor<string, []>("op_441"), val = tensor<int32, []>(1)];
            tensor<string, []> input_121_pad_type_0 = const()[name = tensor<string, []>("input_121_pad_type_0"), val = tensor<string, []>("valid")];
            tensor<int32, [2]> input_121_strides_0 = const()[name = tensor<string, []>("input_121_strides_0"), val = tensor<int32, [2]>([1, 1])];
            tensor<int32, [4]> input_121_pad_0 = const()[name = tensor<string, []>("input_121_pad_0"), val = tensor<int32, [4]>([0, 0, 0, 0])];
            tensor<int32, [2]> input_121_dilations_0 = const()[name = tensor<string, []>("input_121_dilations_0"), val = tensor<int32, [2]>([1, 1])];
            tensor<int32, []> input_121_groups_0 = const()[name = tensor<string, []>("input_121_groups_0"), val = tensor<int32, []>(1)];
            tensor<fp16, [128, 256, 1, 1]> model_9_cv1_conv_weight_to_fp16 = const()[name = tensor<string, []>("model_9_cv1_conv_weight_to_fp16"), val = tensor<fp16, [128, 256, 1, 1]>(BLOBFILE(path = tensor<string, []>("@model_path/weights/weight.bin"), offset = tensor<uint64, []>(1901568)))];
            tensor<fp16, [128]> model_9_cv1_conv_bias_to_fp16 = const()[name = tensor<string, []>("model_9_cv1_conv_bias_to_fp16"), val = tensor<fp16, [128]>(BLOBFILE(path = tensor<string, []>("@model_path/weights/weight.bin"), offset = tensor<uint64, []>(1967168)))];
            tensor<fp16, [1, 128, 20, 20]> input_121_cast_fp16 = conv(bias = model_9_cv1_conv_bias_to_fp16, dilations = input_121_dilations_0, groups = input_121_groups_0, pad = input_121_pad_0, pad_type = input_121_pad_type_0, strides = input_121_strides_0, weight = model_9_cv1_conv_weight_to_fp16, x = input_119_cast_fp16)[name = tensor<string, []>("input_121_cast_fp16")];
            tensor<int32, [2]> var_452 = const()[name = tensor<string, []>("op_452"), val = tensor<int32, [2]>([5, 5])];
            tensor<int32, [2]> var_453 = const()[name = tensor<string, []>("op_453"), val = tensor<int32, [2]>([1, 1])];
            tensor<string, []> input_123_pad_type_0 = const()[name = tensor<string, []>("input_123_pad_type_0"), val = tensor<string, []>("custom")];
            tensor<int32, [4]> input_123_pad_0 = const()[name = tensor<string, []>("input_123_pad_0"), val = tensor<int32, [4]>([2, 2, 2, 2])];
            tensor<bool, []> input_123_ceil_mode_0 = const()[name = tensor<string, []>("input_123_ceil_mode_0"), val = tensor<bool, []>(false)];
            tensor<fp16, [1, 128, 20, 20]> input_123_cast_fp16 = max_pool(ceil_mode = input_123_ceil_mode_0, kernel_sizes = var_452, pad = input_123_pad_0, pad_type = input_123_pad_type_0, strides = var_453, x = input_121_cast_fp16)[name = tensor<string, []>("input_123_cast_fp16")];
            tensor<int32, [2]> var_457 = const()[name = tensor<string, []>("op_457"), val = tensor<int32, [2]>([5, 5])];
            tensor<int32, [2]> var_458 = const()[name = tensor<string, []>("op_458"), val = tensor<int32, [2]>([1, 1])];
            tensor<string, []> input_125_pad_type_0 = const()[name = tensor<string, []>("input_125_pad_type_0"), val = tensor<string, []>("custom")];
            tensor<int32, [4]> input_125_pad_0 = const()[name = tensor<string, []>("input_125_pad_0"), val = tensor<int32, [4]>([2, 2, 2, 2])];
            tensor<bool, []> input_125_ceil_mode_0 = const()[name = tensor<string, []>("input_125_ceil_mode_0"), val = tensor<bool, []>(false)];
            tensor<fp16, [1, 128, 20, 20]> input_125_cast_fp16 = max_pool(ceil_mode = input_125_ceil_mode_0, kernel_sizes = var_457, pad = input_125_pad_0, pad_type = input_125_pad_type_0, strides = var_458, x = input_123_cast_fp16)[name = tensor<string, []>("input_125_cast_fp16")];
            tensor<int32, [2]> var_462 = const()[name = tensor<string, []>("op_462"), val = tensor<int32, [2]>([5, 5])];
            tensor<int32, [2]> var_463 = const()[name = tensor<string, []>("op_463"), val = tensor<int32, [2]>([1, 1])];
            tensor<string, []> var_466_pad_type_0 = const()[name = tensor<string, []>("op_466_pad_type_0"), val = tensor<string, []>("custom")];
            tensor<int32, [4]> var_466_pad_0 = const()[name = tensor<string, []>("op_466_pad_0"), val = tensor<int32, [4]>([2, 2, 2, 2])];
            tensor<bool, []> var_466_ceil_mode_0 = const()[name = tensor<string, []>("op_466_ceil_mode_0"), val = tensor<bool, []>(false)];
            tensor<fp16, [1, 128, 20, 20]> var_466_cast_fp16 = max_pool(ceil_mode = var_466_ceil_mode_0, kernel_sizes = var_462, pad = var_466_pad_0, pad_type = var_466_pad_type_0, strides = var_463, x = input_125_cast_fp16)[name = tensor<string, []>("op_466_cast_fp16")];
            tensor<bool, []> input_127_interleave_0 = const()[name = tensor<string, []>("input_127_interleave_0"), val = tensor<bool, []>(false)];
            tensor<fp16, [1, 512, 20, 20]> input_127_cast_fp16 = concat(axis = var_441, interleave = input_127_interleave_0, values = (input_121_cast_fp16, input_123_cast_fp16, input_125_cast_fp16, var_466_cast_fp16))[name = tensor<string, []>("input_127_cast_fp16")];
            tensor<string, []> input_129_pad_type_0 = const()[name = tensor<string, []>("input_129_pad_type_0"), val = tensor<string, []>("valid")];
            tensor<int32, [2]> input_129_strides_0 = const()[name = tensor<string, []>("input_129_strides_0"), val = tensor<int32, [2]>([1, 1])];
            tensor<int32, [4]> input_129_pad_0 = const()[name = tensor<string, []>("input_129_pad_0"), val = tensor<int32, [4]>([0, 0, 0, 0])];
            tensor<int32, [2]> input_129_dilations_0 = const()[name = tensor<string, []>("input_129_dilations_0"), val = tensor<int32, [2]>([1, 1])];
            tensor<int32, []> input_129_groups_0 = const()[name = tensor<string, []>("input_129_groups_0"), val = tensor<int32, []>(1)];
            tensor<fp16, [256, 512, 1, 1]> model_9_cv2_conv_weight_to_fp16 = const()[name = tensor<string, []>("model_9_cv2_conv_weight_to_fp16"), val = tensor<fp16, [256, 512, 1, 1]>(BLOBFILE(path = tensor<string, []>("@model_path/weights/weight.bin"), offset = tensor<uint64, []>(1967488)))];
            tensor<fp16, [256]> model_9_cv2_conv_bias_to_fp16 = const()[name = tensor<string, []>("model_9_cv2_conv_bias_to_fp16"), val = tensor<fp16, [256]>(BLOBFILE(path = tensor<string, []>("@model_path/weights/weight.bin"), offset = tensor<uint64, []>(2229696)))];
            tensor<fp16, [1, 256, 20, 20]> input_129_cast_fp16 = conv(bias = model_9_cv2_conv_bias_to_fp16, dilations = input_129_dilations_0, groups = input_129_groups_0, pad = input_129_pad_0, pad_type = input_129_pad_type_0, strides = input_129_strides_0, weight = model_9_cv2_conv_weight_to_fp16, x = input_127_cast_fp16)[name = tensor<string, []>("input_129_cast_fp16")];
            tensor<fp16, [1, 256, 20, 20]> y_1_cast_fp16 = silu(x = input_129_cast_fp16)[name = tensor<string, []>("y_1_cast_fp16")];
            tensor<fp16, [1, 256, 20, 20]> input_131_cast_fp16 = add(x = y_1_cast_fp16, y = input_119_cast_fp16)[name = tensor<string, []>("input_131_cast_fp16")];
            tensor<int32, []> var_484 = const()[name = tensor<string, []>("op_484"), val = tensor<int32, []>(-1)];
            tensor<int32, []> var_490 = const()[name = tensor<string, []>("op_490"), val = tensor<int32, []>(1)];
            tensor<string, []> input_133_pad_type_0 = const()[name = tensor<string, []>("input_133_pad_type_0"), val = tensor<string, []>("valid")];
            tensor<int32, [2]> input_133_strides_0 = const()[name = tensor<string, []>("input_133_strides_0"), val = tensor<int32, [2]>([1, 1])];
            tensor<int32, [4]> input_133_pad_0 = const()[name = tensor<string, []>("input_133_pad_0"), val = tensor<int32, [4]>([0, 0, 0, 0])];
            tensor<int32, [2]> input_133_dilations_0 = const()[name = tensor<string, []>("input_133_dilations_0"), val = tensor<int32, [2]>([1, 1])];
            tensor<int32, []> input_133_groups_0 = const()[name = tensor<string, []>("input_133_groups_0"), val = tensor<int32, []>(1)];
            tensor<fp16, [256, 256, 1, 1]> model_10_cv1_conv_weight_to_fp16 = const()[name = tensor<string, []>("model_10_cv1_conv_weight_to_fp16"), val = tensor<fp16, [256, 256, 1, 1]>(BLOBFILE(path = tensor<string, []>("@model_path/weights/weight.bin"), offset = tensor<uint64, []>(2230272)))];
            tensor<fp16, [256]> model_10_cv1_conv_bias_to_fp16 = const()[name = tensor<string, []>("model_10_cv1_conv_bias_to_fp16"), val = tensor<fp16, [256]>(BLOBFILE(path = tensor<string, []>("@model_path/weights/weight.bin"), offset = tensor<uint64, []>(2361408)))];
            tensor<fp16, [1, 256, 20, 20]> input_133_cast_fp16 = conv(bias = model_10_cv1_conv_bias_to_fp16, dilations = input_133_dilations_0, groups = input_133_groups_0, pad = input_133_pad_0, pad_type = input_133_pad_type_0, strides = input_133_strides_0, weight = model_10_cv1_conv_weight_to_fp16, x = input_131_cast_fp16)[name = tensor<string, []>("input_133_cast_fp16")];
            tensor<fp16, [1, 256, 20, 20]> var_502_cast_fp16 = silu(x = input_133_cast_fp16)[name = tensor<string, []>("op_502_cast_fp16")];
            tensor<int32, [2]> var_503 = const()[name = tensor<string, []>("op_503"), val = tensor<int32, [2]>([128, 128])];
            tensor<int32, []> var_504_axis_0 = const()[name = tensor<string, []>("op_504_axis_0"), val = tensor<int32, []>(1)];
            tensor<fp16, [1, 128, 20, 20]> var_504_cast_fp16_0, tensor<fp16, [1, 128, 20, 20]> var_504_cast_fp16_1 = split(axis = var_504_axis_0, split_sizes = var_503, x = var_502_cast_fp16)[name = tensor<string, []>("op_504_cast_fp16")];
            tensor<string, []> qkv_1_pad_type_0 = const()[name = tensor<string, []>("qkv_1_pad_type_0"), val = tensor<string, []>("valid")];
            tensor<int32, [2]> qkv_1_strides_0 = const()[name = tensor<string, []>("qkv_1_strides_0"), val = tensor<int32, [2]>([1, 1])];
            tensor<int32, [4]> qkv_1_pad_0 = const()[name = tensor<string, []>("qkv_1_pad_0"), val = tensor<int32, [4]>([0, 0, 0, 0])];
            tensor<int32, [2]> qkv_1_dilations_0 = const()[name = tensor<string, []>("qkv_1_dilations_0"), val = tensor<int32, [2]>([1, 1])];
            tensor<int32, []> qkv_1_groups_0 = const()[name = tensor<string, []>("qkv_1_groups_0"), val = tensor<int32, []>(1)];
            tensor<fp16, [256, 128, 1, 1]> model_10_m_0_attn_qkv_conv_weight_to_fp16 = const()[name = tensor<string, []>("model_10_m_0_attn_qkv_conv_weight_to_fp16"), val = tensor<fp16, [256, 128, 1, 1]>(BLOBFILE(path = tensor<string, []>("@model_path/weights/weight.bin"), offset = tensor<uint64, []>(2361984)))];
            tensor<fp16, [256]> model_10_m_0_attn_qkv_conv_bias_to_fp16 = const()[name = tensor<string, []>("model_10_m_0_attn_qkv_conv_bias_to_fp16"), val = tensor<fp16, [256]>(BLOBFILE(path = tensor<string, []>("@model_path/weights/weight.bin"), offset = tensor<uint64, []>(2427584)))];
            tensor<fp16, [1, 256, 20, 20]> qkv_1_cast_fp16 = conv(bias = model_10_m_0_attn_qkv_conv_bias_to_fp16, dilations = qkv_1_dilations_0, groups = qkv_1_groups_0, pad = qkv_1_pad_0, pad_type = qkv_1_pad_type_0, strides = qkv_1_strides_0, weight = model_10_m_0_attn_qkv_conv_weight_to_fp16, x = var_504_cast_fp16_1)[name = tensor<string, []>("qkv_1_cast_fp16")];
            tensor<int32, [4]> var_529 = const()[name = tensor<string, []>("op_529"), val = tensor<int32, [4]>([1, 2, 128, 400])];
            tensor<fp16, [1, 2, 128, 400]> var_530_cast_fp16 = reshape(shape = var_529, x = qkv_1_cast_fp16)[name = tensor<string, []>("op_530_cast_fp16")];
            tensor<int32, [3]> var_531 = const()[name = tensor<string, []>("op_531"), val = tensor<int32, [3]>([32, 32, 64])];
            tensor<int32, []> var_532_axis_0 = const()[name = tensor<string, []>("op_532_axis_0"), val = tensor<int32, []>(2)];
            tensor<fp16, [1, 2, 32, 400]> var_532_cast_fp16_0, tensor<fp16, [1, 2, 32, 400]> var_532_cast_fp16_1, tensor<fp16, [1, 2, 64, 400]> var_532_cast_fp16_2 = split(axis = var_532_axis_0, split_sizes = var_531, x = var_530_cast_fp16)[name = tensor<string, []>("op_532_cast_fp16")];
            tensor<bool, []> var_537_transpose_x_1 = const()[name = tensor<string, []>("op_537_transpose_x_1"), val = tensor<bool, []>(true)];
            tensor<bool, []> var_537_transpose_y_1 = const()[name = tensor<string, []>("op_537_transpose_y_1"), val = tensor<bool, []>(false)];
            tensor<fp16, [1, 2, 400, 400]> var_537_cast_fp16 = matmul(transpose_x = var_537_transpose_x_1, transpose_y = var_537_transpose_y_1, x = var_532_cast_fp16_0, y = var_532_cast_fp16_1)[name = tensor<string, []>("op_537_cast_fp16")];
            tensor<fp16, []> var_538_to_fp16 = const()[name = tensor<string, []>("op_538_to_fp16"), val = tensor<fp16, []>(0x1.6ap-3)];
            tensor<fp16, [1, 2, 400, 400]> attn_1_cast_fp16 = mul(x = var_537_cast_fp16, y = var_538_to_fp16)[name = tensor<string, []>("attn_1_cast_fp16")];
            tensor<fp16, [1, 2, 400, 400]> attn_3_cast_fp16 = softmax(axis = var_484, x = attn_1_cast_fp16)[name = tensor<string, []>("attn_3_cast_fp16")];
            tensor<bool, []> var_542_transpose_x_1 = const()[name = tensor<string, []>("op_542_transpose_x_1"), val = tensor<bool, []>(false)];
            tensor<bool, []> var_542_transpose_y_1 = const()[name = tensor<string, []>("op_542_transpose_y_1"), val = tensor<bool, []>(true)];
            tensor<fp16, [1, 2, 64, 400]> var_542_cast_fp16 = matmul(transpose_x = var_542_transpose_x_1, transpose_y = var_542_transpose_y_1, x = var_532_cast_fp16_2, y = attn_3_cast_fp16)[name = tensor<string, []>("op_542_cast_fp16")];
            tensor<int32, [4]> var_543 = const()[name = tensor<string, []>("op_543"), val = tensor<int32, [4]>([1, 128, 20, 20])];
            tensor<fp16, [1, 128, 20, 20]> var_544_cast_fp16 = reshape(shape = var_543, x = var_542_cast_fp16)[name = tensor<string, []>("op_544_cast_fp16")];
            tensor<int32, [4]> var_545 = const()[name = tensor<string, []>("op_545"), val = tensor<int32, [4]>([1, 128, 20, 20])];
            tensor<fp16, [1, 128, 20, 20]> input_135_cast_fp16 = reshape(shape = var_545, x = var_532_cast_fp16_2)[name = tensor<string, []>("input_135_cast_fp16")];
            tensor<string, []> var_554_pad_type_0 = const()[name = tensor<string, []>("op_554_pad_type_0"), val = tensor<string, []>("custom")];
            tensor<int32, [4]> var_554_pad_0 = const()[name = tensor<string, []>("op_554_pad_0"), val = tensor<int32, [4]>([1, 1, 1, 1])];
            tensor<int32, []> var_554_groups_0 = const()[name = tensor<string, []>("op_554_groups_0"), val = tensor<int32, []>(128)];
            tensor<int32, [2]> var_554_strides_0 = const()[name = tensor<string, []>("op_554_strides_0"), val = tensor<int32, [2]>([1, 1])];
            tensor<int32, [2]> var_554_dilations_0 = const()[name = tensor<string, []>("op_554_dilations_0"), val = tensor<int32, [2]>([1, 1])];
            tensor<fp16, [128, 1, 3, 3]> model_10_m_0_attn_pe_conv_weight_to_fp16 = const()[name = tensor<string, []>("model_10_m_0_attn_pe_conv_weight_to_fp16"), val = tensor<fp16, [128, 1, 3, 3]>(BLOBFILE(path = tensor<string, []>("@model_path/weights/weight.bin"), offset = tensor<uint64, []>(2428160)))];
            tensor<fp16, [128]> model_10_m_0_attn_pe_conv_bias_to_fp16 = const()[name = tensor<string, []>("model_10_m_0_attn_pe_conv_bias_to_fp16"), val = tensor<fp16, [128]>(BLOBFILE(path = tensor<string, []>("@model_path/weights/weight.bin"), offset = tensor<uint64, []>(2430528)))];
            tensor<fp16, [1, 128, 20, 20]> var_554_cast_fp16 = conv(bias = model_10_m_0_attn_pe_conv_bias_to_fp16, dilations = var_554_dilations_0, groups = var_554_groups_0, pad = var_554_pad_0, pad_type = var_554_pad_type_0, strides = var_554_strides_0, weight = model_10_m_0_attn_pe_conv_weight_to_fp16, x = input_135_cast_fp16)[name = tensor<string, []>("op_554_cast_fp16")];
            tensor<fp16, [1, 128, 20, 20]> input_137_cast_fp16 = add(x = var_544_cast_fp16, y = var_554_cast_fp16)[name = tensor<string, []>("input_137_cast_fp16")];
            tensor<string, []> var_563_pad_type_0 = const()[name = tensor<string, []>("op_563_pad_type_0"), val = tensor<string, []>("valid")];
            tensor<int32, [2]> var_563_strides_0 = const()[name = tensor<string, []>("op_563_strides_0"), val = tensor<int32, [2]>([1, 1])];
            tensor<int32, [4]> var_563_pad_0 = const()[name = tensor<string, []>("op_563_pad_0"), val = tensor<int32, [4]>([0, 0, 0, 0])];
            tensor<int32, [2]> var_563_dilations_0 = const()[name = tensor<string, []>("op_563_dilations_0"), val = tensor<int32, [2]>([1, 1])];
            tensor<int32, []> var_563_groups_0 = const()[name = tensor<string, []>("op_563_groups_0"), val = tensor<int32, []>(1)];
            tensor<fp16, [128, 128, 1, 1]> model_10_m_0_attn_proj_conv_weight_to_fp16 = const()[name = tensor<string, []>("model_10_m_0_attn_proj_conv_weight_to_fp16"), val = tensor<fp16, [128, 128, 1, 1]>(BLOBFILE(path = tensor<string, []>("@model_path/weights/weight.bin"), offset = tensor<uint64, []>(2430848)))];
            tensor<fp16, [128]> model_10_m_0_attn_proj_conv_bias_to_fp16 = const()[name = tensor<string, []>("model_10_m_0_attn_proj_conv_bias_to_fp16"), val = tensor<fp16, [128]>(BLOBFILE(path = tensor<string, []>("@model_path/weights/weight.bin"), offset = tensor<uint64, []>(2463680)))];
            tensor<fp16, [1, 128, 20, 20]> var_563_cast_fp16 = conv(bias = model_10_m_0_attn_proj_conv_bias_to_fp16, dilations = var_563_dilations_0, groups = var_563_groups_0, pad = var_563_pad_0, pad_type = var_563_pad_type_0, strides = var_563_strides_0, weight = model_10_m_0_attn_proj_conv_weight_to_fp16, x = input_137_cast_fp16)[name = tensor<string, []>("op_563_cast_fp16")];
            tensor<fp16, [1, 128, 20, 20]> input_139_cast_fp16 = add(x = var_504_cast_fp16_1, y = var_563_cast_fp16)[name = tensor<string, []>("input_139_cast_fp16")];
            tensor<string, []> input_141_pad_type_0 = const()[name = tensor<string, []>("input_141_pad_type_0"), val = tensor<string, []>("valid")];
            tensor<int32, [2]> input_141_strides_0 = const()[name = tensor<string, []>("input_141_strides_0"), val = tensor<int32, [2]>([1, 1])];
            tensor<int32, [4]> input_141_pad_0 = const()[name = tensor<string, []>("input_141_pad_0"), val = tensor<int32, [4]>([0, 0, 0, 0])];
            tensor<int32, [2]> input_141_dilations_0 = const()[name = tensor<string, []>("input_141_dilations_0"), val = tensor<int32, [2]>([1, 1])];
            tensor<int32, []> input_141_groups_0 = const()[name = tensor<string, []>("input_141_groups_0"), val = tensor<int32, []>(1)];
            tensor<fp16, [256, 128, 1, 1]> model_10_m_0_ffn_0_conv_weight_to_fp16 = const()[name = tensor<string, []>("model_10_m_0_ffn_0_conv_weight_to_fp16"), val = tensor<fp16, [256, 128, 1, 1]>(BLOBFILE(path = tensor<string, []>("@model_path/weights/weight.bin"), offset = tensor<uint64, []>(2464000)))];
            tensor<fp16, [256]> model_10_m_0_ffn_0_conv_bias_to_fp16 = const()[name = tensor<string, []>("model_10_m_0_ffn_0_conv_bias_to_fp16"), val = tensor<fp16, [256]>(BLOBFILE(path = tensor<string, []>("@model_path/weights/weight.bin"), offset = tensor<uint64, []>(2529600)))];
            tensor<fp16, [1, 256, 20, 20]> input_141_cast_fp16 = conv(bias = model_10_m_0_ffn_0_conv_bias_to_fp16, dilations = input_141_dilations_0, groups = input_141_groups_0, pad = input_141_pad_0, pad_type = input_141_pad_type_0, strides = input_141_strides_0, weight = model_10_m_0_ffn_0_conv_weight_to_fp16, x = input_139_cast_fp16)[name = tensor<string, []>("input_141_cast_fp16")];
            tensor<fp16, [1, 256, 20, 20]> input_143_cast_fp16 = silu(x = input_141_cast_fp16)[name = tensor<string, []>("input_143_cast_fp16")];
            tensor<string, []> var_583_pad_type_0 = const()[name = tensor<string, []>("op_583_pad_type_0"), val = tensor<string, []>("valid")];
            tensor<int32, [2]> var_583_strides_0 = const()[name = tensor<string, []>("op_583_strides_0"), val = tensor<int32, [2]>([1, 1])];
            tensor<int32, [4]> var_583_pad_0 = const()[name = tensor<string, []>("op_583_pad_0"), val = tensor<int32, [4]>([0, 0, 0, 0])];
            tensor<int32, [2]> var_583_dilations_0 = const()[name = tensor<string, []>("op_583_dilations_0"), val = tensor<int32, [2]>([1, 1])];
            tensor<int32, []> var_583_groups_0 = const()[name = tensor<string, []>("op_583_groups_0"), val = tensor<int32, []>(1)];
            tensor<fp16, [128, 256, 1, 1]> model_10_m_0_ffn_1_conv_weight_to_fp16 = const()[name = tensor<string, []>("model_10_m_0_ffn_1_conv_weight_to_fp16"), val = tensor<fp16, [128, 256, 1, 1]>(BLOBFILE(path = tensor<string, []>("@model_path/weights/weight.bin"), offset = tensor<uint64, []>(2530176)))];
            tensor<fp16, [128]> model_10_m_0_ffn_1_conv_bias_to_fp16 = const()[name = tensor<string, []>("model_10_m_0_ffn_1_conv_bias_to_fp16"), val = tensor<fp16, [128]>(BLOBFILE(path = tensor<string, []>("@model_path/weights/weight.bin"), offset = tensor<uint64, []>(2595776)))];
            tensor<fp16, [1, 128, 20, 20]> var_583_cast_fp16 = conv(bias = model_10_m_0_ffn_1_conv_bias_to_fp16, dilations = var_583_dilations_0, groups = var_583_groups_0, pad = var_583_pad_0, pad_type = var_583_pad_type_0, strides = var_583_strides_0, weight = model_10_m_0_ffn_1_conv_weight_to_fp16, x = input_143_cast_fp16)[name = tensor<string, []>("op_583_cast_fp16")];
            tensor<fp16, [1, 128, 20, 20]> b_cast_fp16 = add(x = input_139_cast_fp16, y = var_583_cast_fp16)[name = tensor<string, []>("b_cast_fp16")];
            tensor<bool, []> input_145_interleave_0 = const()[name = tensor<string, []>("input_145_interleave_0"), val = tensor<bool, []>(false)];
            tensor<fp16, [1, 256, 20, 20]> input_145_cast_fp16 = concat(axis = var_490, interleave = input_145_interleave_0, values = (var_504_cast_fp16_0, b_cast_fp16))[name = tensor<string, []>("input_145_cast_fp16")];
            tensor<string, []> input_147_pad_type_0 = const()[name = tensor<string, []>("input_147_pad_type_0"), val = tensor<string, []>("valid")];
            tensor<int32, [2]> input_147_strides_0 = const()[name = tensor<string, []>("input_147_strides_0"), val = tensor<int32, [2]>([1, 1])];
            tensor<int32, [4]> input_147_pad_0 = const()[name = tensor<string, []>("input_147_pad_0"), val = tensor<int32, [4]>([0, 0, 0, 0])];
            tensor<int32, [2]> input_147_dilations_0 = const()[name = tensor<string, []>("input_147_dilations_0"), val = tensor<int32, [2]>([1, 1])];
            tensor<int32, []> input_147_groups_0 = const()[name = tensor<string, []>("input_147_groups_0"), val = tensor<int32, []>(1)];
            tensor<fp16, [256, 256, 1, 1]> model_10_cv2_conv_weight_to_fp16 = const()[name = tensor<string, []>("model_10_cv2_conv_weight_to_fp16"), val = tensor<fp16, [256, 256, 1, 1]>(BLOBFILE(path = tensor<string, []>("@model_path/weights/weight.bin"), offset = tensor<uint64, []>(2596096)))];
            tensor<fp16, [256]> model_10_cv2_conv_bias_to_fp16 = const()[name = tensor<string, []>("model_10_cv2_conv_bias_to_fp16"), val = tensor<fp16, [256]>(BLOBFILE(path = tensor<string, []>("@model_path/weights/weight.bin"), offset = tensor<uint64, []>(2727232)))];
            tensor<fp16, [1, 256, 20, 20]> input_147_cast_fp16 = conv(bias = model_10_cv2_conv_bias_to_fp16, dilations = input_147_dilations_0, groups = input_147_groups_0, pad = input_147_pad_0, pad_type = input_147_pad_type_0, strides = input_147_strides_0, weight = model_10_cv2_conv_weight_to_fp16, x = input_145_cast_fp16)[name = tensor<string, []>("input_147_cast_fp16")];
            tensor<fp16, [1, 256, 20, 20]> input_149_cast_fp16 = silu(x = input_147_cast_fp16)[name = tensor<string, []>("input_149_cast_fp16")];
            tensor<fp32, []> var_599_scale_factor_height_0 = const()[name = tensor<string, []>("op_599_scale_factor_height_0"), val = tensor<fp32, []>(0x1p+1)];
            tensor<fp32, []> var_599_scale_factor_width_0 = const()[name = tensor<string, []>("op_599_scale_factor_width_0"), val = tensor<fp32, []>(0x1p+1)];
            tensor<fp16, [1, 256, 40, 40]> var_599_cast_fp16 = upsample_nearest_neighbor(scale_factor_height = var_599_scale_factor_height_0, scale_factor_width = var_599_scale_factor_width_0, x = input_149_cast_fp16)[name = tensor<string, []>("op_599_cast_fp16")];
            tensor<int32, []> var_600 = const()[name = tensor<string, []>("op_600"), val = tensor<int32, []>(1)];
            tensor<bool, []> input_151_interleave_0 = const()[name = tensor<string, []>("input_151_interleave_0"), val = tensor<bool, []>(false)];
            tensor<fp16, [1, 384, 40, 40]> input_151_cast_fp16 = concat(axis = var_600, interleave = input_151_interleave_0, values = (var_599_cast_fp16, input_81_cast_fp16))[name = tensor<string, []>("input_151_cast_fp16")];
            tensor<int32, []> var_607 = const()[name = tensor<string, []>("op_607"), val = tensor<int32, []>(1)];
            tensor<string, []> input_153_pad_type_0 = const()[name = tensor<string, []>("input_153_pad_type_0"), val = tensor<string, []>("valid")];
            tensor<int32, [2]> input_153_strides_0 = const()[name = tensor<string, []>("input_153_strides_0"), val = tensor<int32, [2]>([1, 1])];
            tensor<int32, [4]> input_153_pad_0 = const()[name = tensor<string, []>("input_153_pad_0"), val = tensor<int32, [4]>([0, 0, 0, 0])];
            tensor<int32, [2]> input_153_dilations_0 = const()[name = tensor<string, []>("input_153_dilations_0"), val = tensor<int32, [2]>([1, 1])];
            tensor<int32, []> input_153_groups_0 = const()[name = tensor<string, []>("input_153_groups_0"), val = tensor<int32, []>(1)];
            tensor<fp16, [128, 384, 1, 1]> model_13_cv1_conv_weight_to_fp16 = const()[name = tensor<string, []>("model_13_cv1_conv_weight_to_fp16"), val = tensor<fp16, [128, 384, 1, 1]>(BLOBFILE(path = tensor<string, []>("@model_path/weights/weight.bin"), offset = tensor<uint64, []>(2727808)))];
            tensor<fp16, [128]> model_13_cv1_conv_bias_to_fp16 = const()[name = tensor<string, []>("model_13_cv1_conv_bias_to_fp16"), val = tensor<fp16, [128]>(BLOBFILE(path = tensor<string, []>("@model_path/weights/weight.bin"), offset = tensor<uint64, []>(2826176)))];
            tensor<fp16, [1, 128, 40, 40]> input_153_cast_fp16 = conv(bias = model_13_cv1_conv_bias_to_fp16, dilations = input_153_dilations_0, groups = input_153_groups_0, pad = input_153_pad_0, pad_type = input_153_pad_type_0, strides = input_153_strides_0, weight = model_13_cv1_conv_weight_to_fp16, x = input_151_cast_fp16)[name = tensor<string, []>("input_153_cast_fp16")];
            tensor<fp16, [1, 128, 40, 40]> var_620_cast_fp16 = silu(x = input_153_cast_fp16)[name = tensor<string, []>("op_620_cast_fp16")];
            tensor<int32, [2]> var_621 = const()[name = tensor<string, []>("op_621"), val = tensor<int32, [2]>([64, 64])];
            tensor<int32, []> var_622_axis_0 = const()[name = tensor<string, []>("op_622_axis_0"), val = tensor<int32, []>(1)];
            tensor<fp16, [1, 64, 40, 40]> var_622_cast_fp16_0, tensor<fp16, [1, 64, 40, 40]> var_622_cast_fp16_1 = split(axis = var_622_axis_0, split_sizes = var_621, x = var_620_cast_fp16)[name = tensor<string, []>("op_622_cast_fp16")];
            tensor<string, []> input_157_pad_type_0 = const()[name = tensor<string, []>("input_157_pad_type_0"), val = tensor<string, []>("valid")];
            tensor<int32, [2]> input_157_strides_0 = const()[name = tensor<string, []>("input_157_strides_0"), val = tensor<int32, [2]>([1, 1])];
            tensor<int32, [4]> input_157_pad_0 = const()[name = tensor<string, []>("input_157_pad_0"), val = tensor<int32, [4]>([0, 0, 0, 0])];
            tensor<int32, [2]> input_157_dilations_0 = const()[name = tensor<string, []>("input_157_dilations_0"), val = tensor<int32, [2]>([1, 1])];
            tensor<int32, []> input_157_groups_0 = const()[name = tensor<string, []>("input_157_groups_0"), val = tensor<int32, []>(1)];
            tensor<fp16, [32, 64, 1, 1]> model_13_m_0_cv1_conv_weight_to_fp16 = const()[name = tensor<string, []>("model_13_m_0_cv1_conv_weight_to_fp16"), val = tensor<fp16, [32, 64, 1, 1]>(BLOBFILE(path = tensor<string, []>("@model_path/weights/weight.bin"), offset = tensor<uint64, []>(2826496)))];
            tensor<fp16, [32]> model_13_m_0_cv1_conv_bias_to_fp16 = const()[name = tensor<string, []>("model_13_m_0_cv1_conv_bias_to_fp16"), val = tensor<fp16, [32]>(BLOBFILE(path = tensor<string, []>("@model_path/weights/weight.bin"), offset = tensor<uint64, []>(2830656)))];
            tensor<fp16, [1, 32, 40, 40]> input_157_cast_fp16 = conv(bias = model_13_m_0_cv1_conv_bias_to_fp16, dilations = input_157_dilations_0, groups = input_157_groups_0, pad = input_157_pad_0, pad_type = input_157_pad_type_0, strides = input_157_strides_0, weight = model_13_m_0_cv1_conv_weight_to_fp16, x = var_622_cast_fp16_1)[name = tensor<string, []>("input_157_cast_fp16")];
            tensor<fp16, [1, 32, 40, 40]> input_159_cast_fp16 = silu(x = input_157_cast_fp16)[name = tensor<string, []>("input_159_cast_fp16")];
            tensor<string, []> input_161_pad_type_0 = const()[name = tensor<string, []>("input_161_pad_type_0"), val = tensor<string, []>("custom")];
            tensor<int32, [4]> input_161_pad_0 = const()[name = tensor<string, []>("input_161_pad_0"), val = tensor<int32, [4]>([1, 1, 1, 1])];
            tensor<int32, [2]> input_161_strides_0 = const()[name = tensor<string, []>("input_161_strides_0"), val = tensor<int32, [2]>([1, 1])];
            tensor<int32, [2]> input_161_dilations_0 = const()[name = tensor<string, []>("input_161_dilations_0"), val = tensor<int32, [2]>([1, 1])];
            tensor<int32, []> input_161_groups_0 = const()[name = tensor<string, []>("input_161_groups_0"), val = tensor<int32, []>(1)];
            tensor<fp16, [32, 32, 3, 3]> model_13_m_0_m_0_cv1_conv_weight_to_fp16 = const()[name = tensor<string, []>("model_13_m_0_m_0_cv1_conv_weight_to_fp16"), val = tensor<fp16, [32, 32, 3, 3]>(BLOBFILE(path = tensor<string, []>("@model_path/weights/weight.bin"), offset = tensor<uint64, []>(2830784)))];
            tensor<fp16, [32]> model_13_m_0_m_0_cv1_conv_bias_to_fp16 = const()[name = tensor<string, []>("model_13_m_0_m_0_cv1_conv_bias_to_fp16"), val = tensor<fp16, [32]>(BLOBFILE(path = tensor<string, []>("@model_path/weights/weight.bin"), offset = tensor<uint64, []>(2849280)))];
            tensor<fp16, [1, 32, 40, 40]> input_161_cast_fp16 = conv(bias = model_13_m_0_m_0_cv1_conv_bias_to_fp16, dilations = input_161_dilations_0, groups = input_161_groups_0, pad = input_161_pad_0, pad_type = input_161_pad_type_0, strides = input_161_strides_0, weight = model_13_m_0_m_0_cv1_conv_weight_to_fp16, x = input_159_cast_fp16)[name = tensor<string, []>("input_161_cast_fp16")];
            tensor<fp16, [1, 32, 40, 40]> input_163_cast_fp16 = silu(x = input_161_cast_fp16)[name = tensor<string, []>("input_163_cast_fp16")];
            tensor<string, []> input_165_pad_type_0 = const()[name = tensor<string, []>("input_165_pad_type_0"), val = tensor<string, []>("custom")];
            tensor<int32, [4]> input_165_pad_0 = const()[name = tensor<string, []>("input_165_pad_0"), val = tensor<int32, [4]>([1, 1, 1, 1])];
            tensor<int32, [2]> input_165_strides_0 = const()[name = tensor<string, []>("input_165_strides_0"), val = tensor<int32, [2]>([1, 1])];
            tensor<int32, [2]> input_165_dilations_0 = const()[name = tensor<string, []>("input_165_dilations_0"), val = tensor<int32, [2]>([1, 1])];
            tensor<int32, []> input_165_groups_0 = const()[name = tensor<string, []>("input_165_groups_0"), val = tensor<int32, []>(1)];
            tensor<fp16, [32, 32, 3, 3]> model_13_m_0_m_0_cv2_conv_weight_to_fp16 = const()[name = tensor<string, []>("model_13_m_0_m_0_cv2_conv_weight_to_fp16"), val = tensor<fp16, [32, 32, 3, 3]>(BLOBFILE(path = tensor<string, []>("@model_path/weights/weight.bin"), offset = tensor<uint64, []>(2849408)))];
            tensor<fp16, [32]> model_13_m_0_m_0_cv2_conv_bias_to_fp16 = const()[name = tensor<string, []>("model_13_m_0_m_0_cv2_conv_bias_to_fp16"), val = tensor<fp16, [32]>(BLOBFILE(path = tensor<string, []>("@model_path/weights/weight.bin"), offset = tensor<uint64, []>(2867904)))];
            tensor<fp16, [1, 32, 40, 40]> input_165_cast_fp16 = conv(bias = model_13_m_0_m_0_cv2_conv_bias_to_fp16, dilations = input_165_dilations_0, groups = input_165_groups_0, pad = input_165_pad_0, pad_type = input_165_pad_type_0, strides = input_165_strides_0, weight = model_13_m_0_m_0_cv2_conv_weight_to_fp16, x = input_163_cast_fp16)[name = tensor<string, []>("input_165_cast_fp16")];
            tensor<fp16, [1, 32, 40, 40]> var_659_cast_fp16 = silu(x = input_165_cast_fp16)[name = tensor<string, []>("op_659_cast_fp16")];
            tensor<fp16, [1, 32, 40, 40]> input_167_cast_fp16 = add(x = input_159_cast_fp16, y = var_659_cast_fp16)[name = tensor<string, []>("input_167_cast_fp16")];
            tensor<string, []> input_169_pad_type_0 = const()[name = tensor<string, []>("input_169_pad_type_0"), val = tensor<string, []>("custom")];
            tensor<int32, [4]> input_169_pad_0 = const()[name = tensor<string, []>("input_169_pad_0"), val = tensor<int32, [4]>([1, 1, 1, 1])];
            tensor<int32, [2]> input_169_strides_0 = const()[name = tensor<string, []>("input_169_strides_0"), val = tensor<int32, [2]>([1, 1])];
            tensor<int32, [2]> input_169_dilations_0 = const()[name = tensor<string, []>("input_169_dilations_0"), val = tensor<int32, [2]>([1, 1])];
            tensor<int32, []> input_169_groups_0 = const()[name = tensor<string, []>("input_169_groups_0"), val = tensor<int32, []>(1)];
            tensor<fp16, [32, 32, 3, 3]> model_13_m_0_m_1_cv1_conv_weight_to_fp16 = const()[name = tensor<string, []>("model_13_m_0_m_1_cv1_conv_weight_to_fp16"), val = tensor<fp16, [32, 32, 3, 3]>(BLOBFILE(path = tensor<string, []>("@model_path/weights/weight.bin"), offset = tensor<uint64, []>(2868032)))];
            tensor<fp16, [32]> model_13_m_0_m_1_cv1_conv_bias_to_fp16 = const()[name = tensor<string, []>("model_13_m_0_m_1_cv1_conv_bias_to_fp16"), val = tensor<fp16, [32]>(BLOBFILE(path = tensor<string, []>("@model_path/weights/weight.bin"), offset = tensor<uint64, []>(2886528)))];
            tensor<fp16, [1, 32, 40, 40]> input_169_cast_fp16 = conv(bias = model_13_m_0_m_1_cv1_conv_bias_to_fp16, dilations = input_169_dilations_0, groups = input_169_groups_0, pad = input_169_pad_0, pad_type = input_169_pad_type_0, strides = input_169_strides_0, weight = model_13_m_0_m_1_cv1_conv_weight_to_fp16, x = input_167_cast_fp16)[name = tensor<string, []>("input_169_cast_fp16")];
            tensor<fp16, [1, 32, 40, 40]> input_171_cast_fp16 = silu(x = input_169_cast_fp16)[name = tensor<string, []>("input_171_cast_fp16")];
            tensor<string, []> input_173_pad_type_0 = const()[name = tensor<string, []>("input_173_pad_type_0"), val = tensor<string, []>("custom")];
            tensor<int32, [4]> input_173_pad_0 = const()[name = tensor<string, []>("input_173_pad_0"), val = tensor<int32, [4]>([1, 1, 1, 1])];
            tensor<int32, [2]> input_173_strides_0 = const()[name = tensor<string, []>("input_173_strides_0"), val = tensor<int32, [2]>([1, 1])];
            tensor<int32, [2]> input_173_dilations_0 = const()[name = tensor<string, []>("input_173_dilations_0"), val = tensor<int32, [2]>([1, 1])];
            tensor<int32, []> input_173_groups_0 = const()[name = tensor<string, []>("input_173_groups_0"), val = tensor<int32, []>(1)];
            tensor<fp16, [32, 32, 3, 3]> model_13_m_0_m_1_cv2_conv_weight_to_fp16 = const()[name = tensor<string, []>("model_13_m_0_m_1_cv2_conv_weight_to_fp16"), val = tensor<fp16, [32, 32, 3, 3]>(BLOBFILE(path = tensor<string, []>("@model_path/weights/weight.bin"), offset = tensor<uint64, []>(2886656)))];
            tensor<fp16, [32]> model_13_m_0_m_1_cv2_conv_bias_to_fp16 = const()[name = tensor<string, []>("model_13_m_0_m_1_cv2_conv_bias_to_fp16"), val = tensor<fp16, [32]>(BLOBFILE(path = tensor<string, []>("@model_path/weights/weight.bin"), offset = tensor<uint64, []>(2905152)))];
            tensor<fp16, [1, 32, 40, 40]> input_173_cast_fp16 = conv(bias = model_13_m_0_m_1_cv2_conv_bias_to_fp16, dilations = input_173_dilations_0, groups = input_173_groups_0, pad = input_173_pad_0, pad_type = input_173_pad_type_0, strides = input_173_strides_0, weight = model_13_m_0_m_1_cv2_conv_weight_to_fp16, x = input_171_cast_fp16)[name = tensor<string, []>("input_173_cast_fp16")];
            tensor<fp16, [1, 32, 40, 40]> var_680_cast_fp16 = silu(x = input_173_cast_fp16)[name = tensor<string, []>("op_680_cast_fp16")];
            tensor<fp16, [1, 32, 40, 40]> var_681_cast_fp16 = add(x = input_167_cast_fp16, y = var_680_cast_fp16)[name = tensor<string, []>("op_681_cast_fp16")];
            tensor<string, []> input_175_pad_type_0 = const()[name = tensor<string, []>("input_175_pad_type_0"), val = tensor<string, []>("valid")];
            tensor<int32, [2]> input_175_strides_0 = const()[name = tensor<string, []>("input_175_strides_0"), val = tensor<int32, [2]>([1, 1])];
            tensor<int32, [4]> input_175_pad_0 = const()[name = tensor<string, []>("input_175_pad_0"), val = tensor<int32, [4]>([0, 0, 0, 0])];
            tensor<int32, [2]> input_175_dilations_0 = const()[name = tensor<string, []>("input_175_dilations_0"), val = tensor<int32, [2]>([1, 1])];
            tensor<int32, []> input_175_groups_0 = const()[name = tensor<string, []>("input_175_groups_0"), val = tensor<int32, []>(1)];
            tensor<fp16, [32, 64, 1, 1]> model_13_m_0_cv2_conv_weight_to_fp16 = const()[name = tensor<string, []>("model_13_m_0_cv2_conv_weight_to_fp16"), val = tensor<fp16, [32, 64, 1, 1]>(BLOBFILE(path = tensor<string, []>("@model_path/weights/weight.bin"), offset = tensor<uint64, []>(2905280)))];
            tensor<fp16, [32]> model_13_m_0_cv2_conv_bias_to_fp16 = const()[name = tensor<string, []>("model_13_m_0_cv2_conv_bias_to_fp16"), val = tensor<fp16, [32]>(BLOBFILE(path = tensor<string, []>("@model_path/weights/weight.bin"), offset = tensor<uint64, []>(2909440)))];
            tensor<fp16, [1, 32, 40, 40]> input_175_cast_fp16 = conv(bias = model_13_m_0_cv2_conv_bias_to_fp16, dilations = input_175_dilations_0, groups = input_175_groups_0, pad = input_175_pad_0, pad_type = input_175_pad_type_0, strides = input_175_strides_0, weight = model_13_m_0_cv2_conv_weight_to_fp16, x = var_622_cast_fp16_1)[name = tensor<string, []>("input_175_cast_fp16")];
            tensor<fp16, [1, 32, 40, 40]> var_690_cast_fp16 = silu(x = input_175_cast_fp16)[name = tensor<string, []>("op_690_cast_fp16")];
            tensor<bool, []> input_177_interleave_0 = const()[name = tensor<string, []>("input_177_interleave_0"), val = tensor<bool, []>(false)];
            tensor<fp16, [1, 64, 40, 40]> input_177_cast_fp16 = concat(axis = var_607, interleave = input_177_interleave_0, values = (var_681_cast_fp16, var_690_cast_fp16))[name = tensor<string, []>("input_177_cast_fp16")];
            tensor<string, []> input_179_pad_type_0 = const()[name = tensor<string, []>("input_179_pad_type_0"), val = tensor<string, []>("valid")];
            tensor<int32, [2]> input_179_strides_0 = const()[name = tensor<string, []>("input_179_strides_0"), val = tensor<int32, [2]>([1, 1])];
            tensor<int32, [4]> input_179_pad_0 = const()[name = tensor<string, []>("input_179_pad_0"), val = tensor<int32, [4]>([0, 0, 0, 0])];
            tensor<int32, [2]> input_179_dilations_0 = const()[name = tensor<string, []>("input_179_dilations_0"), val = tensor<int32, [2]>([1, 1])];
            tensor<int32, []> input_179_groups_0 = const()[name = tensor<string, []>("input_179_groups_0"), val = tensor<int32, []>(1)];
            tensor<fp16, [64, 64, 1, 1]> model_13_m_0_cv3_conv_weight_to_fp16 = const()[name = tensor<string, []>("model_13_m_0_cv3_conv_weight_to_fp16"), val = tensor<fp16, [64, 64, 1, 1]>(BLOBFILE(path = tensor<string, []>("@model_path/weights/weight.bin"), offset = tensor<uint64, []>(2909568)))];
            tensor<fp16, [64]> model_13_m_0_cv3_conv_bias_to_fp16 = const()[name = tensor<string, []>("model_13_m_0_cv3_conv_bias_to_fp16"), val = tensor<fp16, [64]>(BLOBFILE(path = tensor<string, []>("@model_path/weights/weight.bin"), offset = tensor<uint64, []>(2917824)))];
            tensor<fp16, [1, 64, 40, 40]> input_179_cast_fp16 = conv(bias = model_13_m_0_cv3_conv_bias_to_fp16, dilations = input_179_dilations_0, groups = input_179_groups_0, pad = input_179_pad_0, pad_type = input_179_pad_type_0, strides = input_179_strides_0, weight = model_13_m_0_cv3_conv_weight_to_fp16, x = input_177_cast_fp16)[name = tensor<string, []>("input_179_cast_fp16")];
            tensor<fp16, [1, 64, 40, 40]> var_701_cast_fp16 = silu(x = input_179_cast_fp16)[name = tensor<string, []>("op_701_cast_fp16")];
            tensor<bool, []> input_181_interleave_0 = const()[name = tensor<string, []>("input_181_interleave_0"), val = tensor<bool, []>(false)];
            tensor<fp16, [1, 192, 40, 40]> input_181_cast_fp16 = concat(axis = var_607, interleave = input_181_interleave_0, values = (var_622_cast_fp16_0, var_622_cast_fp16_1, var_701_cast_fp16))[name = tensor<string, []>("input_181_cast_fp16")];
            tensor<string, []> input_183_pad_type_0 = const()[name = tensor<string, []>("input_183_pad_type_0"), val = tensor<string, []>("valid")];
            tensor<int32, [2]> input_183_strides_0 = const()[name = tensor<string, []>("input_183_strides_0"), val = tensor<int32, [2]>([1, 1])];
            tensor<int32, [4]> input_183_pad_0 = const()[name = tensor<string, []>("input_183_pad_0"), val = tensor<int32, [4]>([0, 0, 0, 0])];
            tensor<int32, [2]> input_183_dilations_0 = const()[name = tensor<string, []>("input_183_dilations_0"), val = tensor<int32, [2]>([1, 1])];
            tensor<int32, []> input_183_groups_0 = const()[name = tensor<string, []>("input_183_groups_0"), val = tensor<int32, []>(1)];
            tensor<fp16, [128, 192, 1, 1]> model_13_cv2_conv_weight_to_fp16 = const()[name = tensor<string, []>("model_13_cv2_conv_weight_to_fp16"), val = tensor<fp16, [128, 192, 1, 1]>(BLOBFILE(path = tensor<string, []>("@model_path/weights/weight.bin"), offset = tensor<uint64, []>(2918016)))];
            tensor<fp16, [128]> model_13_cv2_conv_bias_to_fp16 = const()[name = tensor<string, []>("model_13_cv2_conv_bias_to_fp16"), val = tensor<fp16, [128]>(BLOBFILE(path = tensor<string, []>("@model_path/weights/weight.bin"), offset = tensor<uint64, []>(2967232)))];
            tensor<fp16, [1, 128, 40, 40]> input_183_cast_fp16 = conv(bias = model_13_cv2_conv_bias_to_fp16, dilations = input_183_dilations_0, groups = input_183_groups_0, pad = input_183_pad_0, pad_type = input_183_pad_type_0, strides = input_183_strides_0, weight = model_13_cv2_conv_weight_to_fp16, x = input_181_cast_fp16)[name = tensor<string, []>("input_183_cast_fp16")];
            tensor<fp16, [1, 128, 40, 40]> input_185_cast_fp16 = silu(x = input_183_cast_fp16)[name = tensor<string, []>("input_185_cast_fp16")];
            tensor<fp32, []> var_716_scale_factor_height_0 = const()[name = tensor<string, []>("op_716_scale_factor_height_0"), val = tensor<fp32, []>(0x1p+1)];
            tensor<fp32, []> var_716_scale_factor_width_0 = const()[name = tensor<string, []>("op_716_scale_factor_width_0"), val = tensor<fp32, []>(0x1p+1)];
            tensor<fp16, [1, 128, 80, 80]> var_716_cast_fp16 = upsample_nearest_neighbor(scale_factor_height = var_716_scale_factor_height_0, scale_factor_width = var_716_scale_factor_width_0, x = input_185_cast_fp16)[name = tensor<string, []>("op_716_cast_fp16")];
            tensor<int32, []> var_717 = const()[name = tensor<string, []>("op_717"), val = tensor<int32, []>(1)];
            tensor<bool, []> input_187_interleave_0 = const()[name = tensor<string, []>("input_187_interleave_0"), val = tensor<bool, []>(false)];
            tensor<fp16, [1, 256, 80, 80]> input_187_cast_fp16 = concat(axis = var_717, interleave = input_187_interleave_0, values = (var_716_cast_fp16, input_43_cast_fp16))[name = tensor<string, []>("input_187_cast_fp16")];
            tensor<int32, []> var_724 = const()[name = tensor<string, []>("op_724"), val = tensor<int32, []>(1)];
            tensor<string, []> input_189_pad_type_0 = const()[name = tensor<string, []>("input_189_pad_type_0"), val = tensor<string, []>("valid")];
            tensor<int32, [2]> input_189_strides_0 = const()[name = tensor<string, []>("input_189_strides_0"), val = tensor<int32, [2]>([1, 1])];
            tensor<int32, [4]> input_189_pad_0 = const()[name = tensor<string, []>("input_189_pad_0"), val = tensor<int32, [4]>([0, 0, 0, 0])];
            tensor<int32, [2]> input_189_dilations_0 = const()[name = tensor<string, []>("input_189_dilations_0"), val = tensor<int32, [2]>([1, 1])];
            tensor<int32, []> input_189_groups_0 = const()[name = tensor<string, []>("input_189_groups_0"), val = tensor<int32, []>(1)];
            tensor<fp16, [64, 256, 1, 1]> model_16_cv1_conv_weight_to_fp16 = const()[name = tensor<string, []>("model_16_cv1_conv_weight_to_fp16"), val = tensor<fp16, [64, 256, 1, 1]>(BLOBFILE(path = tensor<string, []>("@model_path/weights/weight.bin"), offset = tensor<uint64, []>(2967552)))];
            tensor<fp16, [64]> model_16_cv1_conv_bias_to_fp16 = const()[name = tensor<string, []>("model_16_cv1_conv_bias_to_fp16"), val = tensor<fp16, [64]>(BLOBFILE(path = tensor<string, []>("@model_path/weights/weight.bin"), offset = tensor<uint64, []>(3000384)))];
            tensor<fp16, [1, 64, 80, 80]> input_189_cast_fp16 = conv(bias = model_16_cv1_conv_bias_to_fp16, dilations = input_189_dilations_0, groups = input_189_groups_0, pad = input_189_pad_0, pad_type = input_189_pad_type_0, strides = input_189_strides_0, weight = model_16_cv1_conv_weight_to_fp16, x = input_187_cast_fp16)[name = tensor<string, []>("input_189_cast_fp16")];
            tensor<fp16, [1, 64, 80, 80]> var_737_cast_fp16 = silu(x = input_189_cast_fp16)[name = tensor<string, []>("op_737_cast_fp16")];
            tensor<int32, [2]> var_738 = const()[name = tensor<string, []>("op_738"), val = tensor<int32, [2]>([32, 32])];
            tensor<int32, []> var_739_axis_0 = const()[name = tensor<string, []>("op_739_axis_0"), val = tensor<int32, []>(1)];
            tensor<fp16, [1, 32, 80, 80]> var_739_cast_fp16_0, tensor<fp16, [1, 32, 80, 80]> var_739_cast_fp16_1 = split(axis = var_739_axis_0, split_sizes = var_738, x = var_737_cast_fp16)[name = tensor<string, []>("op_739_cast_fp16")];
            tensor<string, []> input_193_pad_type_0 = const()[name = tensor<string, []>("input_193_pad_type_0"), val = tensor<string, []>("valid")];
            tensor<int32, [2]> input_193_strides_0 = const()[name = tensor<string, []>("input_193_strides_0"), val = tensor<int32, [2]>([1, 1])];
            tensor<int32, [4]> input_193_pad_0 = const()[name = tensor<string, []>("input_193_pad_0"), val = tensor<int32, [4]>([0, 0, 0, 0])];
            tensor<int32, [2]> input_193_dilations_0 = const()[name = tensor<string, []>("input_193_dilations_0"), val = tensor<int32, [2]>([1, 1])];
            tensor<int32, []> input_193_groups_0 = const()[name = tensor<string, []>("input_193_groups_0"), val = tensor<int32, []>(1)];
            tensor<fp16, [16, 32, 1, 1]> model_16_m_0_cv1_conv_weight_to_fp16 = const()[name = tensor<string, []>("model_16_m_0_cv1_conv_weight_to_fp16"), val = tensor<fp16, [16, 32, 1, 1]>(BLOBFILE(path = tensor<string, []>("@model_path/weights/weight.bin"), offset = tensor<uint64, []>(3000576)))];
            tensor<fp16, [16]> model_16_m_0_cv1_conv_bias_to_fp16 = const()[name = tensor<string, []>("model_16_m_0_cv1_conv_bias_to_fp16"), val = tensor<fp16, [16]>(BLOBFILE(path = tensor<string, []>("@model_path/weights/weight.bin"), offset = tensor<uint64, []>(3001664)))];
            tensor<fp16, [1, 16, 80, 80]> input_193_cast_fp16 = conv(bias = model_16_m_0_cv1_conv_bias_to_fp16, dilations = input_193_dilations_0, groups = input_193_groups_0, pad = input_193_pad_0, pad_type = input_193_pad_type_0, strides = input_193_strides_0, weight = model_16_m_0_cv1_conv_weight_to_fp16, x = var_739_cast_fp16_1)[name = tensor<string, []>("input_193_cast_fp16")];
            tensor<fp16, [1, 16, 80, 80]> input_195_cast_fp16 = silu(x = input_193_cast_fp16)[name = tensor<string, []>("input_195_cast_fp16")];
            tensor<string, []> input_197_pad_type_0 = const()[name = tensor<string, []>("input_197_pad_type_0"), val = tensor<string, []>("custom")];
            tensor<int32, [4]> input_197_pad_0 = const()[name = tensor<string, []>("input_197_pad_0"), val = tensor<int32, [4]>([1, 1, 1, 1])];
            tensor<int32, [2]> input_197_strides_0 = const()[name = tensor<string, []>("input_197_strides_0"), val = tensor<int32, [2]>([1, 1])];
            tensor<int32, [2]> input_197_dilations_0 = const()[name = tensor<string, []>("input_197_dilations_0"), val = tensor<int32, [2]>([1, 1])];
            tensor<int32, []> input_197_groups_0 = const()[name = tensor<string, []>("input_197_groups_0"), val = tensor<int32, []>(1)];
            tensor<fp16, [16, 16, 3, 3]> model_16_m_0_m_0_cv1_conv_weight_to_fp16 = const()[name = tensor<string, []>("model_16_m_0_m_0_cv1_conv_weight_to_fp16"), val = tensor<fp16, [16, 16, 3, 3]>(BLOBFILE(path = tensor<string, []>("@model_path/weights/weight.bin"), offset = tensor<uint64, []>(3001792)))];
            tensor<fp16, [16]> model_16_m_0_m_0_cv1_conv_bias_to_fp16 = const()[name = tensor<string, []>("model_16_m_0_m_0_cv1_conv_bias_to_fp16"), val = tensor<fp16, [16]>(BLOBFILE(path = tensor<string, []>("@model_path/weights/weight.bin"), offset = tensor<uint64, []>(3006464)))];
            tensor<fp16, [1, 16, 80, 80]> input_197_cast_fp16 = conv(bias = model_16_m_0_m_0_cv1_conv_bias_to_fp16, dilations = input_197_dilations_0, groups = input_197_groups_0, pad = input_197_pad_0, pad_type = input_197_pad_type_0, strides = input_197_strides_0, weight = model_16_m_0_m_0_cv1_conv_weight_to_fp16, x = input_195_cast_fp16)[name = tensor<string, []>("input_197_cast_fp16")];
            tensor<fp16, [1, 16, 80, 80]> input_199_cast_fp16 = silu(x = input_197_cast_fp16)[name = tensor<string, []>("input_199_cast_fp16")];
            tensor<string, []> input_201_pad_type_0 = const()[name = tensor<string, []>("input_201_pad_type_0"), val = tensor<string, []>("custom")];
            tensor<int32, [4]> input_201_pad_0 = const()[name = tensor<string, []>("input_201_pad_0"), val = tensor<int32, [4]>([1, 1, 1, 1])];
            tensor<int32, [2]> input_201_strides_0 = const()[name = tensor<string, []>("input_201_strides_0"), val = tensor<int32, [2]>([1, 1])];
            tensor<int32, [2]> input_201_dilations_0 = const()[name = tensor<string, []>("input_201_dilations_0"), val = tensor<int32, [2]>([1, 1])];
            tensor<int32, []> input_201_groups_0 = const()[name = tensor<string, []>("input_201_groups_0"), val = tensor<int32, []>(1)];
            tensor<fp16, [16, 16, 3, 3]> model_16_m_0_m_0_cv2_conv_weight_to_fp16 = const()[name = tensor<string, []>("model_16_m_0_m_0_cv2_conv_weight_to_fp16"), val = tensor<fp16, [16, 16, 3, 3]>(BLOBFILE(path = tensor<string, []>("@model_path/weights/weight.bin"), offset = tensor<uint64, []>(3006592)))];
            tensor<fp16, [16]> model_16_m_0_m_0_cv2_conv_bias_to_fp16 = const()[name = tensor<string, []>("model_16_m_0_m_0_cv2_conv_bias_to_fp16"), val = tensor<fp16, [16]>(BLOBFILE(path = tensor<string, []>("@model_path/weights/weight.bin"), offset = tensor<uint64, []>(3011264)))];
            tensor<fp16, [1, 16, 80, 80]> input_201_cast_fp16 = conv(bias = model_16_m_0_m_0_cv2_conv_bias_to_fp16, dilations = input_201_dilations_0, groups = input_201_groups_0, pad = input_201_pad_0, pad_type = input_201_pad_type_0, strides = input_201_strides_0, weight = model_16_m_0_m_0_cv2_conv_weight_to_fp16, x = input_199_cast_fp16)[name = tensor<string, []>("input_201_cast_fp16")];
            tensor<fp16, [1, 16, 80, 80]> var_776_cast_fp16 = silu(x = input_201_cast_fp16)[name = tensor<string, []>("op_776_cast_fp16")];
            tensor<fp16, [1, 16, 80, 80]> input_203_cast_fp16 = add(x = input_195_cast_fp16, y = var_776_cast_fp16)[name = tensor<string, []>("input_203_cast_fp16")];
            tensor<string, []> input_205_pad_type_0 = const()[name = tensor<string, []>("input_205_pad_type_0"), val = tensor<string, []>("custom")];
            tensor<int32, [4]> input_205_pad_0 = const()[name = tensor<string, []>("input_205_pad_0"), val = tensor<int32, [4]>([1, 1, 1, 1])];
            tensor<int32, [2]> input_205_strides_0 = const()[name = tensor<string, []>("input_205_strides_0"), val = tensor<int32, [2]>([1, 1])];
            tensor<int32, [2]> input_205_dilations_0 = const()[name = tensor<string, []>("input_205_dilations_0"), val = tensor<int32, [2]>([1, 1])];
            tensor<int32, []> input_205_groups_0 = const()[name = tensor<string, []>("input_205_groups_0"), val = tensor<int32, []>(1)];
            tensor<fp16, [16, 16, 3, 3]> model_16_m_0_m_1_cv1_conv_weight_to_fp16 = const()[name = tensor<string, []>("model_16_m_0_m_1_cv1_conv_weight_to_fp16"), val = tensor<fp16, [16, 16, 3, 3]>(BLOBFILE(path = tensor<string, []>("@model_path/weights/weight.bin"), offset = tensor<uint64, []>(3011392)))];
            tensor<fp16, [16]> model_16_m_0_m_1_cv1_conv_bias_to_fp16 = const()[name = tensor<string, []>("model_16_m_0_m_1_cv1_conv_bias_to_fp16"), val = tensor<fp16, [16]>(BLOBFILE(path = tensor<string, []>("@model_path/weights/weight.bin"), offset = tensor<uint64, []>(3016064)))];
            tensor<fp16, [1, 16, 80, 80]> input_205_cast_fp16 = conv(bias = model_16_m_0_m_1_cv1_conv_bias_to_fp16, dilations = input_205_dilations_0, groups = input_205_groups_0, pad = input_205_pad_0, pad_type = input_205_pad_type_0, strides = input_205_strides_0, weight = model_16_m_0_m_1_cv1_conv_weight_to_fp16, x = input_203_cast_fp16)[name = tensor<string, []>("input_205_cast_fp16")];
            tensor<fp16, [1, 16, 80, 80]> input_207_cast_fp16 = silu(x = input_205_cast_fp16)[name = tensor<string, []>("input_207_cast_fp16")];
            tensor<string, []> input_209_pad_type_0 = const()[name = tensor<string, []>("input_209_pad_type_0"), val = tensor<string, []>("custom")];
            tensor<int32, [4]> input_209_pad_0 = const()[name = tensor<string, []>("input_209_pad_0"), val = tensor<int32, [4]>([1, 1, 1, 1])];
            tensor<int32, [2]> input_209_strides_0 = const()[name = tensor<string, []>("input_209_strides_0"), val = tensor<int32, [2]>([1, 1])];
            tensor<int32, [2]> input_209_dilations_0 = const()[name = tensor<string, []>("input_209_dilations_0"), val = tensor<int32, [2]>([1, 1])];
            tensor<int32, []> input_209_groups_0 = const()[name = tensor<string, []>("input_209_groups_0"), val = tensor<int32, []>(1)];
            tensor<fp16, [16, 16, 3, 3]> model_16_m_0_m_1_cv2_conv_weight_to_fp16 = const()[name = tensor<string, []>("model_16_m_0_m_1_cv2_conv_weight_to_fp16"), val = tensor<fp16, [16, 16, 3, 3]>(BLOBFILE(path = tensor<string, []>("@model_path/weights/weight.bin"), offset = tensor<uint64, []>(3016192)))];
            tensor<fp16, [16]> model_16_m_0_m_1_cv2_conv_bias_to_fp16 = const()[name = tensor<string, []>("model_16_m_0_m_1_cv2_conv_bias_to_fp16"), val = tensor<fp16, [16]>(BLOBFILE(path = tensor<string, []>("@model_path/weights/weight.bin"), offset = tensor<uint64, []>(3020864)))];
            tensor<fp16, [1, 16, 80, 80]> input_209_cast_fp16 = conv(bias = model_16_m_0_m_1_cv2_conv_bias_to_fp16, dilations = input_209_dilations_0, groups = input_209_groups_0, pad = input_209_pad_0, pad_type = input_209_pad_type_0, strides = input_209_strides_0, weight = model_16_m_0_m_1_cv2_conv_weight_to_fp16, x = input_207_cast_fp16)[name = tensor<string, []>("input_209_cast_fp16")];
            tensor<fp16, [1, 16, 80, 80]> var_797_cast_fp16 = silu(x = input_209_cast_fp16)[name = tensor<string, []>("op_797_cast_fp16")];
            tensor<fp16, [1, 16, 80, 80]> var_798_cast_fp16 = add(x = input_203_cast_fp16, y = var_797_cast_fp16)[name = tensor<string, []>("op_798_cast_fp16")];
            tensor<string, []> input_211_pad_type_0 = const()[name = tensor<string, []>("input_211_pad_type_0"), val = tensor<string, []>("valid")];
            tensor<int32, [2]> input_211_strides_0 = const()[name = tensor<string, []>("input_211_strides_0"), val = tensor<int32, [2]>([1, 1])];
            tensor<int32, [4]> input_211_pad_0 = const()[name = tensor<string, []>("input_211_pad_0"), val = tensor<int32, [4]>([0, 0, 0, 0])];
            tensor<int32, [2]> input_211_dilations_0 = const()[name = tensor<string, []>("input_211_dilations_0"), val = tensor<int32, [2]>([1, 1])];
            tensor<int32, []> input_211_groups_0 = const()[name = tensor<string, []>("input_211_groups_0"), val = tensor<int32, []>(1)];
            tensor<fp16, [16, 32, 1, 1]> model_16_m_0_cv2_conv_weight_to_fp16 = const()[name = tensor<string, []>("model_16_m_0_cv2_conv_weight_to_fp16"), val = tensor<fp16, [16, 32, 1, 1]>(BLOBFILE(path = tensor<string, []>("@model_path/weights/weight.bin"), offset = tensor<uint64, []>(3020992)))];
            tensor<fp16, [16]> model_16_m_0_cv2_conv_bias_to_fp16 = const()[name = tensor<string, []>("model_16_m_0_cv2_conv_bias_to_fp16"), val = tensor<fp16, [16]>(BLOBFILE(path = tensor<string, []>("@model_path/weights/weight.bin"), offset = tensor<uint64, []>(3022080)))];
            tensor<fp16, [1, 16, 80, 80]> input_211_cast_fp16 = conv(bias = model_16_m_0_cv2_conv_bias_to_fp16, dilations = input_211_dilations_0, groups = input_211_groups_0, pad = input_211_pad_0, pad_type = input_211_pad_type_0, strides = input_211_strides_0, weight = model_16_m_0_cv2_conv_weight_to_fp16, x = var_739_cast_fp16_1)[name = tensor<string, []>("input_211_cast_fp16")];
            tensor<fp16, [1, 16, 80, 80]> var_807_cast_fp16 = silu(x = input_211_cast_fp16)[name = tensor<string, []>("op_807_cast_fp16")];
            tensor<bool, []> input_213_interleave_0 = const()[name = tensor<string, []>("input_213_interleave_0"), val = tensor<bool, []>(false)];
            tensor<fp16, [1, 32, 80, 80]> input_213_cast_fp16 = concat(axis = var_724, interleave = input_213_interleave_0, values = (var_798_cast_fp16, var_807_cast_fp16))[name = tensor<string, []>("input_213_cast_fp16")];
            tensor<string, []> input_215_pad_type_0 = const()[name = tensor<string, []>("input_215_pad_type_0"), val = tensor<string, []>("valid")];
            tensor<int32, [2]> input_215_strides_0 = const()[name = tensor<string, []>("input_215_strides_0"), val = tensor<int32, [2]>([1, 1])];
            tensor<int32, [4]> input_215_pad_0 = const()[name = tensor<string, []>("input_215_pad_0"), val = tensor<int32, [4]>([0, 0, 0, 0])];
            tensor<int32, [2]> input_215_dilations_0 = const()[name = tensor<string, []>("input_215_dilations_0"), val = tensor<int32, [2]>([1, 1])];
            tensor<int32, []> input_215_groups_0 = const()[name = tensor<string, []>("input_215_groups_0"), val = tensor<int32, []>(1)];
            tensor<fp16, [32, 32, 1, 1]> model_16_m_0_cv3_conv_weight_to_fp16 = const()[name = tensor<string, []>("model_16_m_0_cv3_conv_weight_to_fp16"), val = tensor<fp16, [32, 32, 1, 1]>(BLOBFILE(path = tensor<string, []>("@model_path/weights/weight.bin"), offset = tensor<uint64, []>(3022208)))];
            tensor<fp16, [32]> model_16_m_0_cv3_conv_bias_to_fp16 = const()[name = tensor<string, []>("model_16_m_0_cv3_conv_bias_to_fp16"), val = tensor<fp16, [32]>(BLOBFILE(path = tensor<string, []>("@model_path/weights/weight.bin"), offset = tensor<uint64, []>(3024320)))];
            tensor<fp16, [1, 32, 80, 80]> input_215_cast_fp16 = conv(bias = model_16_m_0_cv3_conv_bias_to_fp16, dilations = input_215_dilations_0, groups = input_215_groups_0, pad = input_215_pad_0, pad_type = input_215_pad_type_0, strides = input_215_strides_0, weight = model_16_m_0_cv3_conv_weight_to_fp16, x = input_213_cast_fp16)[name = tensor<string, []>("input_215_cast_fp16")];
            tensor<fp16, [1, 32, 80, 80]> var_818_cast_fp16 = silu(x = input_215_cast_fp16)[name = tensor<string, []>("op_818_cast_fp16")];
            tensor<bool, []> input_217_interleave_0 = const()[name = tensor<string, []>("input_217_interleave_0"), val = tensor<bool, []>(false)];
            tensor<fp16, [1, 96, 80, 80]> input_217_cast_fp16 = concat(axis = var_724, interleave = input_217_interleave_0, values = (var_739_cast_fp16_0, var_739_cast_fp16_1, var_818_cast_fp16))[name = tensor<string, []>("input_217_cast_fp16")];
            tensor<string, []> input_219_pad_type_0 = const()[name = tensor<string, []>("input_219_pad_type_0"), val = tensor<string, []>("valid")];
            tensor<int32, [2]> input_219_strides_0 = const()[name = tensor<string, []>("input_219_strides_0"), val = tensor<int32, [2]>([1, 1])];
            tensor<int32, [4]> input_219_pad_0 = const()[name = tensor<string, []>("input_219_pad_0"), val = tensor<int32, [4]>([0, 0, 0, 0])];
            tensor<int32, [2]> input_219_dilations_0 = const()[name = tensor<string, []>("input_219_dilations_0"), val = tensor<int32, [2]>([1, 1])];
            tensor<int32, []> input_219_groups_0 = const()[name = tensor<string, []>("input_219_groups_0"), val = tensor<int32, []>(1)];
            tensor<fp16, [64, 96, 1, 1]> model_16_cv2_conv_weight_to_fp16 = const()[name = tensor<string, []>("model_16_cv2_conv_weight_to_fp16"), val = tensor<fp16, [64, 96, 1, 1]>(BLOBFILE(path = tensor<string, []>("@model_path/weights/weight.bin"), offset = tensor<uint64, []>(3024448)))];
            tensor<fp16, [64]> model_16_cv2_conv_bias_to_fp16 = const()[name = tensor<string, []>("model_16_cv2_conv_bias_to_fp16"), val = tensor<fp16, [64]>(BLOBFILE(path = tensor<string, []>("@model_path/weights/weight.bin"), offset = tensor<uint64, []>(3036800)))];
            tensor<fp16, [1, 64, 80, 80]> input_219_cast_fp16 = conv(bias = model_16_cv2_conv_bias_to_fp16, dilations = input_219_dilations_0, groups = input_219_groups_0, pad = input_219_pad_0, pad_type = input_219_pad_type_0, strides = input_219_strides_0, weight = model_16_cv2_conv_weight_to_fp16, x = input_217_cast_fp16)[name = tensor<string, []>("input_219_cast_fp16")];
            tensor<fp16, [1, 64, 80, 80]> input_221_cast_fp16 = silu(x = input_219_cast_fp16)[name = tensor<string, []>("input_221_cast_fp16")];
            tensor<string, []> input_223_pad_type_0 = const()[name = tensor<string, []>("input_223_pad_type_0"), val = tensor<string, []>("custom")];
            tensor<int32, [4]> input_223_pad_0 = const()[name = tensor<string, []>("input_223_pad_0"), val = tensor<int32, [4]>([1, 1, 1, 1])];
            tensor<int32, [2]> input_223_strides_0 = const()[name = tensor<string, []>("input_223_strides_0"), val = tensor<int32, [2]>([2, 2])];
            tensor<int32, [2]> input_223_dilations_0 = const()[name = tensor<string, []>("input_223_dilations_0"), val = tensor<int32, [2]>([1, 1])];
            tensor<int32, []> input_223_groups_0 = const()[name = tensor<string, []>("input_223_groups_0"), val = tensor<int32, []>(1)];
            tensor<fp16, [64, 64, 3, 3]> model_17_conv_weight_to_fp16 = const()[name = tensor<string, []>("model_17_conv_weight_to_fp16"), val = tensor<fp16, [64, 64, 3, 3]>(BLOBFILE(path = tensor<string, []>("@model_path/weights/weight.bin"), offset = tensor<uint64, []>(3036992)))];
            tensor<fp16, [64]> model_17_conv_bias_to_fp16 = const()[name = tensor<string, []>("model_17_conv_bias_to_fp16"), val = tensor<fp16, [64]>(BLOBFILE(path = tensor<string, []>("@model_path/weights/weight.bin"), offset = tensor<uint64, []>(3110784)))];
            tensor<fp16, [1, 64, 40, 40]> input_223_cast_fp16 = conv(bias = model_17_conv_bias_to_fp16, dilations = input_223_dilations_0, groups = input_223_groups_0, pad = input_223_pad_0, pad_type = input_223_pad_type_0, strides = input_223_strides_0, weight = model_17_conv_weight_to_fp16, x = input_221_cast_fp16)[name = tensor<string, []>("input_223_cast_fp16")];
            tensor<fp16, [1, 64, 40, 40]> var_843_cast_fp16 = silu(x = input_223_cast_fp16)[name = tensor<string, []>("op_843_cast_fp16")];
            tensor<int32, []> var_844 = const()[name = tensor<string, []>("op_844"), val = tensor<int32, []>(1)];
            tensor<bool, []> input_225_interleave_0 = const()[name = tensor<string, []>("input_225_interleave_0"), val = tensor<bool, []>(false)];
            tensor<fp16, [1, 192, 40, 40]> input_225_cast_fp16 = concat(axis = var_844, interleave = input_225_interleave_0, values = (var_843_cast_fp16, input_185_cast_fp16))[name = tensor<string, []>("input_225_cast_fp16")];
            tensor<int32, []> var_851 = const()[name = tensor<string, []>("op_851"), val = tensor<int32, []>(1)];
            tensor<string, []> input_227_pad_type_0 = const()[name = tensor<string, []>("input_227_pad_type_0"), val = tensor<string, []>("valid")];
            tensor<int32, [2]> input_227_strides_0 = const()[name = tensor<string, []>("input_227_strides_0"), val = tensor<int32, [2]>([1, 1])];
            tensor<int32, [4]> input_227_pad_0 = const()[name = tensor<string, []>("input_227_pad_0"), val = tensor<int32, [4]>([0, 0, 0, 0])];
            tensor<int32, [2]> input_227_dilations_0 = const()[name = tensor<string, []>("input_227_dilations_0"), val = tensor<int32, [2]>([1, 1])];
            tensor<int32, []> input_227_groups_0 = const()[name = tensor<string, []>("input_227_groups_0"), val = tensor<int32, []>(1)];
            tensor<fp16, [128, 192, 1, 1]> model_19_cv1_conv_weight_to_fp16 = const()[name = tensor<string, []>("model_19_cv1_conv_weight_to_fp16"), val = tensor<fp16, [128, 192, 1, 1]>(BLOBFILE(path = tensor<string, []>("@model_path/weights/weight.bin"), offset = tensor<uint64, []>(3110976)))];
            tensor<fp16, [128]> model_19_cv1_conv_bias_to_fp16 = const()[name = tensor<string, []>("model_19_cv1_conv_bias_to_fp16"), val = tensor<fp16, [128]>(BLOBFILE(path = tensor<string, []>("@model_path/weights/weight.bin"), offset = tensor<uint64, []>(3160192)))];
            tensor<fp16, [1, 128, 40, 40]> input_227_cast_fp16 = conv(bias = model_19_cv1_conv_bias_to_fp16, dilations = input_227_dilations_0, groups = input_227_groups_0, pad = input_227_pad_0, pad_type = input_227_pad_type_0, strides = input_227_strides_0, weight = model_19_cv1_conv_weight_to_fp16, x = input_225_cast_fp16)[name = tensor<string, []>("input_227_cast_fp16")];
            tensor<fp16, [1, 128, 40, 40]> var_864_cast_fp16 = silu(x = input_227_cast_fp16)[name = tensor<string, []>("op_864_cast_fp16")];
            tensor<int32, [2]> var_865 = const()[name = tensor<string, []>("op_865"), val = tensor<int32, [2]>([64, 64])];
            tensor<int32, []> var_866_axis_0 = const()[name = tensor<string, []>("op_866_axis_0"), val = tensor<int32, []>(1)];
            tensor<fp16, [1, 64, 40, 40]> var_866_cast_fp16_0, tensor<fp16, [1, 64, 40, 40]> var_866_cast_fp16_1 = split(axis = var_866_axis_0, split_sizes = var_865, x = var_864_cast_fp16)[name = tensor<string, []>("op_866_cast_fp16")];
            tensor<string, []> input_231_pad_type_0 = const()[name = tensor<string, []>("input_231_pad_type_0"), val = tensor<string, []>("valid")];
            tensor<int32, [2]> input_231_strides_0 = const()[name = tensor<string, []>("input_231_strides_0"), val = tensor<int32, [2]>([1, 1])];
            tensor<int32, [4]> input_231_pad_0 = const()[name = tensor<string, []>("input_231_pad_0"), val = tensor<int32, [4]>([0, 0, 0, 0])];
            tensor<int32, [2]> input_231_dilations_0 = const()[name = tensor<string, []>("input_231_dilations_0"), val = tensor<int32, [2]>([1, 1])];
            tensor<int32, []> input_231_groups_0 = const()[name = tensor<string, []>("input_231_groups_0"), val = tensor<int32, []>(1)];
            tensor<fp16, [32, 64, 1, 1]> model_19_m_0_cv1_conv_weight_to_fp16 = const()[name = tensor<string, []>("model_19_m_0_cv1_conv_weight_to_fp16"), val = tensor<fp16, [32, 64, 1, 1]>(BLOBFILE(path = tensor<string, []>("@model_path/weights/weight.bin"), offset = tensor<uint64, []>(3160512)))];
            tensor<fp16, [32]> model_19_m_0_cv1_conv_bias_to_fp16 = const()[name = tensor<string, []>("model_19_m_0_cv1_conv_bias_to_fp16"), val = tensor<fp16, [32]>(BLOBFILE(path = tensor<string, []>("@model_path/weights/weight.bin"), offset = tensor<uint64, []>(3164672)))];
            tensor<fp16, [1, 32, 40, 40]> input_231_cast_fp16 = conv(bias = model_19_m_0_cv1_conv_bias_to_fp16, dilations = input_231_dilations_0, groups = input_231_groups_0, pad = input_231_pad_0, pad_type = input_231_pad_type_0, strides = input_231_strides_0, weight = model_19_m_0_cv1_conv_weight_to_fp16, x = var_866_cast_fp16_1)[name = tensor<string, []>("input_231_cast_fp16")];
            tensor<fp16, [1, 32, 40, 40]> input_233_cast_fp16 = silu(x = input_231_cast_fp16)[name = tensor<string, []>("input_233_cast_fp16")];
            tensor<string, []> input_235_pad_type_0 = const()[name = tensor<string, []>("input_235_pad_type_0"), val = tensor<string, []>("custom")];
            tensor<int32, [4]> input_235_pad_0 = const()[name = tensor<string, []>("input_235_pad_0"), val = tensor<int32, [4]>([1, 1, 1, 1])];
            tensor<int32, [2]> input_235_strides_0 = const()[name = tensor<string, []>("input_235_strides_0"), val = tensor<int32, [2]>([1, 1])];
            tensor<int32, [2]> input_235_dilations_0 = const()[name = tensor<string, []>("input_235_dilations_0"), val = tensor<int32, [2]>([1, 1])];
            tensor<int32, []> input_235_groups_0 = const()[name = tensor<string, []>("input_235_groups_0"), val = tensor<int32, []>(1)];
            tensor<fp16, [32, 32, 3, 3]> model_19_m_0_m_0_cv1_conv_weight_to_fp16 = const()[name = tensor<string, []>("model_19_m_0_m_0_cv1_conv_weight_to_fp16"), val = tensor<fp16, [32, 32, 3, 3]>(BLOBFILE(path = tensor<string, []>("@model_path/weights/weight.bin"), offset = tensor<uint64, []>(3164800)))];
            tensor<fp16, [32]> model_19_m_0_m_0_cv1_conv_bias_to_fp16 = const()[name = tensor<string, []>("model_19_m_0_m_0_cv1_conv_bias_to_fp16"), val = tensor<fp16, [32]>(BLOBFILE(path = tensor<string, []>("@model_path/weights/weight.bin"), offset = tensor<uint64, []>(3183296)))];
            tensor<fp16, [1, 32, 40, 40]> input_235_cast_fp16 = conv(bias = model_19_m_0_m_0_cv1_conv_bias_to_fp16, dilations = input_235_dilations_0, groups = input_235_groups_0, pad = input_235_pad_0, pad_type = input_235_pad_type_0, strides = input_235_strides_0, weight = model_19_m_0_m_0_cv1_conv_weight_to_fp16, x = input_233_cast_fp16)[name = tensor<string, []>("input_235_cast_fp16")];
            tensor<fp16, [1, 32, 40, 40]> input_237_cast_fp16 = silu(x = input_235_cast_fp16)[name = tensor<string, []>("input_237_cast_fp16")];
            tensor<string, []> input_239_pad_type_0 = const()[name = tensor<string, []>("input_239_pad_type_0"), val = tensor<string, []>("custom")];
            tensor<int32, [4]> input_239_pad_0 = const()[name = tensor<string, []>("input_239_pad_0"), val = tensor<int32, [4]>([1, 1, 1, 1])];
            tensor<int32, [2]> input_239_strides_0 = const()[name = tensor<string, []>("input_239_strides_0"), val = tensor<int32, [2]>([1, 1])];
            tensor<int32, [2]> input_239_dilations_0 = const()[name = tensor<string, []>("input_239_dilations_0"), val = tensor<int32, [2]>([1, 1])];
            tensor<int32, []> input_239_groups_0 = const()[name = tensor<string, []>("input_239_groups_0"), val = tensor<int32, []>(1)];
            tensor<fp16, [32, 32, 3, 3]> model_19_m_0_m_0_cv2_conv_weight_to_fp16 = const()[name = tensor<string, []>("model_19_m_0_m_0_cv2_conv_weight_to_fp16"), val = tensor<fp16, [32, 32, 3, 3]>(BLOBFILE(path = tensor<string, []>("@model_path/weights/weight.bin"), offset = tensor<uint64, []>(3183424)))];
            tensor<fp16, [32]> model_19_m_0_m_0_cv2_conv_bias_to_fp16 = const()[name = tensor<string, []>("model_19_m_0_m_0_cv2_conv_bias_to_fp16"), val = tensor<fp16, [32]>(BLOBFILE(path = tensor<string, []>("@model_path/weights/weight.bin"), offset = tensor<uint64, []>(3201920)))];
            tensor<fp16, [1, 32, 40, 40]> input_239_cast_fp16 = conv(bias = model_19_m_0_m_0_cv2_conv_bias_to_fp16, dilations = input_239_dilations_0, groups = input_239_groups_0, pad = input_239_pad_0, pad_type = input_239_pad_type_0, strides = input_239_strides_0, weight = model_19_m_0_m_0_cv2_conv_weight_to_fp16, x = input_237_cast_fp16)[name = tensor<string, []>("input_239_cast_fp16")];
            tensor<fp16, [1, 32, 40, 40]> var_903_cast_fp16 = silu(x = input_239_cast_fp16)[name = tensor<string, []>("op_903_cast_fp16")];
            tensor<fp16, [1, 32, 40, 40]> input_241_cast_fp16 = add(x = input_233_cast_fp16, y = var_903_cast_fp16)[name = tensor<string, []>("input_241_cast_fp16")];
            tensor<string, []> input_243_pad_type_0 = const()[name = tensor<string, []>("input_243_pad_type_0"), val = tensor<string, []>("custom")];
            tensor<int32, [4]> input_243_pad_0 = const()[name = tensor<string, []>("input_243_pad_0"), val = tensor<int32, [4]>([1, 1, 1, 1])];
            tensor<int32, [2]> input_243_strides_0 = const()[name = tensor<string, []>("input_243_strides_0"), val = tensor<int32, [2]>([1, 1])];
            tensor<int32, [2]> input_243_dilations_0 = const()[name = tensor<string, []>("input_243_dilations_0"), val = tensor<int32, [2]>([1, 1])];
            tensor<int32, []> input_243_groups_0 = const()[name = tensor<string, []>("input_243_groups_0"), val = tensor<int32, []>(1)];
            tensor<fp16, [32, 32, 3, 3]> model_19_m_0_m_1_cv1_conv_weight_to_fp16 = const()[name = tensor<string, []>("model_19_m_0_m_1_cv1_conv_weight_to_fp16"), val = tensor<fp16, [32, 32, 3, 3]>(BLOBFILE(path = tensor<string, []>("@model_path/weights/weight.bin"), offset = tensor<uint64, []>(3202048)))];
            tensor<fp16, [32]> model_19_m_0_m_1_cv1_conv_bias_to_fp16 = const()[name = tensor<string, []>("model_19_m_0_m_1_cv1_conv_bias_to_fp16"), val = tensor<fp16, [32]>(BLOBFILE(path = tensor<string, []>("@model_path/weights/weight.bin"), offset = tensor<uint64, []>(3220544)))];
            tensor<fp16, [1, 32, 40, 40]> input_243_cast_fp16 = conv(bias = model_19_m_0_m_1_cv1_conv_bias_to_fp16, dilations = input_243_dilations_0, groups = input_243_groups_0, pad = input_243_pad_0, pad_type = input_243_pad_type_0, strides = input_243_strides_0, weight = model_19_m_0_m_1_cv1_conv_weight_to_fp16, x = input_241_cast_fp16)[name = tensor<string, []>("input_243_cast_fp16")];
            tensor<fp16, [1, 32, 40, 40]> input_245_cast_fp16 = silu(x = input_243_cast_fp16)[name = tensor<string, []>("input_245_cast_fp16")];
            tensor<string, []> input_247_pad_type_0 = const()[name = tensor<string, []>("input_247_pad_type_0"), val = tensor<string, []>("custom")];
            tensor<int32, [4]> input_247_pad_0 = const()[name = tensor<string, []>("input_247_pad_0"), val = tensor<int32, [4]>([1, 1, 1, 1])];
            tensor<int32, [2]> input_247_strides_0 = const()[name = tensor<string, []>("input_247_strides_0"), val = tensor<int32, [2]>([1, 1])];
            tensor<int32, [2]> input_247_dilations_0 = const()[name = tensor<string, []>("input_247_dilations_0"), val = tensor<int32, [2]>([1, 1])];
            tensor<int32, []> input_247_groups_0 = const()[name = tensor<string, []>("input_247_groups_0"), val = tensor<int32, []>(1)];
            tensor<fp16, [32, 32, 3, 3]> model_19_m_0_m_1_cv2_conv_weight_to_fp16 = const()[name = tensor<string, []>("model_19_m_0_m_1_cv2_conv_weight_to_fp16"), val = tensor<fp16, [32, 32, 3, 3]>(BLOBFILE(path = tensor<string, []>("@model_path/weights/weight.bin"), offset = tensor<uint64, []>(3220672)))];
            tensor<fp16, [32]> model_19_m_0_m_1_cv2_conv_bias_to_fp16 = const()[name = tensor<string, []>("model_19_m_0_m_1_cv2_conv_bias_to_fp16"), val = tensor<fp16, [32]>(BLOBFILE(path = tensor<string, []>("@model_path/weights/weight.bin"), offset = tensor<uint64, []>(3239168)))];
            tensor<fp16, [1, 32, 40, 40]> input_247_cast_fp16 = conv(bias = model_19_m_0_m_1_cv2_conv_bias_to_fp16, dilations = input_247_dilations_0, groups = input_247_groups_0, pad = input_247_pad_0, pad_type = input_247_pad_type_0, strides = input_247_strides_0, weight = model_19_m_0_m_1_cv2_conv_weight_to_fp16, x = input_245_cast_fp16)[name = tensor<string, []>("input_247_cast_fp16")];
            tensor<fp16, [1, 32, 40, 40]> var_924_cast_fp16 = silu(x = input_247_cast_fp16)[name = tensor<string, []>("op_924_cast_fp16")];
            tensor<fp16, [1, 32, 40, 40]> var_925_cast_fp16 = add(x = input_241_cast_fp16, y = var_924_cast_fp16)[name = tensor<string, []>("op_925_cast_fp16")];
            tensor<string, []> input_249_pad_type_0 = const()[name = tensor<string, []>("input_249_pad_type_0"), val = tensor<string, []>("valid")];
            tensor<int32, [2]> input_249_strides_0 = const()[name = tensor<string, []>("input_249_strides_0"), val = tensor<int32, [2]>([1, 1])];
            tensor<int32, [4]> input_249_pad_0 = const()[name = tensor<string, []>("input_249_pad_0"), val = tensor<int32, [4]>([0, 0, 0, 0])];
            tensor<int32, [2]> input_249_dilations_0 = const()[name = tensor<string, []>("input_249_dilations_0"), val = tensor<int32, [2]>([1, 1])];
            tensor<int32, []> input_249_groups_0 = const()[name = tensor<string, []>("input_249_groups_0"), val = tensor<int32, []>(1)];
            tensor<fp16, [32, 64, 1, 1]> model_19_m_0_cv2_conv_weight_to_fp16 = const()[name = tensor<string, []>("model_19_m_0_cv2_conv_weight_to_fp16"), val = tensor<fp16, [32, 64, 1, 1]>(BLOBFILE(path = tensor<string, []>("@model_path/weights/weight.bin"), offset = tensor<uint64, []>(3239296)))];
            tensor<fp16, [32]> model_19_m_0_cv2_conv_bias_to_fp16 = const()[name = tensor<string, []>("model_19_m_0_cv2_conv_bias_to_fp16"), val = tensor<fp16, [32]>(BLOBFILE(path = tensor<string, []>("@model_path/weights/weight.bin"), offset = tensor<uint64, []>(3243456)))];
            tensor<fp16, [1, 32, 40, 40]> input_249_cast_fp16 = conv(bias = model_19_m_0_cv2_conv_bias_to_fp16, dilations = input_249_dilations_0, groups = input_249_groups_0, pad = input_249_pad_0, pad_type = input_249_pad_type_0, strides = input_249_strides_0, weight = model_19_m_0_cv2_conv_weight_to_fp16, x = var_866_cast_fp16_1)[name = tensor<string, []>("input_249_cast_fp16")];
            tensor<fp16, [1, 32, 40, 40]> var_934_cast_fp16 = silu(x = input_249_cast_fp16)[name = tensor<string, []>("op_934_cast_fp16")];
            tensor<bool, []> input_251_interleave_0 = const()[name = tensor<string, []>("input_251_interleave_0"), val = tensor<bool, []>(false)];
            tensor<fp16, [1, 64, 40, 40]> input_251_cast_fp16 = concat(axis = var_851, interleave = input_251_interleave_0, values = (var_925_cast_fp16, var_934_cast_fp16))[name = tensor<string, []>("input_251_cast_fp16")];
            tensor<string, []> input_253_pad_type_0 = const()[name = tensor<string, []>("input_253_pad_type_0"), val = tensor<string, []>("valid")];
            tensor<int32, [2]> input_253_strides_0 = const()[name = tensor<string, []>("input_253_strides_0"), val = tensor<int32, [2]>([1, 1])];
            tensor<int32, [4]> input_253_pad_0 = const()[name = tensor<string, []>("input_253_pad_0"), val = tensor<int32, [4]>([0, 0, 0, 0])];
            tensor<int32, [2]> input_253_dilations_0 = const()[name = tensor<string, []>("input_253_dilations_0"), val = tensor<int32, [2]>([1, 1])];
            tensor<int32, []> input_253_groups_0 = const()[name = tensor<string, []>("input_253_groups_0"), val = tensor<int32, []>(1)];
            tensor<fp16, [64, 64, 1, 1]> model_19_m_0_cv3_conv_weight_to_fp16 = const()[name = tensor<string, []>("model_19_m_0_cv3_conv_weight_to_fp16"), val = tensor<fp16, [64, 64, 1, 1]>(BLOBFILE(path = tensor<string, []>("@model_path/weights/weight.bin"), offset = tensor<uint64, []>(3243584)))];
            tensor<fp16, [64]> model_19_m_0_cv3_conv_bias_to_fp16 = const()[name = tensor<string, []>("model_19_m_0_cv3_conv_bias_to_fp16"), val = tensor<fp16, [64]>(BLOBFILE(path = tensor<string, []>("@model_path/weights/weight.bin"), offset = tensor<uint64, []>(3251840)))];
            tensor<fp16, [1, 64, 40, 40]> input_253_cast_fp16 = conv(bias = model_19_m_0_cv3_conv_bias_to_fp16, dilations = input_253_dilations_0, groups = input_253_groups_0, pad = input_253_pad_0, pad_type = input_253_pad_type_0, strides = input_253_strides_0, weight = model_19_m_0_cv3_conv_weight_to_fp16, x = input_251_cast_fp16)[name = tensor<string, []>("input_253_cast_fp16")];
            tensor<fp16, [1, 64, 40, 40]> var_945_cast_fp16 = silu(x = input_253_cast_fp16)[name = tensor<string, []>("op_945_cast_fp16")];
            tensor<bool, []> input_255_interleave_0 = const()[name = tensor<string, []>("input_255_interleave_0"), val = tensor<bool, []>(false)];
            tensor<fp16, [1, 192, 40, 40]> input_255_cast_fp16 = concat(axis = var_851, interleave = input_255_interleave_0, values = (var_866_cast_fp16_0, var_866_cast_fp16_1, var_945_cast_fp16))[name = tensor<string, []>("input_255_cast_fp16")];
            tensor<string, []> input_257_pad_type_0 = const()[name = tensor<string, []>("input_257_pad_type_0"), val = tensor<string, []>("valid")];
            tensor<int32, [2]> input_257_strides_0 = const()[name = tensor<string, []>("input_257_strides_0"), val = tensor<int32, [2]>([1, 1])];
            tensor<int32, [4]> input_257_pad_0 = const()[name = tensor<string, []>("input_257_pad_0"), val = tensor<int32, [4]>([0, 0, 0, 0])];
            tensor<int32, [2]> input_257_dilations_0 = const()[name = tensor<string, []>("input_257_dilations_0"), val = tensor<int32, [2]>([1, 1])];
            tensor<int32, []> input_257_groups_0 = const()[name = tensor<string, []>("input_257_groups_0"), val = tensor<int32, []>(1)];
            tensor<fp16, [128, 192, 1, 1]> model_19_cv2_conv_weight_to_fp16 = const()[name = tensor<string, []>("model_19_cv2_conv_weight_to_fp16"), val = tensor<fp16, [128, 192, 1, 1]>(BLOBFILE(path = tensor<string, []>("@model_path/weights/weight.bin"), offset = tensor<uint64, []>(3252032)))];
            tensor<fp16, [128]> model_19_cv2_conv_bias_to_fp16 = const()[name = tensor<string, []>("model_19_cv2_conv_bias_to_fp16"), val = tensor<fp16, [128]>(BLOBFILE(path = tensor<string, []>("@model_path/weights/weight.bin"), offset = tensor<uint64, []>(3301248)))];
            tensor<fp16, [1, 128, 40, 40]> input_257_cast_fp16 = conv(bias = model_19_cv2_conv_bias_to_fp16, dilations = input_257_dilations_0, groups = input_257_groups_0, pad = input_257_pad_0, pad_type = input_257_pad_type_0, strides = input_257_strides_0, weight = model_19_cv2_conv_weight_to_fp16, x = input_255_cast_fp16)[name = tensor<string, []>("input_257_cast_fp16")];
            tensor<fp16, [1, 128, 40, 40]> input_259_cast_fp16 = silu(x = input_257_cast_fp16)[name = tensor<string, []>("input_259_cast_fp16")];
            tensor<string, []> input_261_pad_type_0 = const()[name = tensor<string, []>("input_261_pad_type_0"), val = tensor<string, []>("custom")];
            tensor<int32, [4]> input_261_pad_0 = const()[name = tensor<string, []>("input_261_pad_0"), val = tensor<int32, [4]>([1, 1, 1, 1])];
            tensor<int32, [2]> input_261_strides_0 = const()[name = tensor<string, []>("input_261_strides_0"), val = tensor<int32, [2]>([2, 2])];
            tensor<int32, [2]> input_261_dilations_0 = const()[name = tensor<string, []>("input_261_dilations_0"), val = tensor<int32, [2]>([1, 1])];
            tensor<int32, []> input_261_groups_0 = const()[name = tensor<string, []>("input_261_groups_0"), val = tensor<int32, []>(1)];
            tensor<fp16, [128, 128, 3, 3]> model_20_conv_weight_to_fp16 = const()[name = tensor<string, []>("model_20_conv_weight_to_fp16"), val = tensor<fp16, [128, 128, 3, 3]>(BLOBFILE(path = tensor<string, []>("@model_path/weights/weight.bin"), offset = tensor<uint64, []>(3301568)))];
            tensor<fp16, [128]> model_20_conv_bias_to_fp16 = const()[name = tensor<string, []>("model_20_conv_bias_to_fp16"), val = tensor<fp16, [128]>(BLOBFILE(path = tensor<string, []>("@model_path/weights/weight.bin"), offset = tensor<uint64, []>(3596544)))];
            tensor<fp16, [1, 128, 20, 20]> input_261_cast_fp16 = conv(bias = model_20_conv_bias_to_fp16, dilations = input_261_dilations_0, groups = input_261_groups_0, pad = input_261_pad_0, pad_type = input_261_pad_type_0, strides = input_261_strides_0, weight = model_20_conv_weight_to_fp16, x = input_259_cast_fp16)[name = tensor<string, []>("input_261_cast_fp16")];
            tensor<fp16, [1, 128, 20, 20]> var_970_cast_fp16 = silu(x = input_261_cast_fp16)[name = tensor<string, []>("op_970_cast_fp16")];
            tensor<int32, []> var_971 = const()[name = tensor<string, []>("op_971"), val = tensor<int32, []>(1)];
            tensor<bool, []> input_263_interleave_0 = const()[name = tensor<string, []>("input_263_interleave_0"), val = tensor<bool, []>(false)];
            tensor<fp16, [1, 384, 20, 20]> input_263_cast_fp16 = concat(axis = var_971, interleave = input_263_interleave_0, values = (var_970_cast_fp16, input_149_cast_fp16))[name = tensor<string, []>("input_263_cast_fp16")];
            tensor<int32, []> var_979 = const()[name = tensor<string, []>("op_979"), val = tensor<int32, []>(-1)];
            tensor<int32, []> var_985 = const()[name = tensor<string, []>("op_985"), val = tensor<int32, []>(1)];
            tensor<string, []> input_265_pad_type_0 = const()[name = tensor<string, []>("input_265_pad_type_0"), val = tensor<string, []>("valid")];
            tensor<int32, [2]> input_265_strides_0 = const()[name = tensor<string, []>("input_265_strides_0"), val = tensor<int32, [2]>([1, 1])];
            tensor<int32, [4]> input_265_pad_0 = const()[name = tensor<string, []>("input_265_pad_0"), val = tensor<int32, [4]>([0, 0, 0, 0])];
            tensor<int32, [2]> input_265_dilations_0 = const()[name = tensor<string, []>("input_265_dilations_0"), val = tensor<int32, [2]>([1, 1])];
            tensor<int32, []> input_265_groups_0 = const()[name = tensor<string, []>("input_265_groups_0"), val = tensor<int32, []>(1)];
            tensor<fp16, [256, 384, 1, 1]> model_22_cv1_conv_weight_to_fp16 = const()[name = tensor<string, []>("model_22_cv1_conv_weight_to_fp16"), val = tensor<fp16, [256, 384, 1, 1]>(BLOBFILE(path = tensor<string, []>("@model_path/weights/weight.bin"), offset = tensor<uint64, []>(3596864)))];
            tensor<fp16, [256]> model_22_cv1_conv_bias_to_fp16 = const()[name = tensor<string, []>("model_22_cv1_conv_bias_to_fp16"), val = tensor<fp16, [256]>(BLOBFILE(path = tensor<string, []>("@model_path/weights/weight.bin"), offset = tensor<uint64, []>(3793536)))];
            tensor<fp16, [1, 256, 20, 20]> input_265_cast_fp16 = conv(bias = model_22_cv1_conv_bias_to_fp16, dilations = input_265_dilations_0, groups = input_265_groups_0, pad = input_265_pad_0, pad_type = input_265_pad_type_0, strides = input_265_strides_0, weight = model_22_cv1_conv_weight_to_fp16, x = input_263_cast_fp16)[name = tensor<string, []>("input_265_cast_fp16")];
            tensor<fp16, [1, 256, 20, 20]> var_998_cast_fp16 = silu(x = input_265_cast_fp16)[name = tensor<string, []>("op_998_cast_fp16")];
            tensor<int32, [2]> var_999 = const()[name = tensor<string, []>("op_999"), val = tensor<int32, [2]>([128, 128])];
            tensor<int32, []> var_1000_axis_0 = const()[name = tensor<string, []>("op_1000_axis_0"), val = tensor<int32, []>(1)];
…
            tensor<int32, []> input_301_groups_0 = const()[name = tensor<string, []>("input_301_groups_0"), val = tensor<int32, []>(1)];
            tensor<fp16, [16, 128, 3, 3]> model_23_one2one_cv2_1_0_conv_weight_to_fp16 = const()[name = tensor<string, []>("model_23_one2one_cv2_1_0_conv_weight_to_fp16"), val = tensor<fp16, [16, 128, 3, 3]>(BLOBFILE(path = tensor<string, []>("@model_path/weights/weight.bin"), offset = tensor<uint64, []>(4544640)))];
            tensor<fp16, [16]> model_23_one2one_cv2_1_0_conv_bias_to_fp16 = const()[name = tensor<string, []>("model_23_one2one_cv2_1_0_conv_bias_to_fp16"), val = tensor<fp16, [16]>(BLOBFILE(path = tensor<string, []>("@model_path/weights/weight.bin"), offset = tensor<uint64, []>(4581568)))];
            tensor<fp16, [1, 16, 40, 40]> input_301_cast_fp16 = conv(bias = model_23_one2one_cv2_1_0_conv_bias_to_fp16, dilations = input_301_dilations_0, groups = input_301_groups_0, pad = input_301_pad_0, pad_type = input_301_pad_type_0, strides = input_301_strides_0, weight = model_23_one2one_cv2_1_0_conv_weight_to_fp16, x = input_259_cast_fp16)[name = tensor<string, []>("input_301_cast_fp16")];
            tensor<fp16, [1, 16, 40, 40]> input_303_cast_fp16 = silu(x = input_301_cast_fp16)[name = tensor<string, []>("input_303_cast_fp16")];
            tensor<string, []> input_305_pad_type_0 = const()[name = tensor<string, []>("input_305_pad_type_0"), val = tensor<string, []>("custom")];
            tensor<int32, [4]> input_305_pad_0 = const()[name = tensor<string, []>("input_305_pad_0"), val = tensor<int32, [4]>([1, 1, 1, 1])];
            tensor<int32, [2]> input_305_strides_0 = const()[name = tensor<string, []>("input_305_strides_0"), val = tensor<int32, [2]>([1, 1])];
            tensor<int32, [2]> input_305_dilations_0 = const()[name = tensor<string, []>("input_305_dilations_0"), val = tensor<int32, [2]>([1, 1])];
            tensor<int32, []> input_305_groups_0 = const()[name = tensor<string, []>("input_305_groups_0"), val = tensor<int32, []>(1)];
            tensor<fp16, [16, 16, 3, 3]> model_23_one2one_cv2_1_1_conv_weight_to_fp16 = const()[name = tensor<string, []>("model_23_one2one_cv2_1_1_conv_weight_to_fp16"), val = tensor<fp16, [16, 16, 3, 3]>(BLOBFILE(path = tensor<string, []>("@model_path/weights/weight.bin"), offset = tensor<uint64, []>(4581696)))];
            tensor<fp16, [16]> model_23_one2one_cv2_1_1_conv_bias_to_fp16 = const()[name = tensor<string, []>("model_23_one2one_cv2_1_1_conv_bias_to_fp16"), val = tensor<fp16, [16]>(BLOBFILE(path = tensor<string, []>("@model_path/weights/weight.bin"), offset = tensor<uint64, []>(4586368)))];
            tensor<fp16, [1, 16, 40, 40]> input_305_cast_fp16 = conv(bias = model_23_one2one_cv2_1_1_conv_bias_to_fp16, dilations = input_305_dilations_0, groups = input_305_groups_0, pad = input_305_pad_0, pad_type = input_305_pad_type_0, strides = input_305_strides_0, weight = model_23_one2one_cv2_1_1_conv_weight_to_fp16, x = input_303_cast_fp16)[name = tensor<string, []>("input_305_cast_fp16")];
            tensor<fp16, [1, 16, 40, 40]> input_307_cast_fp16 = silu(x = input_305_cast_fp16)[name = tensor<string, []>("input_307_cast_fp16")];
            tensor<string, []> var_1204_pad_type_0 = const()[name = tensor<string, []>("op_1204_pad_type_0"), val = tensor<string, []>("valid")];
            tensor<int32, [2]> var_1204_strides_0 = const()[name = tensor<string, []>("op_1204_strides_0"), val = tensor<int32, [2]>([1, 1])];
            tensor<int32, [4]> var_1204_pad_0 = const()[name = tensor<string, []>("op_1204_pad_0"), val = tensor<int32, [4]>([0, 0, 0, 0])];
            tensor<int32, [2]> var_1204_dilations_0 = const()[name = tensor<string, []>("op_1204_dilations_0"), val = tensor<int32, [2]>([1, 1])];
            tensor<int32, []> var_1204_groups_0 = const()[name = tensor<string, []>("op_1204_groups_0"), val = tensor<int32, []>(1)];
            tensor<fp16, [4, 16, 1, 1]> model_23_one2one_cv2_1_2_weight_to_fp16 = const()[name = tensor<string, []>("model_23_one2one_cv2_1_2_weight_to_fp16"), val = tensor<fp16, [4, 16, 1, 1]>(BLOBFILE(path = tensor<string, []>("@model_path/weights/weight.bin"), offset = tensor<uint64, []>(4586496)))];
            tensor<fp16, [4]> model_23_one2one_cv2_1_2_bias_to_fp16 = const()[name = tensor<string, []>("model_23_one2one_cv2_1_2_bias_to_fp16"), val = tensor<fp16, [4]>([0x1.a6cp+0, 0x1.ef8p+0, 0x1.014p+0, 0x1.0dcp+0])];
            tensor<fp16, [1, 4, 40, 40]> var_1204_cast_fp16 = conv(bias = model_23_one2one_cv2_1_2_bias_to_fp16, dilations = var_1204_dilations_0, groups = var_1204_groups_0, pad = var_1204_pad_0, pad_type = var_1204_pad_type_0, strides = var_1204_strides_0, weight = model_23_one2one_cv2_1_2_weight_to_fp16, x = input_307_cast_fp16)[name = tensor<string, []>("op_1204_cast_fp16")];
            tensor<int32, [3]> var_1205 = const()[name = tensor<string, []>("op_1205"), val = tensor<int32, [3]>([1, 4, -1])];
            tensor<fp16, [1, 4, 1600]> var_1206_cast_fp16 = reshape(shape = var_1205, x = var_1204_cast_fp16)[name = tensor<string, []>("op_1206_cast_fp16")];
            tensor<string, []> input_311_pad_type_0 = const()[name = tensor<string, []>("input_311_pad_type_0"), val = tensor<string, []>("custom")];
            tensor<int32, [4]> input_311_pad_0 = const()[name = tensor<string, []>("input_311_pad_0"), val = tensor<int32, [4]>([1, 1, 1, 1])];
            tensor<int32, [2]> input_311_strides_0 = const()[name = tensor<string, []>("input_311_strides_0"), val = tensor<int32, [2]>([1, 1])];
            tensor<int32, [2]> input_311_dilations_0 = const()[name = tensor<string, []>("input_311_dilations_0"), val = tensor<int32, [2]>([1, 1])];
            tensor<int32, []> input_311_groups_0 = const()[name = tensor<string, []>("input_311_groups_0"), val = tensor<int32, []>(1)];
            tensor<fp16, [16, 256, 3, 3]> model_23_one2one_cv2_2_0_conv_weight_to_fp16 = const()[name = tensor<string, []>("model_23_one2one_cv2_2_0_conv_weight_to_fp16"), val = tensor<fp16, [16, 256, 3, 3]>(BLOBFILE(path = tensor<string, []>("@model_path/weights/weight.bin"), offset = tensor<uint64, []>(4586688)))];
            tensor<fp16, [16]> model_23_one2one_cv2_2_0_conv_bias_to_fp16 = const()[name = tensor<string, []>("model_23_one2one_cv2_2_0_conv_bias_to_fp16"), val = tensor<fp16, [16]>(BLOBFILE(path = tensor<string, []>("@model_path/weights/weight.bin"), offset = tensor<uint64, []>(4660480)))];
            tensor<fp16, [1, 16, 20, 20]> input_311_cast_fp16 = conv(bias = model_23_one2one_cv2_2_0_conv_bias_to_fp16, dilations = input_311_dilations_0, groups = input_311_groups_0, pad = input_311_pad_0, pad_type = input_311_pad_type_0, strides = input_311_strides_0, weight = model_23_one2one_cv2_2_0_conv_weight_to_fp16, x = xi_cast_fp16)[name = tensor<string, []>("input_311_cast_fp16")];
            tensor<fp16, [1, 16, 20, 20]> input_313_cast_fp16 = silu(x = input_311_cast_fp16)[name = tensor<string, []>("input_313_cast_fp16")];
            tensor<string, []> input_315_pad_type_0 = const()[name = tensor<string, []>("input_315_pad_type_0"), val = tensor<string, []>("custom")];
            tensor<int32, [4]> input_315_pad_0 = const()[name = tensor<string, []>("input_315_pad_0"), val = tensor<int32, [4]>([1, 1, 1, 1])];
            tensor<int32, [2]> input_315_strides_0 = const()[name = tensor<string, []>("input_315_strides_0"), val = tensor<int32, [2]>([1, 1])];
            tensor<int32, [2]> input_315_dilations_0 = const()[name = tensor<string, []>("input_315_dilations_0"), val = tensor<int32, [2]>([1, 1])];
            tensor<int32, []> input_315_groups_0 = const()[name = tensor<string, []>("input_315_groups_0"), val = tensor<int32, []>(1)];
            tensor<fp16, [16, 16, 3, 3]> model_23_one2one_cv2_2_1_conv_weight_to_fp16 = const()[name = tensor<string, []>("model_23_one2one_cv2_2_1_conv_weight_to_fp16"), val = tensor<fp16, [16, 16, 3, 3]>(BLOBFILE(path = tensor<string, []>("@model_path/weights/weight.bin"), offset = tensor<uint64, []>(4660608)))];
            tensor<fp16, [16]> model_23_one2one_cv2_2_1_conv_bias_to_fp16 = const()[name = tensor<string, []>("model_23_one2one_cv2_2_1_conv_bias_to_fp16"), val = tensor<fp16, [16]>(BLOBFILE(path = tensor<string, []>("@model_path/weights/weight.bin"), offset = tensor<uint64, []>(4665280)))];
            tensor<fp16, [1, 16, 20, 20]> input_315_cast_fp16 = conv(bias = model_23_one2one_cv2_2_1_conv_bias_to_fp16, dilations = input_315_dilations_0, groups = input_315_groups_0, pad = input_315_pad_0, pad_type = input_315_pad_type_0, strides = input_315_strides_0, weight = model_23_one2one_cv2_2_1_conv_weight_to_fp16, x = input_313_cast_fp16)[name = tensor<string, []>("input_315_cast_fp16")];
            tensor<fp16, [1, 16, 20, 20]> input_317_cast_fp16 = silu(x = input_315_cast_fp16)[name = tensor<string, []>("input_317_cast_fp16")];
            tensor<string, []> var_1234_pad_type_0 = const()[name = tensor<string, []>("op_1234_pad_type_0"), val = tensor<string, []>("valid")];
            tensor<int32, [2]> var_1234_strides_0 = const()[name = tensor<string, []>("op_1234_strides_0"), val = tensor<int32, [2]>([1, 1])];
            tensor<int32, [4]> var_1234_pad_0 = const()[name = tensor<string, []>("op_1234_pad_0"), val = tensor<int32, [4]>([0, 0, 0, 0])];
            tensor<int32, [2]> var_1234_dilations_0 = const()[name = tensor<string, []>("op_1234_dilations_0"), val = tensor<int32, [2]>([1, 1])];
            tensor<int32, []> var_1234_groups_0 = const()[name = tensor<string, []>("op_1234_groups_0"), val = tensor<int32, []>(1)];
            tensor<fp16, [4, 16, 1, 1]> model_23_one2one_cv2_2_2_weight_to_fp16 = const()[name = tensor<string, []>("model_23_one2one_cv2_2_2_weight_to_fp16"), val = tensor<fp16, [4, 16, 1, 1]>(BLOBFILE(path = tensor<string, []>("@model_path/weights/weight.bin"), offset = tensor<uint64, []>(4665408)))];
            tensor<fp16, [4]> model_23_one2one_cv2_2_2_bias_to_fp16 = const()[name = tensor<string, []>("model_23_one2one_cv2_2_2_bias_to_fp16"), val = tensor<fp16, [4]>([0x1.e98p+0, 0x1.36p+1, 0x1.594p+1, 0x1.28p+1])];
            tensor<fp16, [1, 4, 20, 20]> var_1234_cast_fp16 = conv(bias = model_23_one2one_cv2_2_2_bias_to_fp16, dilations = var_1234_dilations_0, groups = var_1234_groups_0, pad = var_1234_pad_0, pad_type = var_1234_pad_type_0, strides = var_1234_strides_0, weight = model_23_one2one_cv2_2_2_weight_to_fp16, x = input_317_cast_fp16)[name = tensor<string, []>("op_1234_cast_fp16")];
            tensor<int32, [3]> var_1235 = const()[name = tensor<string, []>("op_1235"), val = tensor<int32, [3]>([1, 4, -1])];
            tensor<fp16, [1, 4, 400]> var_1236_cast_fp16 = reshape(shape = var_1235, x = var_1234_cast_fp16)[name = tensor<string, []>("op_1236_cast_fp16")];
            tensor<bool, []> distance_interleave_0 = const()[name = tensor<string, []>("distance_interleave_0"), val = tensor<bool, []>(false)];
            tensor<fp16, [1, 4, 8400]> distance_cast_fp16 = concat(axis = var_1125, interleave = distance_interleave_0, values = (var_1176_cast_fp16, var_1206_cast_fp16, var_1236_cast_fp16))[name = tensor<string, []>("distance_cast_fp16")];
            tensor<string, []> input_319_pad_type_0 = const()[name = tensor<string, []>("input_319_pad_type_0"), val = tensor<string, []>("custom")];
            tensor<int32, [4]> input_319_pad_0 = const()[name = tensor<string, []>("input_319_pad_0"), val = tensor<int32, [4]>([1, 1, 1, 1])];
            tensor<int32, []> input_319_groups_0 = const()[name = tensor<string, []>("input_319_groups_0"), val = tensor<int32, []>(64)];
            tensor<int32, [2]> input_319_strides_0 = const()[name = tensor<string, []>("input_319_strides_0"), val = tensor<int32, [2]>([1, 1])];
            tensor<int32, [2]> input_319_dilations_0 = const()[name = tensor<string, []>("input_319_dilations_0"), val = tensor<int32, [2]>([1, 1])];
            tensor<fp16, [64, 1, 3, 3]> model_23_one2one_cv3_0_0_0_conv_weight_to_fp16 = const()[name = tensor<string, []>("model_23_one2one_cv3_0_0_0_conv_weight_to_fp16"), val = tensor<fp16, [64, 1, 3, 3]>(BLOBFILE(path = tensor<string, []>("@model_path/weights/weight.bin"), offset = tensor<uint64, []>(4665600)))];
            tensor<fp16, [64]> model_23_one2one_cv3_0_0_0_conv_bias_to_fp16 = const()[name = tensor<string, []>("model_23_one2one_cv3_0_0_0_conv_bias_to_fp16"), val = tensor<fp16, [64]>(BLOBFILE(path = tensor<string, []>("@model_path/weights/weight.bin"), offset = tensor<uint64, []>(4666816)))];
            tensor<fp16, [1, 64, 80, 80]> input_319_cast_fp16 = conv(bias = model_23_one2one_cv3_0_0_0_conv_bias_to_fp16, dilations = input_319_dilations_0, groups = input_319_groups_0, pad = input_319_pad_0, pad_type = input_319_pad_type_0, strides = input_319_strides_0, weight = model_23_one2one_cv3_0_0_0_conv_weight_to_fp16, x = input_221_cast_fp16)[name = tensor<string, []>("input_319_cast_fp16")];
            tensor<fp16, [1, 64, 80, 80]> input_321_cast_fp16 = silu(x = input_319_cast_fp16)[name = tensor<string, []>("input_321_cast_fp16")];
            tensor<string, []> input_323_pad_type_0 = const()[name = tensor<string, []>("input_323_pad_type_0"), val = tensor<string, []>("valid")];
            tensor<int32, [2]> input_323_strides_0 = const()[name = tensor<string, []>("input_323_strides_0"), val = tensor<int32, [2]>([1, 1])];
            tensor<int32, [4]> input_323_pad_0 = const()[name = tensor<string, []>("input_323_pad_0"), val = tensor<int32, [4]>([0, 0, 0, 0])];
            tensor<int32, [2]> input_323_dilations_0 = const()[name = tensor<string, []>("input_323_dilations_0"), val = tensor<int32, [2]>([1, 1])];
            tensor<int32, []> input_323_groups_0 = const()[name = tensor<string, []>("input_323_groups_0"), val = tensor<int32, []>(1)];
            tensor<fp16, [80, 64, 1, 1]> model_23_one2one_cv3_0_0_1_conv_weight_to_fp16 = const()[name = tensor<string, []>("model_23_one2one_cv3_0_0_1_conv_weight_to_fp16"), val = tensor<fp16, [80, 64, 1, 1]>(BLOBFILE(path = tensor<string, []>("@model_path/weights/weight.bin"), offset = tensor<uint64, []>(4667008)))];
            tensor<fp16, [80]> model_23_one2one_cv3_0_0_1_conv_bias_to_fp16 = const()[name = tensor<string, []>("model_23_one2one_cv3_0_0_1_conv_bias_to_fp16"), val = tensor<fp16, [80]>(BLOBFILE(path = tensor<string, []>("@model_path/weights/weight.bin"), offset = tensor<uint64, []>(4677312)))];
            tensor<fp16, [1, 80, 80, 80]> input_323_cast_fp16 = conv(bias = model_23_one2one_cv3_0_0_1_conv_bias_to_fp16, dilations = input_323_dilations_0, groups = input_323_groups_0, pad = input_323_pad_0, pad_type = input_323_pad_type_0, strides = input_323_strides_0, weight = model_23_one2one_cv3_0_0_1_conv_weight_to_fp16, x = input_321_cast_fp16)[name = tensor<string, []>("input_323_cast_fp16")];
            tensor<fp16, [1, 80, 80, 80]> input_325_cast_fp16 = silu(x = input_323_cast_fp16)[name = tensor<string, []>("input_325_cast_fp16")];
            tensor<string, []> input_327_pad_type_0 = const()[name = tensor<string, []>("input_327_pad_type_0"), val = tensor<string, []>("custom")];
            tensor<int32, [4]> input_327_pad_0 = const()[name = tensor<string, []>("input_327_pad_0"), val = tensor<int32, [4]>([1, 1, 1, 1])];
            tensor<int32, []> input_327_groups_0 = const()[name = tensor<string, []>("input_327_groups_0"), val = tensor<int32, []>(80)];
            tensor<int32, [2]> input_327_strides_0 = const()[name = tensor<string, []>("input_327_strides_0"), val = tensor<int32, [2]>([1, 1])];
            tensor<int32, [2]> input_327_dilations_0 = const()[name = tensor<string, []>("input_327_dilations_0"), val = tensor<int32, [2]>([1, 1])];
            tensor<fp16, [80, 1, 3, 3]> model_23_one2one_cv3_0_1_0_conv_weight_to_fp16 = const()[name = tensor<string, []>("model_23_one2one_cv3_0_1_0_conv_weight_to_fp16"), val = tensor<fp16, [80, 1, 3, 3]>(BLOBFILE(path = tensor<string, []>("@model_path/weights/weight.bin"), offset = tensor<uint64, []>(4677568)))];
            tensor<fp16, [80]> model_23_one2one_cv3_0_1_0_conv_bias_to_fp16 = const()[name = tensor<string, []>("model_23_one2one_cv3_0_1_0_conv_bias_to_fp16"), val = tensor<fp16, [80]>(BLOBFILE(path = tensor<string, []>("@model_path/weights/weight.bin"), offset = tensor<uint64, []>(4679104)))];
            tensor<fp16, [1, 80, 80, 80]> input_327_cast_fp16 = conv(bias = model_23_one2one_cv3_0_1_0_conv_bias_to_fp16, dilations = input_327_dilations_0, groups = input_327_groups_0, pad = input_327_pad_0, pad_type = input_327_pad_type_0, strides = input_327_strides_0, weight = model_23_one2one_cv3_0_1_0_conv_weight_to_fp16, x = input_325_cast_fp16)[name = tensor<string, []>("input_327_cast_fp16")];
            tensor<fp16, [1, 80, 80, 80]> input_329_cast_fp16 = silu(x = input_327_cast_fp16)[name = tensor<string, []>("input_329_cast_fp16")];
            tensor<string, []> input_331_pad_type_0 = const()[name = tensor<string, []>("input_331_pad_type_0"), val = tensor<string, []>("valid")];
            tensor<int32, [2]> input_331_strides_0 = const()[name = tensor<string, []>("input_331_strides_0"), val = tensor<int32, [2]>([1, 1])];
            tensor<int32, [4]> input_331_pad_0 = const()[name = tensor<string, []>("input_331_pad_0"), val = tensor<int32, [4]>([0, 0, 0, 0])];
            tensor<int32, [2]> input_331_dilations_0 = const()[name = tensor<string, []>("input_331_dilations_0"), val = tensor<int32, [2]>([1, 1])];
            tensor<int32, []> input_331_groups_0 = const()[name = tensor<string, []>("input_331_groups_0"), val = tensor<int32, []>(1)];
            tensor<fp16, [80, 80, 1, 1]> model_23_one2one_cv3_0_1_1_conv_weight_to_fp16 = const()[name = tensor<string, []>("model_23_one2one_cv3_0_1_1_conv_weight_to_fp16"), val = tensor<fp16, [80, 80, 1, 1]>(BLOBFILE(path = tensor<string, []>("@model_path/weights/weight.bin"), offset = tensor<uint64, []>(4679360)))];
            tensor<fp16, [80]> model_23_one2one_cv3_0_1_1_conv_bias_to_fp16 = const()[name = tensor<string, []>("model_23_one2one_cv3_0_1_1_conv_bias_to_fp16"), val = tensor<fp16, [80]>(BLOBFILE(path = tensor<string, []>("@model_path/weights/weight.bin"), offset = tensor<uint64, []>(4692224)))];
            tensor<fp16, [1, 80, 80, 80]> input_331_cast_fp16 = conv(bias = model_23_one2one_cv3_0_1_1_conv_bias_to_fp16, dilations = input_331_dilations_0, groups = input_331_groups_0, pad = input_331_pad_0, pad_type = input_331_pad_type_0, strides = input_331_strides_0, weight = model_23_one2one_cv3_0_1_1_conv_weight_to_fp16, x = input_329_cast_fp16)[name = tensor<string, []>("input_331_cast_fp16")];
            tensor<fp16, [1, 80, 80, 80]> input_333_cast_fp16 = silu(x = input_331_cast_fp16)[name = tensor<string, []>("input_333_cast_fp16")];
            tensor<string, []> var_1288_pad_type_0 = const()[name = tensor<string, []>("op_1288_pad_type_0"), val = tensor<string, []>("valid")];
            tensor<int32, [2]> var_1288_strides_0 = const()[name = tensor<string, []>("op_1288_strides_0"), val = tensor<int32, [2]>([1, 1])];
            tensor<int32, [4]> var_1288_pad_0 = const()[name = tensor<string, []>("op_1288_pad_0"), val = tensor<int32, [4]>([0, 0, 0, 0])];
            tensor<int32, [2]> var_1288_dilations_0 = const()[name = tensor<string, []>("op_1288_dilations_0"), val = tensor<int32, [2]>([1, 1])];
            tensor<int32, []> var_1288_groups_0 = const()[name = tensor<string, []>("op_1288_groups_0"), val = tensor<int32, []>(1)];
            tensor<fp16, [80, 80, 1, 1]> model_23_one2one_cv3_0_2_weight_to_fp16 = const()[name = tensor<string, []>("model_23_one2one_cv3_0_2_weight_to_fp16"), val = tensor<fp16, [80, 80, 1, 1]>(BLOBFILE(path = tensor<string, []>("@model_path/weights/weight.bin"), offset = tensor<uint64, []>(4692480)))];
            tensor<fp16, [80]> model_23_one2one_cv3_0_2_bias_to_fp16 = const()[name = tensor<string, []>("model_23_one2one_cv3_0_2_bias_to_fp16"), val = tensor<fp16, [80]>(BLOBFILE(path = tensor<string, []>("@model_path/weights/weight.bin"), offset = tensor<uint64, []>(4705344)))];
            tensor<fp16, [1, 80, 80, 80]> var_1288_cast_fp16 = conv(bias = model_23_one2one_cv3_0_2_bias_to_fp16, dilations = var_1288_dilations_0, groups = var_1288_groups_0, pad = var_1288_pad_0, pad_type = var_1288_pad_type_0, strides = var_1288_strides_0, weight = model_23_one2one_cv3_0_2_weight_to_fp16, x = input_333_cast_fp16)[name = tensor<string, []>("op_1288_cast_fp16")];
            tensor<int32, [3]> var_1289 = const()[name = tensor<string, []>("op_1289"), val = tensor<int32, [3]>([1, 80, -1])];
            tensor<fp16, [1, 80, 6400]> var_1290_cast_fp16 = reshape(shape = var_1289, x = var_1288_cast_fp16)[name = tensor<string, []>("op_1290_cast_fp16")];
            tensor<string, []> input_335_pad_type_0 = const()[name = tensor<string, []>("input_335_pad_type_0"), val = tensor<string, []>("custom")];
            tensor<int32, [4]> input_335_pad_0 = const()[name = tensor<string, []>("input_335_pad_0"), val = tensor<int32, [4]>([1, 1, 1, 1])];
            tensor<int32, []> input_335_groups_0 = const()[name = tensor<string, []>("input_335_groups_0"), val = tensor<int32, []>(128)];
            tensor<int32, [2]> input_335_strides_0 = const()[name = tensor<string, []>("input_335_strides_0"), val = tensor<int32, [2]>([1, 1])];
            tensor<int32, [2]> input_335_dilations_0 = const()[name = tensor<string, []>("input_335_dilations_0"), val = tensor<int32, [2]>([1, 1])];
            tensor<fp16, [128, 1, 3, 3]> model_23_one2one_cv3_1_0_0_conv_weight_to_fp16 = const()[name = tensor<string, []>("model_23_one2one_cv3_1_0_0_conv_weight_to_fp16"), val = tensor<fp16, [128, 1, 3, 3]>(BLOBFILE(path = tensor<string, []>("@model_path/weights/weight.bin"), offset = tensor<uint64, []>(4705600)))];
            tensor<fp16, [128]> model_23_one2one_cv3_1_0_0_conv_bias_to_fp16 = const()[name = tensor<string, []>("model_23_one2one_cv3_1_0_0_conv_bias_to_fp16"), val = tensor<fp16, [128]>(BLOBFILE(path = tensor<string, []>("@model_path/weights/weight.bin"), offset = tensor<uint64, []>(4707968)))];
            tensor<fp16, [1, 128, 40, 40]> input_335_cast_fp16 = conv(bias = model_23_one2one_cv3_1_0_0_conv_bias_to_fp16, dilations = input_335_dilations_0, groups = input_335_groups_0, pad = input_335_pad_0, pad_type = input_335_pad_type_0, strides = input_335_strides_0, weight = model_23_one2one_cv3_1_0_0_conv_weight_to_fp16, x = input_259_cast_fp16)[name = tensor<string, []>("input_335_cast_fp16")];
            tensor<fp16, [1, 128, 40, 40]> input_337_cast_fp16 = silu(x = input_335_cast_fp16)[name = tensor<string, []>("input_337_cast_fp16")];
            tensor<string, []> input_339_pad_type_0 = const()[name = tensor<string, []>("input_339_pad_type_0"), val = tensor<string, []>("valid")];
            tensor<int32, [2]> input_339_strides_0 = const()[name = tensor<string, []>("input_339_strides_0"), val = tensor<int32, [2]>([1, 1])];
            tensor<int32, [4]> input_339_pad_0 = const()[name = tensor<string, []>("input_339_pad_0"), val = tensor<int32, [4]>([0, 0, 0, 0])];
            tensor<int32, [2]> input_339_dilations_0 = const()[name = tensor<string, []>("input_339_dilations_0"), val = tensor<int32, [2]>([1, 1])];
            tensor<int32, []> input_339_groups_0 = const()[name = tensor<string, []>("input_339_groups_0"), val = tensor<int32, []>(1)];
            tensor<fp16, [80, 128, 1, 1]> model_23_one2one_cv3_1_0_1_conv_weight_to_fp16 = const()[name = tensor<string, []>("model_23_one2one_cv3_1_0_1_conv_weight_to_fp16"), val = tensor<fp16, [80, 128, 1, 1]>(BLOBFILE(path = tensor<string, []>("@model_path/weights/weight.bin"), offset = tensor<uint64, []>(4708288)))];
            tensor<fp16, [80]> model_23_one2one_cv3_1_0_1_conv_bias_to_fp16 = const()[name = tensor<string, []>("model_23_one2one_cv3_1_0_1_conv_bias_to_fp16"), val = tensor<fp16, [80]>(BLOBFILE(path = tensor<string, []>("@model_path/weights/weight.bin"), offset = tensor<uint64, []>(4728832)))];
            tensor<fp16, [1, 80, 40, 40]> input_339_cast_fp16 = conv(bias = model_23_one2one_cv3_1_0_1_conv_bias_to_fp16, dilations = input_339_dilations_0, groups = input_339_groups_0, pad = input_339_pad_0, pad_type = input_339_pad_type_0, strides = input_339_strides_0, weight = model_23_one2one_cv3_1_0_1_conv_weight_to_fp16, x = input_337_cast_fp16)[name = tensor<string, []>("input_339_cast_fp16")];
            tensor<fp16, [1, 80, 40, 40]> input_341_cast_fp16 = silu(x = input_339_cast_fp16)[name = tensor<string, []>("input_341_cast_fp16")];
            tensor<string, []> input_343_pad_type_0 = const()[name = tensor<string, []>("input_343_pad_type_0"), val = tensor<string, []>("custom")];
            tensor<int32, [4]> input_343_pad_0 = const()[name = tensor<string, []>("input_343_pad_0"), val = tensor<int32, [4]>([1, 1, 1, 1])];
            tensor<int32, []> input_343_groups_0 = const()[name = tensor<string, []>("input_343_groups_0"), val = tensor<int32, []>(80)];
            tensor<int32, [2]> input_343_strides_0 = const()[name = tensor<string, []>("input_343_strides_0"), val = tensor<int32, [2]>([1, 1])];
            tensor<int32, [2]> input_343_dilations_0 = const()[name = tensor<string, []>("input_343_dilations_0"), val = tensor<int32, [2]>([1, 1])];
            tensor<fp16, [80, 1, 3, 3]> model_23_one2one_cv3_1_1_0_conv_weight_to_fp16 = const()[name = tensor<string, []>("model_23_one2one_cv3_1_1_0_conv_weight_to_fp16"), val = tensor<fp16, [80, 1, 3, 3]>(BLOBFILE(path = tensor<string, []>("@model_path/weights/weight.bin"), offset = tensor<uint64, []>(4729088)))];
            tensor<fp16, [80]> model_23_one2one_cv3_1_1_0_conv_bias_to_fp16 = const()[name = tensor<string, []>("model_23_one2one_cv3_1_1_0_conv_bias_to_fp16"), val = tensor<fp16, [80]>(BLOBFILE(path = tensor<string, []>("@model_path/weights/weight.bin"), offset = tensor<uint64, []>(4730624)))];
            tensor<fp16, [1, 80, 40, 40]> input_343_cast_fp16 = conv(bias = model_23_one2one_cv3_1_1_0_conv_bias_to_fp16, dilations = input_343_dilations_0, groups = input_343_groups_0, pad = input_343_pad_0, pad_type = input_343_pad_type_0, strides = input_343_strides_0, weight = model_23_one2one_cv3_1_1_0_conv_weight_to_fp16, x = input_341_cast_fp16)[name = tensor<string, []>("input_343_cast_fp16")];
            tensor<fp16, [1, 80, 40, 40]> input_345_cast_fp16 = silu(x = input_343_cast_fp16)[name = tensor<string, []>("input_345_cast_fp16")];
            tensor<string, []> input_347_pad_type_0 = const()[name = tensor<string, []>("input_347_pad_type_0"), val = tensor<string, []>("valid")];
            tensor<int32, [2]> input_347_strides_0 = const()[name = tensor<string, []>("input_347_strides_0"), val = tensor<int32, [2]>([1, 1])];
            tensor<int32, [4]> input_347_pad_0 = const()[name = tensor<string, []>("input_347_pad_0"), val = tensor<int32, [4]>([0, 0, 0, 0])];
            tensor<int32, [2]> input_347_dilations_0 = const()[name = tensor<string, []>("input_347_dilations_0"), val = tensor<int32, [2]>([1, 1])];
            tensor<int32, []> input_347_groups_0 = const()[name = tensor<string, []>("input_347_groups_0"), val = tensor<int32, []>(1)];
            tensor<fp16, [80, 80, 1, 1]> model_23_one2one_cv3_1_1_1_conv_weight_to_fp16 = const()[name = tensor<string, []>("model_23_one2one_cv3_1_1_1_conv_weight_to_fp16"), val = tensor<fp16, [80, 80, 1, 1]>(BLOBFILE(path = tensor<string, []>("@model_path/weights/weight.bin"), offset = tensor<uint64, []>(4730880)))];
            tensor<fp16, [80]> model_23_one2one_cv3_1_1_1_conv_bias_to_fp16 = const()[name = tensor<string, []>("model_23_one2one_cv3_1_1_1_conv_bias_to_fp16"), val = tensor<fp16, [80]>(BLOBFILE(path = tensor<string, []>("@model_path/weights/weight.bin"), offset = tensor<uint64, []>(4743744)))];
            tensor<fp16, [1, 80, 40, 40]> input_347_cast_fp16 = conv(bias = model_23_one2one_cv3_1_1_1_conv_bias_to_fp16, dilations = input_347_dilations_0, groups = input_347_groups_0, pad = input_347_pad_0, pad_type = input_347_pad_type_0, strides = input_347_strides_0, weight = model_23_one2one_cv3_1_1_1_conv_weight_to_fp16, x = input_345_cast_fp16)[name = tensor<string, []>("input_347_cast_fp16")];
            tensor<fp16, [1, 80, 40, 40]> input_349_cast_fp16 = silu(x = input_347_cast_fp16)[name = tensor<string, []>("input_349_cast_fp16")];
            tensor<string, []> var_1340_pad_type_0 = const()[name = tensor<string, []>("op_1340_pad_type_0"), val = tensor<string, []>("valid")];
            tensor<int32, [2]> var_1340_strides_0 = const()[name = tensor<string, []>("op_1340_strides_0"), val = tensor<int32, [2]>([1, 1])];
            tensor<int32, [4]> var_1340_pad_0 = const()[name = tensor<string, []>("op_1340_pad_0"), val = tensor<int32, [4]>([0, 0, 0, 0])];
            tensor<int32, [2]> var_1340_dilations_0 = const()[name = tensor<string, []>("op_1340_dilations_0"), val = tensor<int32, [2]>([1, 1])];
            tensor<int32, []> var_1340_groups_0 = const()[name = tensor<string, []>("op_1340_groups_0"), val = tensor<int32, []>(1)];
            tensor<fp16, [80, 80, 1, 1]> model_23_one2one_cv3_1_2_weight_to_fp16 = const()[name = tensor<string, []>("model_23_one2one_cv3_1_2_weight_to_fp16"), val = tensor<fp16, [80, 80, 1, 1]>(BLOBFILE(path = tensor<string, []>("@model_path/weights/weight.bin"), offset = tensor<uint64, []>(4744000)))];
            tensor<fp16, [80]> model_23_one2one_cv3_1_2_bias_to_fp16 = const()[name = tensor<string, []>("model_23_one2one_cv3_1_2_bias_to_fp16"), val = tensor<fp16, [80]>(BLOBFILE(path = tensor<string, []>("@model_path/weights/weight.bin"), offset = tensor<uint64, []>(4756864)))];
            tensor<fp16, [1, 80, 40, 40]> var_1340_cast_fp16 = conv(bias = model_23_one2one_cv3_1_2_bias_to_fp16, dilations = var_1340_dilations_0, groups = var_1340_groups_0, pad = var_1340_pad_0, pad_type = var_1340_pad_type_0, strides = var_1340_strides_0, weight = model_23_one2one_cv3_1_2_weight_to_fp16, x = input_349_cast_fp16)[name = tensor<string, []>("op_1340_cast_fp16")];
            tensor<int32, [3]> var_1341 = const()[name = tensor<string, []>("op_1341"), val = tensor<int32, [3]>([1, 80, -1])];
            tensor<fp16, [1, 80, 1600]> var_1342_cast_fp16 = reshape(shape = var_1341, x = var_1340_cast_fp16)[name = tensor<string, []>("op_1342_cast_fp16")];
            tensor<string, []> input_351_pad_type_0 = const()[name = tensor<string, []>("input_351_pad_type_0"), val = tensor<string, []>("custom")];
            tensor<int32, [4]> input_351_pad_0 = const()[name = tensor<string, []>("input_351_pad_0"), val = tensor<int32, [4]>([1, 1, 1, 1])];
            tensor<int32, []> input_351_groups_0 = const()[name = tensor<string, []>("input_351_groups_0"), val = tensor<int32, []>(256)];
            tensor<int32, [2]> input_351_strides_0 = const()[name = tensor<string, []>("input_351_strides_0"), val = tensor<int32, [2]>([1, 1])];
            tensor<int32, [2]> input_351_dilations_0 = const()[name = tensor<string, []>("input_351_dilations_0"), val = tensor<int32, [2]>([1, 1])];
            tensor<fp16, [256, 1, 3, 3]> model_23_one2one_cv3_2_0_0_conv_weight_to_fp16 = const()[name = tensor<string, []>("model_23_one2one_cv3_2_0_0_conv_weight_to_fp16"), val = tensor<fp16, [256, 1, 3, 3]>(BLOBFILE(path = tensor<string, []>("@model_path/weights/weight.bin"), offset = tensor<uint64, []>(4757120)))];
            tensor<fp16, [256]> model_23_one2one_cv3_2_0_0_conv_bias_to_fp16 = const()[name = tensor<string, []>("model_23_one2one_cv3_2_0_0_conv_bias_to_fp16"), val = tensor<fp16, [256]>(BLOBFILE(path = tensor<string, []>("@model_path/weights/weight.bin"), offset = tensor<uint64, []>(4761792)))];
            tensor<fp16, [1, 256, 20, 20]> input_351_cast_fp16 = conv(bias = model_23_one2one_cv3_2_0_0_conv_bias_to_fp16, dilations = input_351_dilations_0, groups = input_351_groups_0, pad = input_351_pad_0, pad_type = input_351_pad_type_0, strides = input_351_strides_0, weight = model_23_one2one_cv3_2_0_0_conv_weight_to_fp16, x = xi_cast_fp16)[name = tensor<string, []>("input_351_cast_fp16")];
            tensor<fp16, [1, 256, 20, 20]> input_353_cast_fp16 = silu(x = input_351_cast_fp16)[name = tensor<string, []>("input_353_cast_fp16")];
            tensor<string, []> input_355_pad_type_0 = const()[name = tensor<string, []>("input_355_pad_type_0"), val = tensor<string, []>("valid")];
            tensor<int32, [2]> input_355_strides_0 = const()[name = tensor<string, []>("input_355_strides_0"), val = tensor<int32, [2]>([1, 1])];
            tensor<int32, [4]> input_355_pad_0 = const()[name = tensor<string, []>("input_355_pad_0"), val = tensor<int32, [4]>([0, 0, 0, 0])];
            tensor<int32, [2]> input_355_dilations_0 = const()[name = tensor<string, []>("input_355_dilations_0"), val = tensor<int32, [2]>([1, 1])];
            tensor<int32, []> input_355_groups_0 = const()[name = tensor<string, []>("input_355_groups_0"), val = tensor<int32, []>(1)];
            tensor<fp16, [80, 256, 1, 1]> model_23_one2one_cv3_2_0_1_conv_weight_to_fp16 = const()[name = tensor<string, []>("model_23_one2one_cv3_2_0_1_conv_weight_to_fp16"), val = tensor<fp16, [80, 256, 1, 1]>(BLOBFILE(path = tensor<string, []>("@model_path/weights/weight.bin"), offset = tensor<uint64, []>(4762368)))];
            tensor<fp16, [80]> model_23_one2one_cv3_2_0_1_conv_bias_to_fp16 = const()[name = tensor<string, []>("model_23_one2one_cv3_2_0_1_conv_bias_to_fp16"), val = tensor<fp16, [80]>(BLOBFILE(path = tensor<string, []>("@model_path/weights/weight.bin"), offset = tensor<uint64, []>(4803392)))];
            tensor<fp16, [1, 80, 20, 20]> input_355_cast_fp16 = conv(bias = model_23_one2one_cv3_2_0_1_conv_bias_to_fp16, dilations = input_355_dilations_0, groups = input_355_groups_0, pad = input_355_pad_0, pad_type = input_355_pad_type_0, strides = input_355_strides_0, weight = model_23_one2one_cv3_2_0_1_conv_weight_to_fp16, x = input_353_cast_fp16)[name = tensor<string, []>("input_355_cast_fp16")];
            tensor<fp16, [1, 80, 20, 20]> input_357_cast_fp16 = silu(x = input_355_cast_fp16)[name = tensor<string, []>("input_357_cast_fp16")];
            tensor<string, []> input_359_pad_type_0 = const()[name = tensor<string, []>("input_359_pad_type_0"), val = tensor<string, []>("custom")];
            tensor<int32, [4]> input_359_pad_0 = const()[name = tensor<string, []>("input_359_pad_0"), val = tensor<int32, [4]>([1, 1, 1, 1])];
            tensor<int32, []> input_359_groups_0 = const()[name = tensor<string, []>("input_359_groups_0"), val = tensor<int32, []>(80)];
            tensor<int32, [2]> input_359_strides_0 = const()[name = tensor<string, []>("input_359_strides_0"), val = tensor<int32, [2]>([1, 1])];
            tensor<int32, [2]> input_359_dilations_0 = const()[name = tensor<string, []>("input_359_dilations_0"), val = tensor<int32, [2]>([1, 1])];
            tensor<fp16, [80, 1, 3, 3]> model_23_one2one_cv3_2_1_0_conv_weight_to_fp16 = const()[name = tensor<string, []>("model_23_one2one_cv3_2_1_0_conv_weight_to_fp16"), val = tensor<fp16, [80, 1, 3, 3]>(BLOBFILE(path = tensor<string, []>("@model_path/weights/weight.bin"), offset = tensor<uint64, []>(4803648)))];
            tensor<fp16, [80]> model_23_one2one_cv3_2_1_0_conv_bias_to_fp16 = const()[name = tensor<string, []>("model_23_one2one_cv3_2_1_0_conv_bias_to_fp16"), val = tensor<fp16, [80]>(BLOBFILE(path = tensor<string, []>("@model_path/weights/weight.bin"), offset = tensor<uint64, []>(4805184)))];
            tensor<fp16, [1, 80, 20, 20]> input_359_cast_fp16 = conv(bias = model_23_one2one_cv3_2_1_0_conv_bias_to_fp16, dilations = input_359_dilations_0, groups = input_359_groups_0, pad = input_359_pad_0, pad_type = input_359_pad_type_0, strides = input_359_strides_0, weight = model_23_one2one_cv3_2_1_0_conv_weight_to_fp16, x = input_357_cast_fp16)[name = tensor<string, []>("input_359_cast_fp16")];
            tensor<fp16, [1, 80, 20, 20]> input_361_cast_fp16 = silu(x = input_359_cast_fp16)[name = tensor<string, []>("input_361_cast_fp16")];
            tensor<string, []> input_363_pad_type_0 = const()[name = tensor<string, []>("input_363_pad_type_0"), val = tensor<string, []>("valid")];
            tensor<int32, [2]> input_363_strides_0 = const()[name = tensor<string, []>("input_363_strides_0"), val = tensor<int32, [2]>([1, 1])];
            tensor<int32, [4]> input_363_pad_0 = const()[name = tensor<string, []>("input_363_pad_0"), val = tensor<int32, [4]>([0, 0, 0, 0])];
            tensor<int32, [2]> input_363_dilations_0 = const()[name = tensor<string, []>("input_363_dilations_0"), val = tensor<int32, [2]>([1, 1])];
            tensor<int32, []> input_363_groups_0 = const()[name = tensor<string, []>("input_363_groups_0"), val = tensor<int32, []>(1)];
            tensor<fp16, [80, 80, 1, 1]> model_23_one2one_cv3_2_1_1_conv_weight_to_fp16 = const()[name = tensor<string, []>("model_23_one2one_cv3_2_1_1_conv_weight_to_fp16"), val = tensor<fp16, [80, 80, 1, 1]>(BLOBFILE(path = tensor<string, []>("@model_path/weights/weight.bin"), offset = tensor<uint64, []>(4805440)))];
            tensor<fp16, [80]> model_23_one2one_cv3_2_1_1_conv_bias_to_fp16 = const()[name = tensor<string, []>("model_23_one2one_cv3_2_1_1_conv_bias_to_fp16"), val = tensor<fp16, [80]>(BLOBFILE(path = tensor<string, []>("@model_path/weights/weight.bin"), offset = tensor<uint64, []>(4818304)))];
            tensor<fp16, [1, 80, 20, 20]> input_363_cast_fp16 = conv(bias = model_23_one2one_cv3_2_1_1_conv_bias_to_fp16, dilations = input_363_dilations_0, groups = input_363_groups_0, pad = input_363_pad_0, pad_type = input_363_pad_type_0, strides = input_363_strides_0, weight = model_23_one2one_cv3_2_1_1_conv_weight_to_fp16, x = input_361_cast_fp16)[name = tensor<string, []>("input_363_cast_fp16")];
            tensor<fp16, [1, 80, 20, 20]> input_cast_fp16 = silu(x = input_363_cast_fp16)[name = tensor<string, []>("input_cast_fp16")];
            tensor<string, []> var_1392_pad_type_0 = const()[name = tensor<string, []>("op_1392_pad_type_0"), val = tensor<string, []>("valid")];
            tensor<int32, [2]> var_1392_strides_0 = const()[name = tensor<string, []>("op_1392_strides_0"), val = tensor<int32, [2]>([1, 1])];
            tensor<int32, [4]> var_1392_pad_0 = const()[name = tensor<string, []>("op_1392_pad_0"), val = tensor<int32, [4]>([0, 0, 0, 0])];
            tensor<int32, [2]> var_1392_dilations_0 = const()[name = tensor<string, []>("op_1392_dilations_0"), val = tensor<int32, [2]>([1, 1])];
            tensor<int32, []> var_1392_groups_0 = const()[name = tensor<string, []>("op_1392_groups_0"), val = tensor<int32, []>(1)];
            tensor<fp16, [80, 80, 1, 1]> model_23_one2one_cv3_2_2_weight_to_fp16 = const()[name = tensor<string, []>("model_23_one2one_cv3_2_2_weight_to_fp16"), val = tensor<fp16, [80, 80, 1, 1]>(BLOBFILE(path = tensor<string, []>("@model_path/weights/weight.bin"), offset = tensor<uint64, []>(4818560)))];
            tensor<fp16, [80]> model_23_one2one_cv3_2_2_bias_to_fp16 = const()[name = tensor<string, []>("model_23_one2one_cv3_2_2_bias_to_fp16"), val = tensor<fp16, [80]>(BLOBFILE(path = tensor<string, []>("@model_path/weights/weight.bin"), offset = tensor<uint64, []>(4831424)))];
            tensor<fp16, [1, 80, 20, 20]> var_1392_cast_fp16 = conv(bias = model_23_one2one_cv3_2_2_bias_to_fp16, dilations = var_1392_dilations_0, groups = var_1392_groups_0, pad = var_1392_pad_0, pad_type = var_1392_pad_type_0, strides = var_1392_strides_0, weight = model_23_one2one_cv3_2_2_weight_to_fp16, x = input_cast_fp16)[name = tensor<string, []>("op_1392_cast_fp16")];
            tensor<int32, [3]> var_1393 = const()[name = tensor<string, []>("op_1393"), val = tensor<int32, [3]>([1, 80, -1])];
            tensor<fp16, [1, 80, 400]> var_1394_cast_fp16 = reshape(shape = var_1393, x = var_1392_cast_fp16)[name = tensor<string, []>("op_1394_cast_fp16")];
            tensor<bool, []> var_1396_interleave_0 = const()[name = tensor<string, []>("op_1396_interleave_0"), val = tensor<bool, []>(false)];
            tensor<fp16, [1, 80, 8400]> var_1396_cast_fp16 = concat(axis = var_1125, interleave = var_1396_interleave_0, values = (var_1290_cast_fp16, var_1342_cast_fp16, var_1394_cast_fp16))[name = tensor<string, []>("op_1396_cast_fp16")];
            tensor<int32, [2]> var_1398_split_sizes_0 = const()[name = tensor<string, []>("op_1398_split_sizes_0"), val = tensor<int32, [2]>([2, 2])];
            tensor<int32, []> var_1398_axis_0 = const()[name = tensor<string, []>("op_1398_axis_0"), val = tensor<int32, []>(1)];
            tensor<fp16, [1, 2, 8400]> var_1398_cast_fp16_0, tensor<fp16, [1, 2, 8400]> var_1398_cast_fp16_1 = split(axis = var_1398_axis_0, split_sizes = var_1398_split_sizes_0, x = distance_cast_fp16)[name = tensor<string, []>("op_1398_cast_fp16")];
            tensor<fp16, [1, 2, 8400]> anchor_points_to_fp16 = const()[name = tensor<string, []>("anchor_points_to_fp16"), val = tensor<fp16, [1, 2, 8400]>(BLOBFILE(path = tensor<string, []>("@model_path/weights/weight.bin"), offset = tensor<uint64, []>(4831680)))];
            tensor<fp16, [1, 2, 8400]> x1y1_cast_fp16 = sub(x = anchor_points_to_fp16, y = var_1398_cast_fp16_0)[name = tensor<string, []>("x1y1_cast_fp16")];
            tensor<fp16, [1, 2, 8400]> x2y2_cast_fp16 = add(x = anchor_points_to_fp16, y = var_1398_cast_fp16_1)[name = tensor<string, []>("x2y2_cast_fp16")];
            tensor<bool, []> var_1403_interleave_0 = const()[name = tensor<string, []>("op_1403_interleave_0"), val = tensor<bool, []>(false)];
            tensor<fp16, [1, 4, 8400]> var_1403_cast_fp16 = concat(axis = var_1127, interleave = var_1403_interleave_0, values = (x1y1_cast_fp16, x2y2_cast_fp16))[name = tensor<string, []>("op_1403_cast_fp16")];
            tensor<fp16, [1, 8400]> var_1118_to_fp16 = const()[name = tensor<string, []>("op_1118_to_fp16"), val = tensor<fp16, [1, 8400]>(BLOBFILE(path = tensor<string, []>("@model_path/weights/weight.bin"), offset = tensor<uint64, []>(4865344)))];
            tensor<fp16, [1, 4, 8400]> dbox_cast_fp16 = mul(x = var_1403_cast_fp16, y = var_1118_to_fp16)[name = tensor<string, []>("dbox_cast_fp16")];
            tensor<fp16, [1, 80, 8400]> var_1405_cast_fp16 = sigmoid(x = var_1396_cast_fp16)[name = tensor<string, []>("op_1405_cast_fp16")];
            tensor<bool, []> y_interleave_0 = const()[name = tensor<string, []>("y_interleave_0"), val = tensor<bool, []>(false)];
            tensor<fp16, [1, 84, 8400]> y_cast_fp16 = concat(axis = var_1127, interleave = y_interleave_0, values = (dbox_cast_fp16, var_1405_cast_fp16))[name = tensor<string, []>("y_cast_fp16")];
            tensor<int32, [3]> var_1408 = const()[name = tensor<string, []>("op_1408"), val = tensor<int32, [3]>([0, 2, 1])];
            tensor<int32, [2]> var_1410 = const()[name = tensor<string, []>("op_1410"), val = tensor<int32, [2]>([4, 80])];
            tensor<int32, []> var_1411_axis_0 = const()[name = tensor<string, []>("op_1411_axis_0"), val = tensor<int32, []>(-1)];
            tensor<fp16, [1, 8400, 84]> var_1409_cast_fp16 = transpose(perm = var_1408, x = y_cast_fp16)[name = tensor<string, []>("transpose_1")];
            tensor<fp16, [1, 8400, 4]> var_1411_cast_fp16_0, tensor<fp16, [1, 8400, 80]> var_1411_cast_fp16_1 = split(axis = var_1411_axis_0, split_sizes = var_1410, x = var_1409_cast_fp16)[name = tensor<string, []>("op_1411_cast_fp16")];
            tensor<int32, [1]> nc = const()[name = tensor<string, []>("nc"), val = tensor<int32, [1]>([80])];
            tensor<int32, [1]> reduce_max_0_axes_0 = const()[name = tensor<string, []>("reduce_max_0_axes_0"), val = tensor<int32, [1]>([-1])];
            tensor<bool, []> reduce_max_0_keep_dims_0 = const()[name = tensor<string, []>("reduce_max_0_keep_dims_0"), val = tensor<bool, []>(false)];
            tensor<fp16, [1, 8400]> reduce_max_0_cast_fp16 = reduce_max(axes = reduce_max_0_axes_0, keep_dims = reduce_max_0_keep_dims_0, x = var_1411_cast_fp16_1)[name = tensor<string, []>("reduce_max_0_cast_fp16")];
            tensor<int32, []> var_1419_axis_0 = const()[name = tensor<string, []>("op_1419_axis_0"), val = tensor<int32, []>(-1)];
            tensor<bool, []> var_1419_ascending_0 = const()[name = tensor<string, []>("op_1419_ascending_0"), val = tensor<bool, []>(false)];
            tensor<fp16, [1, 300]> var_1419_cast_fp16_0, tensor<int32, [1, 300]> var_1419_cast_fp16_1 = topk(ascending = var_1419_ascending_0, axis = var_1419_axis_0, k = var_1117, x = reduce_max_0_cast_fp16)[name = tensor<string, []>("op_1419_cast_fp16")];
            tensor<int32, [1]> ori_index_axes_0 = const()[name = tensor<string, []>("ori_index_axes_0"), val = tensor<int32, [1]>([-1])];
            tensor<int32, [1, 300, 1]> ori_index = expand_dims(axes = ori_index_axes_0, x = var_1419_cast_fp16_1)[name = tensor<string, []>("ori_index")];
            tensor<int32, [3]> var_1422 = const()[name = tensor<string, []>("op_1422"), val = tensor<int32, [3]>([1, 1, 80])];
            tensor<int32, [1, 300, 80]> var_1423 = tile(reps = var_1422, x = ori_index)[name = tensor<string, []>("op_1423")];
            tensor<fp16, [1, 300, 80]> scores_3_cast_fp16 = gather_along_axis(axis = var_1127, indices = var_1423, x = var_1411_cast_fp16_1)[name = tensor<string, []>("scores_3_cast_fp16")];
            tensor<int32, [2]> concat_0 = const()[name = tensor<string, []>("concat_0"), val = tensor<int32, [2]>([1, 24000])];
            tensor<fp16, [1, 24000]> var_1425_cast_fp16 = reshape(shape = concat_0, x = scores_3_cast_fp16)[name = tensor<string, []>("op_1425_cast_fp16")];
            tensor<int32, []> scores_5_axis_0 = const()[name = tensor<string, []>("scores_5_axis_0"), val = tensor<int32, []>(-1)];
            tensor<bool, []> scores_5_ascending_0 = const()[name = tensor<string, []>("scores_5_ascending_0"), val = tensor<bool, []>(false)];
            tensor<fp16, [1, 300]> scores_5_cast_fp16_0, tensor<int32, [1, 300]> scores_5_cast_fp16_1 = topk(ascending = scores_5_ascending_0, axis = scores_5_axis_0, k = var_1117, x = var_1425_cast_fp16)[name = tensor<string, []>("scores_5_cast_fp16")];
            tensor<int32, [1, 300]> floor_div_0 = floor_div(x = scores_5_cast_fp16_1, y = nc)[name = tensor<string, []>("floor_div_0")];
            tensor<int32, [1, 300]> var_1429_after_broadcast = const()[name = tensor<string, []>("op_1429_after_broadcast"), val = tensor<int32, [1, 300]>([[0, 0, 0, 0, 0, 0, 0, 0, 0, 0, 0, 0, 0, 0, 0, 0, 0, 0, 0, 0, 0, 0, 0, 0, 0, 0, 0, 0, 0, 0, 0, 0, 0, 0, 0, 0, 0, 0, 0, 0, 0, 0, 0, 0, 0, 0, 0, 0, 0, 0, 0, 0, 0, 0, 0, 0, 0, 0, 0, 0, 0, 0, 0, 0, 0, 0, 0, 0, 0, 0, 0, 0, 0, 0, 0, 0, 0, 0, 0, 0, 0, 0, 0, 0, 0, 0, 0, 0, 0, 0, 0, 0, 0, 0, 0, 0, 0, 0, 0, 0, 0, 0, 0, 0, 0, 0, 0, 0, 0, 0, 0, 0, 0, 0, 0, 0, 0, 0, 0, 0, 0, 0, 0, 0, 0, 0, 0, 0, 0, 0, 0, 0, 0, 0, 0, 0, 0, 0, 0, 0, 0, 0, 0, 0, 0, 0, 0, 0, 0, 0, 0, 0, 0, 0, 0, 0, 0, 0, 0, 0, 0, 0, 0, 0, 0, 0, 0, 0, 0, 0, 0, 0, 0, 0, 0, 0, 0, 0, 0, 0, 0, 0, 0, 0, 0, 0, 0, 0, 0, 0, 0, 0, 0, 0, 0, 0, 0, 0, 0, 0, 0, 0, 0, 0, 0, 0, 0, 0, 0, 0, 0, 0, 0, 0, 0, 0, 0, 0, 0, 0, 0, 0, 0, 0, 0, 0, 0, 0, 0, 0, 0, 0, 0, 0, 0, 0, 0, 0, 0, 0, 0, 0, 0, 0, 0, 0, 0, 0, 0, 0, 0, 0, 0, 0, 0, 0, 0, 0, 0, 0, 0, 0, 0, 0, 0, 0, 0, 0, 0, 0, 0, 0, 0, 0, 0, 0, 0, 0, 0, 0, 0, 0, 0, 0, 0, 0, 0, 0, 0, 0, 0, 0, 0, 0, 0, 0, 0, 0, 0, 0]])];
            tensor<int32, []> stack_0_axis_0 = const()[name = tensor<string, []>("stack_0_axis_0"), val = tensor<int32, []>(2)];
            tensor<int32, [1, 300, 2]> stack_0 = stack(axis = stack_0_axis_0, values = (var_1429_after_broadcast, floor_div_0))[name = tensor<string, []>("stack_0")];
            tensor<int32, [1, 300, 1]> idx_transpose = gather_nd(indices = stack_0, x = ori_index)[name = tensor<string, []>("idx_transpose")];
            tensor<int32, [1]> scores_axes_0 = const()[name = tensor<string, []>("scores_axes_0"), val = tensor<int32, [1]>([2])];
            tensor<fp16, [1, 300, 1]> scores_cast_fp16 = expand_dims(axes = scores_axes_0, x = scores_5_cast_fp16_0)[name = tensor<string, []>("scores_cast_fp16")];
            tensor<int32, [1, 300]> var_1434_div = floor_div(x = scores_5_cast_fp16_1, y = nc)[name = tensor<string, []>("op_1434_div")];
            tensor<int32, [1, 300]> var_1434_div_scaled = mul(x = var_1434_div, y = nc)[name = tensor<string, []>("op_1434_div_scaled")];
            tensor<int32, [1, 300]> var_1434 = sub(x = scores_5_cast_fp16_1, y = var_1434_div_scaled)[name = tensor<string, []>("op_1434")];
            tensor<int32, [1]> var_1435_axes_0 = const()[name = tensor<string, []>("op_1435_axes_0"), val = tensor<int32, [1]>([2])];
            tensor<int32, [1, 300, 1]> var_1435 = expand_dims(axes = var_1435_axes_0, x = var_1434)[name = tensor<string, []>("op_1435")];
            tensor<int32, [3]> var_1437 = const()[name = tensor<string, []>("op_1437"), val = tensor<int32, [3]>([1, 1, 4])];
            tensor<int32, [1, 300, 4]> var_1438 = tile(reps = var_1437, x = idx_transpose)[name = tensor<string, []>("op_1438")];
            tensor<fp16, [1, 300, 4]> boxes_cast_fp16 = gather_along_axis(axis = var_1127, indices = var_1438, x = var_1411_cast_fp16_0)[name = tensor<string, []>("boxes_cast_fp16")];
            tensor<bool, []> var_1441_interleave_0 = const()[name = tensor<string, []>("op_1441_interleave_0"), val = tensor<bool, []>(false)];
            tensor<string, []> conf_to_fp16_dtype_0 = const()[name = tensor<string, []>("conf_to_fp16_dtype_0"), val = tensor<string, []>("fp16")];
            tensor<fp16, [1, 300, 1]> var_1435_to_fp16 = cast(dtype = conf_to_fp16_dtype_0, x = var_1435)[name = tensor<string, []>("cast_15")];
            tensor<fp16, [1, 300, 6]> var_1441_cast_fp16 = concat(axis = var_1125, interleave = var_1441_interleave_0, values = (boxes_cast_fp16, scores_cast_fp16, var_1435_to_fp16))[name = tensor<string, []>("op_1441_cast_fp16")];
            tensor<string, []> var_1441_cast_fp16_to_fp32_dtype_0 = const()[name = tensor<string, []>("op_1441_cast_fp16_to_fp32_dtype_0"), val = tensor<string, []>("fp32")];
            tensor<fp32, [1, 300, 6]> var_1441 = cast(dtype = var_1441_cast_fp16_to_fp32_dtype_0, x = var_1441_cast_fp16)[name = tensor<string, []>("cast_14")];
        } -> (var_1441);
}